// -----// IR Dump After AutoInputConversionPipelinePass (iree-auto-input-conversion) //----- //
#map = affine_map<(d0, d1, d2, d3) -> (d0, d1, d3)>
#map1 = affine_map<(d0, d1, d2, d3) -> (d0, d2, d3)>
#map2 = affine_map<(d0, d1, d2, d3) -> (d0, d1, d2)>
#map3 = affine_map<(d0, d1, d2) -> (d0, d1, d2)>
#map4 = affine_map<(d0, d1, d2, d3) -> (d0, d3, d2)>
#map5 = affine_map<(d0, d1, d2, d3) -> (d0, d1)>
#map6 = affine_map<(d0, d1, d2) -> (d0, d1)>
module {
  func.func @attention(%arg0: tensor<20x4096x64xf16>, %arg1: tensor<20x4096x64xf16>, %arg2: tensor<20x4096x64xf16>) -> tensor<20x4096x64xf16> {
    %cst = arith.constant -3.40282347E+38 : f32
    %cst_0 = arith.constant 0.000000e+00 : f32
    %cst_1 = arith.constant 1.250000e-01 : f32
    %c0 = arith.constant 0 : index
    %0 = tensor.empty() : tensor<20x4096x4096xf32>
    %1 = linalg.fill ins(%cst_0 : f32) outs(%0 : tensor<20x4096x4096xf32>) -> tensor<20x4096x4096xf32>
    %2 = linalg.generic {indexing_maps = [#map, #map1, #map2], iterator_types = ["parallel", "parallel", "parallel", "reduction"]} ins(%arg0, %arg1 : tensor<20x4096x64xf16>, tensor<20x4096x64xf16>) outs(%1 : tensor<20x4096x4096xf32>) {
    ^bb0(%in: f16, %in_2: f16, %out: f32):
      %12 = arith.extf %in : f16 to f32
      %13 = arith.extf %in_2 : f16 to f32
      %14 = arith.mulf %12, %13 : f32
      %15 = arith.addf %14, %out : f32
      linalg.yield %15 : f32
    } -> tensor<20x4096x4096xf32>
    %3 = linalg.generic {indexing_maps = [#map3, #map3], iterator_types = ["parallel", "parallel", "parallel"]} ins(%2 : tensor<20x4096x4096xf32>) outs(%0 : tensor<20x4096x4096xf32>) {
    ^bb0(%in: f32, %out: f32):
      %12 = arith.mulf %in, %cst_1 : f32
      linalg.yield %12 : f32
    } -> tensor<20x4096x4096xf32>
    %4 = tensor.empty() : tensor<20x4096xf32>
    %5 = tensor.empty() : tensor<20x4096x64xf32>
    %6 = linalg.fill ins(%cst : f32) outs(%4 : tensor<20x4096xf32>) -> tensor<20x4096xf32>
    %7 = linalg.fill ins(%cst_0 : f32) outs(%4 : tensor<20x4096xf32>) -> tensor<20x4096xf32>
    %8 = linalg.fill ins(%cst_0 : f32) outs(%5 : tensor<20x4096x64xf32>) -> tensor<20x4096x64xf32>
    %9:3 = iree_linalg_ext.exp_reduction{indexing_maps = [#map, #map4, #map5, #map5, #map2], iterator_types = [#iree_linalg_ext.iterator_type<parallel>, #iree_linalg_ext.iterator_type<parallel>, #iree_linalg_ext.iterator_type<parallel>, #iree_linalg_ext.iterator_type<reduction>], exp_reduced_operands = [1, 2]} ins(%3, %arg2 : tensor<20x4096x4096xf32>, tensor<20x4096x64xf16>) outs(%6, %7, %8 : tensor<20x4096xf32>, tensor<20x4096xf32>, tensor<20x4096x64xf32>) {
    ^bb0(%arg3: f32, %arg4: f16, %arg5: f32, %arg6: f32, %arg7: f32):
      %12 = arith.addf %arg3, %arg6 : f32
      %13 = arith.truncf %arg3 : f32 to f16
      %14 = arith.extf %13 : f16 to f32
      %15 = arith.extf %arg4 : f16 to f32
      %16 = arith.mulf %14, %15 : f32
      %17 = arith.addf %16, %arg7 : f32
      iree_linalg_ext.yield %arg5, %12, %17 : f32, f32, f32
    } -> tensor<20x4096xf32>, tensor<20x4096xf32>, tensor<20x4096x64xf32>
    %10 = tensor.empty() : tensor<20x4096x64xf16>
    %11 = linalg.generic {indexing_maps = [#map3, #map6, #map3], iterator_types = ["parallel", "parallel", "parallel"]} ins(%9#2, %9#1 : tensor<20x4096x64xf32>, tensor<20x4096xf32>) outs(%10 : tensor<20x4096x64xf16>) {
    ^bb0(%in: f32, %in_2: f32, %out: f16):
      %12 = arith.divf %in, %in_2 : f32
      %13 = arith.truncf %12 : f32 to f16
      linalg.yield %13 : f16
    } -> tensor<20x4096x64xf16>
    return %11 : tensor<20x4096x64xf16>
  }
}


// -----// IR Dump After IREEImportPublicPass (iree-import-public) //----- //
#map = affine_map<(d0, d1, d2, d3) -> (d0, d1, d3)>
#map1 = affine_map<(d0, d1, d2, d3) -> (d0, d2, d3)>
#map2 = affine_map<(d0, d1, d2, d3) -> (d0, d1, d2)>
#map3 = affine_map<(d0, d1, d2) -> (d0, d1, d2)>
#map4 = affine_map<(d0, d1, d2, d3) -> (d0, d3, d2)>
#map5 = affine_map<(d0, d1, d2, d3) -> (d0, d1)>
#map6 = affine_map<(d0, d1, d2) -> (d0, d1)>
module {
  util.func public @attention(%arg0: tensor<20x4096x64xf16>, %arg1: tensor<20x4096x64xf16>, %arg2: tensor<20x4096x64xf16>) -> tensor<20x4096x64xf16> {
    %cst = arith.constant -3.40282347E+38 : f32
    %cst_0 = arith.constant 0.000000e+00 : f32
    %cst_1 = arith.constant 1.250000e-01 : f32
    %c0 = arith.constant 0 : index
    %0 = tensor.empty() : tensor<20x4096x4096xf32>
    %1 = linalg.fill ins(%cst_0 : f32) outs(%0 : tensor<20x4096x4096xf32>) -> tensor<20x4096x4096xf32>
    %2 = linalg.generic {indexing_maps = [#map, #map1, #map2], iterator_types = ["parallel", "parallel", "parallel", "reduction"]} ins(%arg0, %arg1 : tensor<20x4096x64xf16>, tensor<20x4096x64xf16>) outs(%1 : tensor<20x4096x4096xf32>) {
    ^bb0(%in: f16, %in_2: f16, %out: f32):
      %12 = arith.extf %in : f16 to f32
      %13 = arith.extf %in_2 : f16 to f32
      %14 = arith.mulf %12, %13 : f32
      %15 = arith.addf %14, %out : f32
      linalg.yield %15 : f32
    } -> tensor<20x4096x4096xf32>
    %3 = linalg.generic {indexing_maps = [#map3, #map3], iterator_types = ["parallel", "parallel", "parallel"]} ins(%2 : tensor<20x4096x4096xf32>) outs(%0 : tensor<20x4096x4096xf32>) {
    ^bb0(%in: f32, %out: f32):
      %12 = arith.mulf %in, %cst_1 : f32
      linalg.yield %12 : f32
    } -> tensor<20x4096x4096xf32>
    %4 = tensor.empty() : tensor<20x4096xf32>
    %5 = tensor.empty() : tensor<20x4096x64xf32>
    %6 = linalg.fill ins(%cst : f32) outs(%4 : tensor<20x4096xf32>) -> tensor<20x4096xf32>
    %7 = linalg.fill ins(%cst_0 : f32) outs(%4 : tensor<20x4096xf32>) -> tensor<20x4096xf32>
    %8 = linalg.fill ins(%cst_0 : f32) outs(%5 : tensor<20x4096x64xf32>) -> tensor<20x4096x64xf32>
    %9:3 = iree_linalg_ext.exp_reduction{indexing_maps = [#map, #map4, #map5, #map5, #map2], iterator_types = [#iree_linalg_ext.iterator_type<parallel>, #iree_linalg_ext.iterator_type<parallel>, #iree_linalg_ext.iterator_type<parallel>, #iree_linalg_ext.iterator_type<reduction>], exp_reduced_operands = [1, 2]} ins(%3, %arg2 : tensor<20x4096x4096xf32>, tensor<20x4096x64xf16>) outs(%6, %7, %8 : tensor<20x4096xf32>, tensor<20x4096xf32>, tensor<20x4096x64xf32>) {
    ^bb0(%arg3: f32, %arg4: f16, %arg5: f32, %arg6: f32, %arg7: f32):
      %12 = arith.addf %arg3, %arg6 : f32
      %13 = arith.truncf %arg3 : f32 to f16
      %14 = arith.extf %13 : f16 to f32
      %15 = arith.extf %arg4 : f16 to f32
      %16 = arith.mulf %14, %15 : f32
      %17 = arith.addf %16, %arg7 : f32
      iree_linalg_ext.yield %arg5, %12, %17 : f32, f32, f32
    } -> tensor<20x4096xf32>, tensor<20x4096xf32>, tensor<20x4096x64xf32>
    %10 = tensor.empty() : tensor<20x4096x64xf16>
    %11 = linalg.generic {indexing_maps = [#map3, #map6, #map3], iterator_types = ["parallel", "parallel", "parallel"]} ins(%9#2, %9#1 : tensor<20x4096x64xf32>, tensor<20x4096xf32>) outs(%10 : tensor<20x4096x64xf16>) {
    ^bb0(%in: f32, %in_2: f32, %out: f16):
      %12 = arith.divf %in, %in_2 : f32
      %13 = arith.truncf %12 : f32 to f16
      linalg.yield %13 : f16
    } -> tensor<20x4096x64xf16>
    util.return %11 : tensor<20x4096x64xf16>
  }
}


// -----// IR Dump After ImportMLProgramPass (iree-import-ml-program) //----- //
#map = affine_map<(d0, d1, d2, d3) -> (d0, d1, d3)>
#map1 = affine_map<(d0, d1, d2, d3) -> (d0, d2, d3)>
#map2 = affine_map<(d0, d1, d2, d3) -> (d0, d1, d2)>
#map3 = affine_map<(d0, d1, d2) -> (d0, d1, d2)>
#map4 = affine_map<(d0, d1, d2, d3) -> (d0, d3, d2)>
#map5 = affine_map<(d0, d1, d2, d3) -> (d0, d1)>
#map6 = affine_map<(d0, d1, d2) -> (d0, d1)>
module {
  util.func public @attention(%arg0: tensor<20x4096x64xf16>, %arg1: tensor<20x4096x64xf16>, %arg2: tensor<20x4096x64xf16>) -> tensor<20x4096x64xf16> {
    %cst = arith.constant -3.40282347E+38 : f32
    %cst_0 = arith.constant 0.000000e+00 : f32
    %cst_1 = arith.constant 1.250000e-01 : f32
    %c0 = arith.constant 0 : index
    %0 = tensor.empty() : tensor<20x4096x4096xf32>
    %1 = linalg.fill ins(%cst_0 : f32) outs(%0 : tensor<20x4096x4096xf32>) -> tensor<20x4096x4096xf32>
    %2 = linalg.generic {indexing_maps = [#map, #map1, #map2], iterator_types = ["parallel", "parallel", "parallel", "reduction"]} ins(%arg0, %arg1 : tensor<20x4096x64xf16>, tensor<20x4096x64xf16>) outs(%1 : tensor<20x4096x4096xf32>) {
    ^bb0(%in: f16, %in_2: f16, %out: f32):
      %12 = arith.extf %in : f16 to f32
      %13 = arith.extf %in_2 : f16 to f32
      %14 = arith.mulf %12, %13 : f32
      %15 = arith.addf %14, %out : f32
      linalg.yield %15 : f32
    } -> tensor<20x4096x4096xf32>
    %3 = linalg.generic {indexing_maps = [#map3, #map3], iterator_types = ["parallel", "parallel", "parallel"]} ins(%2 : tensor<20x4096x4096xf32>) outs(%0 : tensor<20x4096x4096xf32>) {
    ^bb0(%in: f32, %out: f32):
      %12 = arith.mulf %in, %cst_1 : f32
      linalg.yield %12 : f32
    } -> tensor<20x4096x4096xf32>
    %4 = tensor.empty() : tensor<20x4096xf32>
    %5 = tensor.empty() : tensor<20x4096x64xf32>
    %6 = linalg.fill ins(%cst : f32) outs(%4 : tensor<20x4096xf32>) -> tensor<20x4096xf32>
    %7 = linalg.fill ins(%cst_0 : f32) outs(%4 : tensor<20x4096xf32>) -> tensor<20x4096xf32>
    %8 = linalg.fill ins(%cst_0 : f32) outs(%5 : tensor<20x4096x64xf32>) -> tensor<20x4096x64xf32>
    %9:3 = iree_linalg_ext.exp_reduction{indexing_maps = [#map, #map4, #map5, #map5, #map2], iterator_types = [#iree_linalg_ext.iterator_type<parallel>, #iree_linalg_ext.iterator_type<parallel>, #iree_linalg_ext.iterator_type<parallel>, #iree_linalg_ext.iterator_type<reduction>], exp_reduced_operands = [1, 2]} ins(%3, %arg2 : tensor<20x4096x4096xf32>, tensor<20x4096x64xf16>) outs(%6, %7, %8 : tensor<20x4096xf32>, tensor<20x4096xf32>, tensor<20x4096x64xf32>) {
    ^bb0(%arg3: f32, %arg4: f16, %arg5: f32, %arg6: f32, %arg7: f32):
      %12 = arith.addf %arg3, %arg6 : f32
      %13 = arith.truncf %arg3 : f32 to f16
      %14 = arith.extf %13 : f16 to f32
      %15 = arith.extf %arg4 : f16 to f32
      %16 = arith.mulf %14, %15 : f32
      %17 = arith.addf %16, %arg7 : f32
      iree_linalg_ext.yield %arg5, %12, %17 : f32, f32, f32
    } -> tensor<20x4096xf32>, tensor<20x4096xf32>, tensor<20x4096x64xf32>
    %10 = tensor.empty() : tensor<20x4096x64xf16>
    %11 = linalg.generic {indexing_maps = [#map3, #map6, #map3], iterator_types = ["parallel", "parallel", "parallel"]} ins(%9#2, %9#1 : tensor<20x4096x64xf32>, tensor<20x4096xf32>) outs(%10 : tensor<20x4096x64xf16>) {
    ^bb0(%in: f32, %in_2: f32, %out: f16):
      %12 = arith.divf %in, %in_2 : f32
      %13 = arith.truncf %12 : f32 to f16
      linalg.yield %13 : f16
    } -> tensor<20x4096x64xf16>
    util.return %11 : tensor<20x4096x64xf16>
  }
}


// -----// IR Dump After SanitizeModuleNamesPass (iree-sanitize-module-names) //----- //
#map = affine_map<(d0, d1, d2, d3) -> (d0, d1, d3)>
#map1 = affine_map<(d0, d1, d2, d3) -> (d0, d2, d3)>
#map2 = affine_map<(d0, d1, d2, d3) -> (d0, d1, d2)>
#map3 = affine_map<(d0, d1, d2) -> (d0, d1, d2)>
#map4 = affine_map<(d0, d1, d2, d3) -> (d0, d3, d2)>
#map5 = affine_map<(d0, d1, d2, d3) -> (d0, d1)>
#map6 = affine_map<(d0, d1, d2) -> (d0, d1)>
module {
  util.func public @attention(%arg0: tensor<20x4096x64xf16>, %arg1: tensor<20x4096x64xf16>, %arg2: tensor<20x4096x64xf16>) -> tensor<20x4096x64xf16> {
    %cst = arith.constant -3.40282347E+38 : f32
    %cst_0 = arith.constant 0.000000e+00 : f32
    %cst_1 = arith.constant 1.250000e-01 : f32
    %c0 = arith.constant 0 : index
    %0 = tensor.empty() : tensor<20x4096x4096xf32>
    %1 = linalg.fill ins(%cst_0 : f32) outs(%0 : tensor<20x4096x4096xf32>) -> tensor<20x4096x4096xf32>
    %2 = linalg.generic {indexing_maps = [#map, #map1, #map2], iterator_types = ["parallel", "parallel", "parallel", "reduction"]} ins(%arg0, %arg1 : tensor<20x4096x64xf16>, tensor<20x4096x64xf16>) outs(%1 : tensor<20x4096x4096xf32>) {
    ^bb0(%in: f16, %in_2: f16, %out: f32):
      %12 = arith.extf %in : f16 to f32
      %13 = arith.extf %in_2 : f16 to f32
      %14 = arith.mulf %12, %13 : f32
      %15 = arith.addf %14, %out : f32
      linalg.yield %15 : f32
    } -> tensor<20x4096x4096xf32>
    %3 = linalg.generic {indexing_maps = [#map3, #map3], iterator_types = ["parallel", "parallel", "parallel"]} ins(%2 : tensor<20x4096x4096xf32>) outs(%0 : tensor<20x4096x4096xf32>) {
    ^bb0(%in: f32, %out: f32):
      %12 = arith.mulf %in, %cst_1 : f32
      linalg.yield %12 : f32
    } -> tensor<20x4096x4096xf32>
    %4 = tensor.empty() : tensor<20x4096xf32>
    %5 = tensor.empty() : tensor<20x4096x64xf32>
    %6 = linalg.fill ins(%cst : f32) outs(%4 : tensor<20x4096xf32>) -> tensor<20x4096xf32>
    %7 = linalg.fill ins(%cst_0 : f32) outs(%4 : tensor<20x4096xf32>) -> tensor<20x4096xf32>
    %8 = linalg.fill ins(%cst_0 : f32) outs(%5 : tensor<20x4096x64xf32>) -> tensor<20x4096x64xf32>
    %9:3 = iree_linalg_ext.exp_reduction{indexing_maps = [#map, #map4, #map5, #map5, #map2], iterator_types = [#iree_linalg_ext.iterator_type<parallel>, #iree_linalg_ext.iterator_type<parallel>, #iree_linalg_ext.iterator_type<parallel>, #iree_linalg_ext.iterator_type<reduction>], exp_reduced_operands = [1, 2]} ins(%3, %arg2 : tensor<20x4096x4096xf32>, tensor<20x4096x64xf16>) outs(%6, %7, %8 : tensor<20x4096xf32>, tensor<20x4096xf32>, tensor<20x4096x64xf32>) {
    ^bb0(%arg3: f32, %arg4: f16, %arg5: f32, %arg6: f32, %arg7: f32):
      %12 = arith.addf %arg3, %arg6 : f32
      %13 = arith.truncf %arg3 : f32 to f16
      %14 = arith.extf %13 : f16 to f32
      %15 = arith.extf %arg4 : f16 to f32
      %16 = arith.mulf %14, %15 : f32
      %17 = arith.addf %16, %arg7 : f32
      iree_linalg_ext.yield %arg5, %12, %17 : f32, f32, f32
    } -> tensor<20x4096xf32>, tensor<20x4096xf32>, tensor<20x4096x64xf32>
    %10 = tensor.empty() : tensor<20x4096x64xf16>
    %11 = linalg.generic {indexing_maps = [#map3, #map6, #map3], iterator_types = ["parallel", "parallel", "parallel"]} ins(%9#2, %9#1 : tensor<20x4096x64xf32>, tensor<20x4096xf32>) outs(%10 : tensor<20x4096x64xf16>) {
    ^bb0(%in: f32, %in_2: f32, %out: f16):
      %12 = arith.divf %in, %in_2 : f32
      %13 = arith.truncf %12 : f32 to f16
      linalg.yield %13 : f16
    } -> tensor<20x4096x64xf16>
    util.return %11 : tensor<20x4096x64xf16>
  }
}


// -----// IR Dump After ConvertShardToFlowPass (iree-convert-shard-to-flow) //----- //
#map = affine_map<(d0, d1, d2, d3) -> (d0, d1, d3)>
#map1 = affine_map<(d0, d1, d2, d3) -> (d0, d2, d3)>
#map2 = affine_map<(d0, d1, d2, d3) -> (d0, d1, d2)>
#map3 = affine_map<(d0, d1, d2) -> (d0, d1, d2)>
#map4 = affine_map<(d0, d1, d2, d3) -> (d0, d3, d2)>
#map5 = affine_map<(d0, d1, d2, d3) -> (d0, d1)>
#map6 = affine_map<(d0, d1, d2) -> (d0, d1)>
module {
  util.func public @attention(%arg0: tensor<20x4096x64xf16>, %arg1: tensor<20x4096x64xf16>, %arg2: tensor<20x4096x64xf16>) -> tensor<20x4096x64xf16> {
    %cst = arith.constant -3.40282347E+38 : f32
    %cst_0 = arith.constant 0.000000e+00 : f32
    %cst_1 = arith.constant 1.250000e-01 : f32
    %0 = tensor.empty() : tensor<20x4096x4096xf32>
    %1 = linalg.fill ins(%cst_0 : f32) outs(%0 : tensor<20x4096x4096xf32>) -> tensor<20x4096x4096xf32>
    %2 = linalg.generic {indexing_maps = [#map, #map1, #map2], iterator_types = ["parallel", "parallel", "parallel", "reduction"]} ins(%arg0, %arg1 : tensor<20x4096x64xf16>, tensor<20x4096x64xf16>) outs(%1 : tensor<20x4096x4096xf32>) {
    ^bb0(%in: f16, %in_2: f16, %out: f32):
      %12 = arith.extf %in : f16 to f32
      %13 = arith.extf %in_2 : f16 to f32
      %14 = arith.mulf %12, %13 : f32
      %15 = arith.addf %14, %out : f32
      linalg.yield %15 : f32
    } -> tensor<20x4096x4096xf32>
    %3 = linalg.generic {indexing_maps = [#map3, #map3], iterator_types = ["parallel", "parallel", "parallel"]} ins(%2 : tensor<20x4096x4096xf32>) outs(%0 : tensor<20x4096x4096xf32>) {
    ^bb0(%in: f32, %out: f32):
      %12 = arith.mulf %in, %cst_1 : f32
      linalg.yield %12 : f32
    } -> tensor<20x4096x4096xf32>
    %4 = tensor.empty() : tensor<20x4096xf32>
    %5 = tensor.empty() : tensor<20x4096x64xf32>
    %6 = linalg.fill ins(%cst : f32) outs(%4 : tensor<20x4096xf32>) -> tensor<20x4096xf32>
    %7 = linalg.fill ins(%cst_0 : f32) outs(%4 : tensor<20x4096xf32>) -> tensor<20x4096xf32>
    %8 = linalg.fill ins(%cst_0 : f32) outs(%5 : tensor<20x4096x64xf32>) -> tensor<20x4096x64xf32>
    %9:3 = iree_linalg_ext.exp_reduction{indexing_maps = [#map, #map4, #map5, #map5, #map2], iterator_types = [#iree_linalg_ext.iterator_type<parallel>, #iree_linalg_ext.iterator_type<parallel>, #iree_linalg_ext.iterator_type<parallel>, #iree_linalg_ext.iterator_type<reduction>], exp_reduced_operands = [1, 2]} ins(%3, %arg2 : tensor<20x4096x4096xf32>, tensor<20x4096x64xf16>) outs(%6, %7, %8 : tensor<20x4096xf32>, tensor<20x4096xf32>, tensor<20x4096x64xf32>) {
    ^bb0(%arg3: f32, %arg4: f16, %arg5: f32, %arg6: f32, %arg7: f32):
      %12 = arith.addf %arg3, %arg6 : f32
      %13 = arith.truncf %arg3 : f32 to f16
      %14 = arith.extf %13 : f16 to f32
      %15 = arith.extf %arg4 : f16 to f32
      %16 = arith.mulf %14, %15 : f32
      %17 = arith.addf %16, %arg7 : f32
      iree_linalg_ext.yield %arg5, %12, %17 : f32, f32, f32
    } -> tensor<20x4096xf32>, tensor<20x4096xf32>, tensor<20x4096x64xf32>
    %10 = tensor.empty() : tensor<20x4096x64xf16>
    %11 = linalg.generic {indexing_maps = [#map3, #map6, #map3], iterator_types = ["parallel", "parallel", "parallel"]} ins(%9#2, %9#1 : tensor<20x4096x64xf32>, tensor<20x4096xf32>) outs(%10 : tensor<20x4096x64xf16>) {
    ^bb0(%in: f32, %in_2: f32, %out: f16):
      %12 = arith.divf %in, %in_2 : f32
      %13 = arith.truncf %12 : f32 to f16
      linalg.yield %13 : f16
    } -> tensor<20x4096x64xf16>
    util.return %11 : tensor<20x4096x64xf16>
  }
}


// -----// IR Dump After DemoteF64ToF32Pass (iree-input-conversion-demote-f64-to-f32) //----- //
#map = affine_map<(d0, d1, d2, d3) -> (d0, d1, d3)>
#map1 = affine_map<(d0, d1, d2, d3) -> (d0, d2, d3)>
#map2 = affine_map<(d0, d1, d2, d3) -> (d0, d1, d2)>
#map3 = affine_map<(d0, d1, d2) -> (d0, d1, d2)>
#map4 = affine_map<(d0, d1, d2, d3) -> (d0, d3, d2)>
#map5 = affine_map<(d0, d1, d2, d3) -> (d0, d1)>
#map6 = affine_map<(d0, d1, d2) -> (d0, d1)>
module {
  util.func public @attention(%arg0: tensor<20x4096x64xf16>, %arg1: tensor<20x4096x64xf16>, %arg2: tensor<20x4096x64xf16>) -> tensor<20x4096x64xf16> {
    %cst = arith.constant -3.40282347E+38 : f32
    %cst_0 = arith.constant 0.000000e+00 : f32
    %cst_1 = arith.constant 1.250000e-01 : f32
    %0 = tensor.empty() : tensor<20x4096x4096xf32>
    %1 = linalg.fill ins(%cst_0 : f32) outs(%0 : tensor<20x4096x4096xf32>) -> tensor<20x4096x4096xf32>
    %2 = linalg.generic {indexing_maps = [#map, #map1, #map2], iterator_types = ["parallel", "parallel", "parallel", "reduction"]} ins(%arg0, %arg1 : tensor<20x4096x64xf16>, tensor<20x4096x64xf16>) outs(%1 : tensor<20x4096x4096xf32>) {
    ^bb0(%in: f16, %in_2: f16, %out: f32):
      %12 = arith.extf %in : f16 to f32
      %13 = arith.extf %in_2 : f16 to f32
      %14 = arith.mulf %12, %13 : f32
      %15 = arith.addf %14, %out : f32
      linalg.yield %15 : f32
    } -> tensor<20x4096x4096xf32>
    %3 = linalg.generic {indexing_maps = [#map3, #map3], iterator_types = ["parallel", "parallel", "parallel"]} ins(%2 : tensor<20x4096x4096xf32>) outs(%0 : tensor<20x4096x4096xf32>) {
    ^bb0(%in: f32, %out: f32):
      %12 = arith.mulf %in, %cst_1 : f32
      linalg.yield %12 : f32
    } -> tensor<20x4096x4096xf32>
    %4 = tensor.empty() : tensor<20x4096xf32>
    %5 = tensor.empty() : tensor<20x4096x64xf32>
    %6 = linalg.fill ins(%cst : f32) outs(%4 : tensor<20x4096xf32>) -> tensor<20x4096xf32>
    %7 = linalg.fill ins(%cst_0 : f32) outs(%4 : tensor<20x4096xf32>) -> tensor<20x4096xf32>
    %8 = linalg.fill ins(%cst_0 : f32) outs(%5 : tensor<20x4096x64xf32>) -> tensor<20x4096x64xf32>
    %9:3 = iree_linalg_ext.exp_reduction{indexing_maps = [#map, #map4, #map5, #map5, #map2], iterator_types = [#iree_linalg_ext.iterator_type<parallel>, #iree_linalg_ext.iterator_type<parallel>, #iree_linalg_ext.iterator_type<parallel>, #iree_linalg_ext.iterator_type<reduction>], exp_reduced_operands = [1, 2]} ins(%3, %arg2 : tensor<20x4096x4096xf32>, tensor<20x4096x64xf16>) outs(%6, %7, %8 : tensor<20x4096xf32>, tensor<20x4096xf32>, tensor<20x4096x64xf32>) {
    ^bb0(%arg3: f32, %arg4: f16, %arg5: f32, %arg6: f32, %arg7: f32):
      %12 = arith.addf %arg3, %arg6 : f32
      %13 = arith.truncf %arg3 : f32 to f16
      %14 = arith.extf %13 : f16 to f32
      %15 = arith.extf %arg4 : f16 to f32
      %16 = arith.mulf %14, %15 : f32
      %17 = arith.addf %16, %arg7 : f32
      iree_linalg_ext.yield %arg5, %12, %17 : f32, f32, f32
    } -> tensor<20x4096xf32>, tensor<20x4096xf32>, tensor<20x4096x64xf32>
    %10 = tensor.empty() : tensor<20x4096x64xf16>
    %11 = linalg.generic {indexing_maps = [#map3, #map6, #map3], iterator_types = ["parallel", "parallel", "parallel"]} ins(%9#2, %9#1 : tensor<20x4096x64xf32>, tensor<20x4096xf32>) outs(%10 : tensor<20x4096x64xf16>) {
    ^bb0(%in: f32, %in_2: f32, %out: f16):
      %12 = arith.divf %in, %in_2 : f32
      %13 = arith.truncf %12 : f32 to f16
      linalg.yield %13 : f16
    } -> tensor<20x4096x64xf16>
    util.return %11 : tensor<20x4096x64xf16>
  }
}


// -----// IR Dump After ConvertStreamableOpsPass (iree-abi-convert-streamable-ops) //----- //
#map = affine_map<(d0, d1, d2, d3) -> (d0, d1, d3)>
#map1 = affine_map<(d0, d1, d2, d3) -> (d0, d2, d3)>
#map2 = affine_map<(d0, d1, d2, d3) -> (d0, d1, d2)>
#map3 = affine_map<(d0, d1, d2) -> (d0, d1, d2)>
#map4 = affine_map<(d0, d1, d2, d3) -> (d0, d3, d2)>
#map5 = affine_map<(d0, d1, d2, d3) -> (d0, d1)>
#map6 = affine_map<(d0, d1, d2) -> (d0, d1)>
module {
  util.func public @attention(%arg0: tensor<20x4096x64xf16>, %arg1: tensor<20x4096x64xf16>, %arg2: tensor<20x4096x64xf16>) -> tensor<20x4096x64xf16> {
    %cst = arith.constant -3.40282347E+38 : f32
    %cst_0 = arith.constant 0.000000e+00 : f32
    %cst_1 = arith.constant 1.250000e-01 : f32
    %0 = tensor.empty() : tensor<20x4096x4096xf32>
    %1 = linalg.fill ins(%cst_0 : f32) outs(%0 : tensor<20x4096x4096xf32>) -> tensor<20x4096x4096xf32>
    %2 = linalg.generic {indexing_maps = [#map, #map1, #map2], iterator_types = ["parallel", "parallel", "parallel", "reduction"]} ins(%arg0, %arg1 : tensor<20x4096x64xf16>, tensor<20x4096x64xf16>) outs(%1 : tensor<20x4096x4096xf32>) {
    ^bb0(%in: f16, %in_2: f16, %out: f32):
      %12 = arith.extf %in : f16 to f32
      %13 = arith.extf %in_2 : f16 to f32
      %14 = arith.mulf %12, %13 : f32
      %15 = arith.addf %14, %out : f32
      linalg.yield %15 : f32
    } -> tensor<20x4096x4096xf32>
    %3 = linalg.generic {indexing_maps = [#map3, #map3], iterator_types = ["parallel", "parallel", "parallel"]} ins(%2 : tensor<20x4096x4096xf32>) outs(%0 : tensor<20x4096x4096xf32>) {
    ^bb0(%in: f32, %out: f32):
      %12 = arith.mulf %in, %cst_1 : f32
      linalg.yield %12 : f32
    } -> tensor<20x4096x4096xf32>
    %4 = tensor.empty() : tensor<20x4096xf32>
    %5 = tensor.empty() : tensor<20x4096x64xf32>
    %6 = linalg.fill ins(%cst : f32) outs(%4 : tensor<20x4096xf32>) -> tensor<20x4096xf32>
    %7 = linalg.fill ins(%cst_0 : f32) outs(%4 : tensor<20x4096xf32>) -> tensor<20x4096xf32>
    %8 = linalg.fill ins(%cst_0 : f32) outs(%5 : tensor<20x4096x64xf32>) -> tensor<20x4096x64xf32>
    %9:3 = iree_linalg_ext.exp_reduction{indexing_maps = [#map, #map4, #map5, #map5, #map2], iterator_types = [#iree_linalg_ext.iterator_type<parallel>, #iree_linalg_ext.iterator_type<parallel>, #iree_linalg_ext.iterator_type<parallel>, #iree_linalg_ext.iterator_type<reduction>], exp_reduced_operands = [1, 2]} ins(%3, %arg2 : tensor<20x4096x4096xf32>, tensor<20x4096x64xf16>) outs(%6, %7, %8 : tensor<20x4096xf32>, tensor<20x4096xf32>, tensor<20x4096x64xf32>) {
    ^bb0(%arg3: f32, %arg4: f16, %arg5: f32, %arg6: f32, %arg7: f32):
      %12 = arith.addf %arg3, %arg6 : f32
      %13 = arith.truncf %arg3 : f32 to f16
      %14 = arith.extf %13 : f16 to f32
      %15 = arith.extf %arg4 : f16 to f32
      %16 = arith.mulf %14, %15 : f32
      %17 = arith.addf %16, %arg7 : f32
      iree_linalg_ext.yield %arg5, %12, %17 : f32, f32, f32
    } -> tensor<20x4096xf32>, tensor<20x4096xf32>, tensor<20x4096x64xf32>
    %10 = tensor.empty() : tensor<20x4096x64xf16>
    %11 = linalg.generic {indexing_maps = [#map3, #map6, #map3], iterator_types = ["parallel", "parallel", "parallel"]} ins(%9#2, %9#1 : tensor<20x4096x64xf32>, tensor<20x4096xf32>) outs(%10 : tensor<20x4096x64xf16>) {
    ^bb0(%in: f32, %in_2: f32, %out: f16):
      %12 = arith.divf %in, %in_2 : f32
      %13 = arith.truncf %12 : f32 to f16
      linalg.yield %13 : f16
    } -> tensor<20x4096x64xf16>
    util.return %11 : tensor<20x4096x64xf16>
  }
}


// -----// IR Dump After WrapEntryPointsPass (iree-abi-wrap-entry-points) //----- //
#map = affine_map<(d0, d1, d2, d3) -> (d0, d1, d3)>
#map1 = affine_map<(d0, d1, d2, d3) -> (d0, d2, d3)>
#map2 = affine_map<(d0, d1, d2, d3) -> (d0, d1, d2)>
#map3 = affine_map<(d0, d1, d2) -> (d0, d1, d2)>
#map4 = affine_map<(d0, d1, d2, d3) -> (d0, d3, d2)>
#map5 = affine_map<(d0, d1, d2, d3) -> (d0, d1)>
#map6 = affine_map<(d0, d1, d2) -> (d0, d1)>
module {
  util.func public @attention(%arg0: !hal.buffer_view, %arg1: !hal.buffer_view, %arg2: !hal.buffer_view) -> !hal.buffer_view attributes {iree.abi.stub, iree.reflection = {iree.abi.declaration = "sync func @attention(%input0: tensor<20x4096x64xf16>, %input1: tensor<20x4096x64xf16>, %input2: tensor<20x4096x64xf16>) -> (%output0: tensor<20x4096x64xf16>)"}} {
    %0 = hal.tensor.import %arg0 "input0" : !hal.buffer_view -> tensor<20x4096x64xf16>
    %1 = hal.tensor.import %arg1 "input1" : !hal.buffer_view -> tensor<20x4096x64xf16>
    %2 = hal.tensor.import %arg2 "input2" : !hal.buffer_view -> tensor<20x4096x64xf16>
    %3 = util.call @_attention(%0, %1, %2) : (tensor<20x4096x64xf16>, tensor<20x4096x64xf16>, tensor<20x4096x64xf16>) -> tensor<20x4096x64xf16>
    %4 = hal.tensor.export %3 "output0" : tensor<20x4096x64xf16> -> !hal.buffer_view
    util.return %4 : !hal.buffer_view
  }
  util.func private @_attention(%arg0: tensor<20x4096x64xf16>, %arg1: tensor<20x4096x64xf16>, %arg2: tensor<20x4096x64xf16>) -> tensor<20x4096x64xf16> attributes {hal.abi.convention = #hal.abi.convention<synchronous>} {
    %cst = arith.constant -3.40282347E+38 : f32
    %cst_0 = arith.constant 0.000000e+00 : f32
    %cst_1 = arith.constant 1.250000e-01 : f32
    %0 = tensor.empty() : tensor<20x4096x4096xf32>
    %1 = linalg.fill ins(%cst_0 : f32) outs(%0 : tensor<20x4096x4096xf32>) -> tensor<20x4096x4096xf32>
    %2 = linalg.generic {indexing_maps = [#map, #map1, #map2], iterator_types = ["parallel", "parallel", "parallel", "reduction"]} ins(%arg0, %arg1 : tensor<20x4096x64xf16>, tensor<20x4096x64xf16>) outs(%1 : tensor<20x4096x4096xf32>) {
    ^bb0(%in: f16, %in_2: f16, %out: f32):
      %12 = arith.extf %in : f16 to f32
      %13 = arith.extf %in_2 : f16 to f32
      %14 = arith.mulf %12, %13 : f32
      %15 = arith.addf %14, %out : f32
      linalg.yield %15 : f32
    } -> tensor<20x4096x4096xf32>
    %3 = linalg.generic {indexing_maps = [#map3, #map3], iterator_types = ["parallel", "parallel", "parallel"]} ins(%2 : tensor<20x4096x4096xf32>) outs(%0 : tensor<20x4096x4096xf32>) {
    ^bb0(%in: f32, %out: f32):
      %12 = arith.mulf %in, %cst_1 : f32
      linalg.yield %12 : f32
    } -> tensor<20x4096x4096xf32>
    %4 = tensor.empty() : tensor<20x4096xf32>
    %5 = tensor.empty() : tensor<20x4096x64xf32>
    %6 = linalg.fill ins(%cst : f32) outs(%4 : tensor<20x4096xf32>) -> tensor<20x4096xf32>
    %7 = linalg.fill ins(%cst_0 : f32) outs(%4 : tensor<20x4096xf32>) -> tensor<20x4096xf32>
    %8 = linalg.fill ins(%cst_0 : f32) outs(%5 : tensor<20x4096x64xf32>) -> tensor<20x4096x64xf32>
    %9:3 = iree_linalg_ext.exp_reduction{indexing_maps = [#map, #map4, #map5, #map5, #map2], iterator_types = [#iree_linalg_ext.iterator_type<parallel>, #iree_linalg_ext.iterator_type<parallel>, #iree_linalg_ext.iterator_type<parallel>, #iree_linalg_ext.iterator_type<reduction>], exp_reduced_operands = [1, 2]} ins(%3, %arg2 : tensor<20x4096x4096xf32>, tensor<20x4096x64xf16>) outs(%6, %7, %8 : tensor<20x4096xf32>, tensor<20x4096xf32>, tensor<20x4096x64xf32>) {
    ^bb0(%arg3: f32, %arg4: f16, %arg5: f32, %arg6: f32, %arg7: f32):
      %12 = arith.addf %arg3, %arg6 : f32
      %13 = arith.truncf %arg3 : f32 to f16
      %14 = arith.extf %13 : f16 to f32
      %15 = arith.extf %arg4 : f16 to f32
      %16 = arith.mulf %14, %15 : f32
      %17 = arith.addf %16, %arg7 : f32
      iree_linalg_ext.yield %arg5, %12, %17 : f32, f32, f32
    } -> tensor<20x4096xf32>, tensor<20x4096xf32>, tensor<20x4096x64xf32>
    %10 = tensor.empty() : tensor<20x4096x64xf16>
    %11 = linalg.generic {indexing_maps = [#map3, #map6, #map3], iterator_types = ["parallel", "parallel", "parallel"]} ins(%9#2, %9#1 : tensor<20x4096x64xf32>, tensor<20x4096xf32>) outs(%10 : tensor<20x4096x64xf16>) {
    ^bb0(%in: f32, %in_2: f32, %out: f16):
      %12 = arith.divf %in, %in_2 : f32
      %13 = arith.truncf %12 : f32 to f16
      linalg.yield %13 : f16
    } -> tensor<20x4096x64xf16>
    util.return %11 : tensor<20x4096x64xf16>
  }
}


// -----// IR Dump After Canonicalizer (canonicalize) //----- //
util.func private @_attention(%arg0: tensor<20x4096x64xf16>, %arg1: tensor<20x4096x64xf16>, %arg2: tensor<20x4096x64xf16>) -> tensor<20x4096x64xf16> attributes {hal.abi.convention = #hal.abi.convention<synchronous>} {
  %cst = arith.constant -3.40282347E+38 : f32
  %cst_0 = arith.constant 0.000000e+00 : f32
  %cst_1 = arith.constant 1.250000e-01 : f32
  %0 = tensor.empty() : tensor<20x4096x4096xf32>
  %1 = linalg.fill ins(%cst_0 : f32) outs(%0 : tensor<20x4096x4096xf32>) -> tensor<20x4096x4096xf32>
  %2 = linalg.generic {indexing_maps = [affine_map<(d0, d1, d2, d3) -> (d0, d1, d3)>, affine_map<(d0, d1, d2, d3) -> (d0, d2, d3)>, affine_map<(d0, d1, d2, d3) -> (d0, d1, d2)>], iterator_types = ["parallel", "parallel", "parallel", "reduction"]} ins(%arg0, %arg1 : tensor<20x4096x64xf16>, tensor<20x4096x64xf16>) outs(%1 : tensor<20x4096x4096xf32>) {
  ^bb0(%in: f16, %in_2: f16, %out: f32):
    %12 = arith.extf %in : f16 to f32
    %13 = arith.extf %in_2 : f16 to f32
    %14 = arith.mulf %12, %13 : f32
    %15 = arith.addf %14, %out : f32
    linalg.yield %15 : f32
  } -> tensor<20x4096x4096xf32>
  %3 = linalg.generic {indexing_maps = [affine_map<(d0, d1, d2) -> (d0, d1, d2)>, affine_map<(d0, d1, d2) -> (d0, d1, d2)>], iterator_types = ["parallel", "parallel", "parallel"]} ins(%2 : tensor<20x4096x4096xf32>) outs(%0 : tensor<20x4096x4096xf32>) {
  ^bb0(%in: f32, %out: f32):
    %12 = arith.mulf %in, %cst_1 : f32
    linalg.yield %12 : f32
  } -> tensor<20x4096x4096xf32>
  %4 = tensor.empty() : tensor<20x4096xf32>
  %5 = tensor.empty() : tensor<20x4096x64xf32>
  %6 = linalg.fill ins(%cst : f32) outs(%4 : tensor<20x4096xf32>) -> tensor<20x4096xf32>
  %7 = linalg.fill ins(%cst_0 : f32) outs(%4 : tensor<20x4096xf32>) -> tensor<20x4096xf32>
  %8 = linalg.fill ins(%cst_0 : f32) outs(%5 : tensor<20x4096x64xf32>) -> tensor<20x4096x64xf32>
  %9:3 = iree_linalg_ext.exp_reduction{indexing_maps = [affine_map<(d0, d1, d2, d3) -> (d0, d1, d3)>, affine_map<(d0, d1, d2, d3) -> (d0, d3, d2)>, affine_map<(d0, d1, d2, d3) -> (d0, d1)>, affine_map<(d0, d1, d2, d3) -> (d0, d1)>, affine_map<(d0, d1, d2, d3) -> (d0, d1, d2)>], iterator_types = [#iree_linalg_ext.iterator_type<parallel>, #iree_linalg_ext.iterator_type<parallel>, #iree_linalg_ext.iterator_type<parallel>, #iree_linalg_ext.iterator_type<reduction>], exp_reduced_operands = [1, 2]} ins(%3, %arg2 : tensor<20x4096x4096xf32>, tensor<20x4096x64xf16>) outs(%6, %7, %8 : tensor<20x4096xf32>, tensor<20x4096xf32>, tensor<20x4096x64xf32>) {
  ^bb0(%arg3: f32, %arg4: f16, %arg5: f32, %arg6: f32, %arg7: f32):
    %12 = arith.addf %arg3, %arg6 : f32
    %13 = arith.truncf %arg3 : f32 to f16
    %14 = arith.extf %13 : f16 to f32
    %15 = arith.extf %arg4 : f16 to f32
    %16 = arith.mulf %14, %15 : f32
    %17 = arith.addf %16, %arg7 : f32
    iree_linalg_ext.yield %arg5, %12, %17 : f32, f32, f32
  } -> tensor<20x4096xf32>, tensor<20x4096xf32>, tensor<20x4096x64xf32>
  %10 = tensor.empty() : tensor<20x4096x64xf16>
  %11 = linalg.generic {indexing_maps = [affine_map<(d0, d1, d2) -> (d0, d1, d2)>, affine_map<(d0, d1, d2) -> (d0, d1)>, affine_map<(d0, d1, d2) -> (d0, d1, d2)>], iterator_types = ["parallel", "parallel", "parallel"]} ins(%9#2, %9#1 : tensor<20x4096x64xf32>, tensor<20x4096xf32>) outs(%10 : tensor<20x4096x64xf16>) {
  ^bb0(%in: f32, %in_2: f32, %out: f16):
    %12 = arith.divf %in, %in_2 : f32
    %13 = arith.truncf %12 : f32 to f16
    linalg.yield %13 : f16
  } -> tensor<20x4096x64xf16>
  util.return %11 : tensor<20x4096x64xf16>
}

// -----// IR Dump After Canonicalizer (canonicalize) //----- //
util.func public @attention(%arg0: !hal.buffer_view, %arg1: !hal.buffer_view, %arg2: !hal.buffer_view) -> !hal.buffer_view attributes {iree.abi.stub, iree.reflection = {iree.abi.declaration = "sync func @attention(%input0: tensor<20x4096x64xf16>, %input1: tensor<20x4096x64xf16>, %input2: tensor<20x4096x64xf16>) -> (%output0: tensor<20x4096x64xf16>)"}} {
  %0 = hal.tensor.import %arg0 "input0" : !hal.buffer_view -> tensor<20x4096x64xf16>
  %1 = hal.tensor.import %arg1 "input1" : !hal.buffer_view -> tensor<20x4096x64xf16>
  %2 = hal.tensor.import %arg2 "input2" : !hal.buffer_view -> tensor<20x4096x64xf16>
  %3 = util.call @_attention(%0, %1, %2) : (tensor<20x4096x64xf16>, tensor<20x4096x64xf16>, tensor<20x4096x64xf16>) -> tensor<20x4096x64xf16>
  %4 = hal.tensor.export %3 "output0" : tensor<20x4096x64xf16> -> !hal.buffer_view
  util.return %4 : !hal.buffer_view
}

// -----// IR Dump After Canonicalizer (canonicalize) //----- //
util.func public @attention(%arg0: !hal.buffer_view, %arg1: !hal.buffer_view, %arg2: !hal.buffer_view) -> !hal.buffer_view attributes {iree.abi.stub, iree.reflection = {iree.abi.declaration = "sync func @attention(%input0: tensor<20x4096x64xf16>, %input1: tensor<20x4096x64xf16>, %input2: tensor<20x4096x64xf16>) -> (%output0: tensor<20x4096x64xf16>)"}} {
  %cst = arith.constant 1.250000e-01 : f32
  %cst_0 = arith.constant 0.000000e+00 : f32
  %cst_1 = arith.constant -3.40282347E+38 : f32
  %0 = hal.tensor.import %arg0 "input0" : !hal.buffer_view -> tensor<20x4096x64xf16>
  %1 = hal.tensor.import %arg1 "input1" : !hal.buffer_view -> tensor<20x4096x64xf16>
  %2 = hal.tensor.import %arg2 "input2" : !hal.buffer_view -> tensor<20x4096x64xf16>
  %3 = tensor.empty() : tensor<20x4096x4096xf32>
  %4 = linalg.fill ins(%cst_0 : f32) outs(%3 : tensor<20x4096x4096xf32>) -> tensor<20x4096x4096xf32>
  %5 = linalg.generic {indexing_maps = [affine_map<(d0, d1, d2, d3) -> (d0, d1, d3)>, affine_map<(d0, d1, d2, d3) -> (d0, d2, d3)>, affine_map<(d0, d1, d2, d3) -> (d0, d1, d2)>], iterator_types = ["parallel", "parallel", "parallel", "reduction"]} ins(%0, %1 : tensor<20x4096x64xf16>, tensor<20x4096x64xf16>) outs(%4 : tensor<20x4096x4096xf32>) {
  ^bb0(%in: f16, %in_2: f16, %out: f32):
    %16 = arith.extf %in : f16 to f32
    %17 = arith.extf %in_2 : f16 to f32
    %18 = arith.mulf %16, %17 : f32
    %19 = arith.addf %18, %out : f32
    linalg.yield %19 : f32
  } -> tensor<20x4096x4096xf32>
  %6 = linalg.generic {indexing_maps = [affine_map<(d0, d1, d2) -> (d0, d1, d2)>, affine_map<(d0, d1, d2) -> (d0, d1, d2)>], iterator_types = ["parallel", "parallel", "parallel"]} ins(%5 : tensor<20x4096x4096xf32>) outs(%3 : tensor<20x4096x4096xf32>) {
  ^bb0(%in: f32, %out: f32):
    %16 = arith.mulf %in, %cst : f32
    linalg.yield %16 : f32
  } -> tensor<20x4096x4096xf32>
  %7 = tensor.empty() : tensor<20x4096xf32>
  %8 = tensor.empty() : tensor<20x4096x64xf32>
  %9 = linalg.fill ins(%cst_1 : f32) outs(%7 : tensor<20x4096xf32>) -> tensor<20x4096xf32>
  %10 = linalg.fill ins(%cst_0 : f32) outs(%7 : tensor<20x4096xf32>) -> tensor<20x4096xf32>
  %11 = linalg.fill ins(%cst_0 : f32) outs(%8 : tensor<20x4096x64xf32>) -> tensor<20x4096x64xf32>
  %12:3 = iree_linalg_ext.exp_reduction{indexing_maps = [affine_map<(d0, d1, d2, d3) -> (d0, d1, d3)>, affine_map<(d0, d1, d2, d3) -> (d0, d3, d2)>, affine_map<(d0, d1, d2, d3) -> (d0, d1)>, affine_map<(d0, d1, d2, d3) -> (d0, d1)>, affine_map<(d0, d1, d2, d3) -> (d0, d1, d2)>], iterator_types = [#iree_linalg_ext.iterator_type<parallel>, #iree_linalg_ext.iterator_type<parallel>, #iree_linalg_ext.iterator_type<parallel>, #iree_linalg_ext.iterator_type<reduction>], exp_reduced_operands = [1, 2]} ins(%6, %2 : tensor<20x4096x4096xf32>, tensor<20x4096x64xf16>) outs(%9, %10, %11 : tensor<20x4096xf32>, tensor<20x4096xf32>, tensor<20x4096x64xf32>) {
  ^bb0(%arg3: f32, %arg4: f16, %arg5: f32, %arg6: f32, %arg7: f32):
    %16 = arith.addf %arg3, %arg6 : f32
    %17 = arith.truncf %arg3 : f32 to f16
    %18 = arith.extf %17 : f16 to f32
    %19 = arith.extf %arg4 : f16 to f32
    %20 = arith.mulf %18, %19 : f32
    %21 = arith.addf %20, %arg7 : f32
    iree_linalg_ext.yield %arg5, %16, %21 : f32, f32, f32
  } -> tensor<20x4096xf32>, tensor<20x4096xf32>, tensor<20x4096x64xf32>
  %13 = tensor.empty() : tensor<20x4096x64xf16>
  %14 = linalg.generic {indexing_maps = [affine_map<(d0, d1, d2) -> (d0, d1, d2)>, affine_map<(d0, d1, d2) -> (d0, d1)>, affine_map<(d0, d1, d2) -> (d0, d1, d2)>], iterator_types = ["parallel", "parallel", "parallel"]} ins(%12#2, %12#1 : tensor<20x4096x64xf32>, tensor<20x4096xf32>) outs(%13 : tensor<20x4096x64xf16>) {
  ^bb0(%in: f32, %in_2: f32, %out: f16):
    %16 = arith.divf %in, %in_2 : f32
    %17 = arith.truncf %16 : f32 to f16
    linalg.yield %17 : f16
  } -> tensor<20x4096x64xf16>
  %15 = hal.tensor.export %14 "output0" : tensor<20x4096x64xf16> -> !hal.buffer_view
  util.return %15 : !hal.buffer_view
}

// -----// IR Dump After Inliner (inline) //----- //
#map = affine_map<(d0, d1, d2, d3) -> (d0, d1, d3)>
#map1 = affine_map<(d0, d1, d2, d3) -> (d0, d2, d3)>
#map2 = affine_map<(d0, d1, d2, d3) -> (d0, d1, d2)>
#map3 = affine_map<(d0, d1, d2) -> (d0, d1, d2)>
#map4 = affine_map<(d0, d1, d2, d3) -> (d0, d3, d2)>
#map5 = affine_map<(d0, d1, d2, d3) -> (d0, d1)>
#map6 = affine_map<(d0, d1, d2) -> (d0, d1)>
module {
  util.func public @attention(%arg0: !hal.buffer_view, %arg1: !hal.buffer_view, %arg2: !hal.buffer_view) -> !hal.buffer_view attributes {iree.abi.stub, iree.reflection = {iree.abi.declaration = "sync func @attention(%input0: tensor<20x4096x64xf16>, %input1: tensor<20x4096x64xf16>, %input2: tensor<20x4096x64xf16>) -> (%output0: tensor<20x4096x64xf16>)"}} {
    %cst = arith.constant 1.250000e-01 : f32
    %cst_0 = arith.constant 0.000000e+00 : f32
    %cst_1 = arith.constant -3.40282347E+38 : f32
    %0 = hal.tensor.import %arg0 "input0" : !hal.buffer_view -> tensor<20x4096x64xf16>
    %1 = hal.tensor.import %arg1 "input1" : !hal.buffer_view -> tensor<20x4096x64xf16>
    %2 = hal.tensor.import %arg2 "input2" : !hal.buffer_view -> tensor<20x4096x64xf16>
    %3 = tensor.empty() : tensor<20x4096x4096xf32>
    %4 = linalg.fill ins(%cst_0 : f32) outs(%3 : tensor<20x4096x4096xf32>) -> tensor<20x4096x4096xf32>
    %5 = linalg.generic {indexing_maps = [#map, #map1, #map2], iterator_types = ["parallel", "parallel", "parallel", "reduction"]} ins(%0, %1 : tensor<20x4096x64xf16>, tensor<20x4096x64xf16>) outs(%4 : tensor<20x4096x4096xf32>) {
    ^bb0(%in: f16, %in_2: f16, %out: f32):
      %16 = arith.extf %in : f16 to f32
      %17 = arith.extf %in_2 : f16 to f32
      %18 = arith.mulf %16, %17 : f32
      %19 = arith.addf %18, %out : f32
      linalg.yield %19 : f32
    } -> tensor<20x4096x4096xf32>
    %6 = linalg.generic {indexing_maps = [#map3, #map3], iterator_types = ["parallel", "parallel", "parallel"]} ins(%5 : tensor<20x4096x4096xf32>) outs(%3 : tensor<20x4096x4096xf32>) {
    ^bb0(%in: f32, %out: f32):
      %16 = arith.mulf %in, %cst : f32
      linalg.yield %16 : f32
    } -> tensor<20x4096x4096xf32>
    %7 = tensor.empty() : tensor<20x4096xf32>
    %8 = tensor.empty() : tensor<20x4096x64xf32>
    %9 = linalg.fill ins(%cst_1 : f32) outs(%7 : tensor<20x4096xf32>) -> tensor<20x4096xf32>
    %10 = linalg.fill ins(%cst_0 : f32) outs(%7 : tensor<20x4096xf32>) -> tensor<20x4096xf32>
    %11 = linalg.fill ins(%cst_0 : f32) outs(%8 : tensor<20x4096x64xf32>) -> tensor<20x4096x64xf32>
    %12:3 = iree_linalg_ext.exp_reduction{indexing_maps = [#map, #map4, #map5, #map5, #map2], iterator_types = [#iree_linalg_ext.iterator_type<parallel>, #iree_linalg_ext.iterator_type<parallel>, #iree_linalg_ext.iterator_type<parallel>, #iree_linalg_ext.iterator_type<reduction>], exp_reduced_operands = [1, 2]} ins(%6, %2 : tensor<20x4096x4096xf32>, tensor<20x4096x64xf16>) outs(%9, %10, %11 : tensor<20x4096xf32>, tensor<20x4096xf32>, tensor<20x4096x64xf32>) {
    ^bb0(%arg3: f32, %arg4: f16, %arg5: f32, %arg6: f32, %arg7: f32):
      %16 = arith.addf %arg3, %arg6 : f32
      %17 = arith.truncf %arg3 : f32 to f16
      %18 = arith.extf %17 : f16 to f32
      %19 = arith.extf %arg4 : f16 to f32
      %20 = arith.mulf %18, %19 : f32
      %21 = arith.addf %20, %arg7 : f32
      iree_linalg_ext.yield %arg5, %16, %21 : f32, f32, f32
    } -> tensor<20x4096xf32>, tensor<20x4096xf32>, tensor<20x4096x64xf32>
    %13 = tensor.empty() : tensor<20x4096x64xf16>
    %14 = linalg.generic {indexing_maps = [#map3, #map6, #map3], iterator_types = ["parallel", "parallel", "parallel"]} ins(%12#2, %12#1 : tensor<20x4096x64xf32>, tensor<20x4096xf32>) outs(%13 : tensor<20x4096x64xf16>) {
    ^bb0(%in: f32, %in_2: f32, %out: f16):
      %16 = arith.divf %in, %in_2 : f32
      %17 = arith.truncf %16 : f32 to f16
      linalg.yield %17 : f16
    } -> tensor<20x4096x64xf16>
    %15 = hal.tensor.export %14 "output0" : tensor<20x4096x64xf16> -> !hal.buffer_view
    util.return %15 : !hal.buffer_view
  }
}


// -----// IR Dump After Canonicalizer (canonicalize) //----- //
util.func public @attention(%arg0: !hal.buffer_view, %arg1: !hal.buffer_view, %arg2: !hal.buffer_view) -> !hal.buffer_view attributes {iree.abi.stub, iree.reflection = {iree.abi.declaration = "sync func @attention(%input0: tensor<20x4096x64xf16>, %input1: tensor<20x4096x64xf16>, %input2: tensor<20x4096x64xf16>) -> (%output0: tensor<20x4096x64xf16>)"}} {
  %cst = arith.constant 1.250000e-01 : f32
  %cst_0 = arith.constant 0.000000e+00 : f32
  %cst_1 = arith.constant -3.40282347E+38 : f32
  %0 = hal.tensor.import %arg0 "input0" : !hal.buffer_view -> tensor<20x4096x64xf16>
  %1 = hal.tensor.import %arg1 "input1" : !hal.buffer_view -> tensor<20x4096x64xf16>
  %2 = hal.tensor.import %arg2 "input2" : !hal.buffer_view -> tensor<20x4096x64xf16>
  %3 = tensor.empty() : tensor<20x4096x4096xf32>
  %4 = linalg.fill ins(%cst_0 : f32) outs(%3 : tensor<20x4096x4096xf32>) -> tensor<20x4096x4096xf32>
  %5 = linalg.generic {indexing_maps = [affine_map<(d0, d1, d2, d3) -> (d0, d1, d3)>, affine_map<(d0, d1, d2, d3) -> (d0, d2, d3)>, affine_map<(d0, d1, d2, d3) -> (d0, d1, d2)>], iterator_types = ["parallel", "parallel", "parallel", "reduction"]} ins(%0, %1 : tensor<20x4096x64xf16>, tensor<20x4096x64xf16>) outs(%4 : tensor<20x4096x4096xf32>) {
  ^bb0(%in: f16, %in_2: f16, %out: f32):
    %16 = arith.extf %in : f16 to f32
    %17 = arith.extf %in_2 : f16 to f32
    %18 = arith.mulf %16, %17 : f32
    %19 = arith.addf %18, %out : f32
    linalg.yield %19 : f32
  } -> tensor<20x4096x4096xf32>
  %6 = linalg.generic {indexing_maps = [affine_map<(d0, d1, d2) -> (d0, d1, d2)>, affine_map<(d0, d1, d2) -> (d0, d1, d2)>], iterator_types = ["parallel", "parallel", "parallel"]} ins(%5 : tensor<20x4096x4096xf32>) outs(%3 : tensor<20x4096x4096xf32>) {
  ^bb0(%in: f32, %out: f32):
    %16 = arith.mulf %in, %cst : f32
    linalg.yield %16 : f32
  } -> tensor<20x4096x4096xf32>
  %7 = tensor.empty() : tensor<20x4096xf32>
  %8 = tensor.empty() : tensor<20x4096x64xf32>
  %9 = linalg.fill ins(%cst_1 : f32) outs(%7 : tensor<20x4096xf32>) -> tensor<20x4096xf32>
  %10 = linalg.fill ins(%cst_0 : f32) outs(%7 : tensor<20x4096xf32>) -> tensor<20x4096xf32>
  %11 = linalg.fill ins(%cst_0 : f32) outs(%8 : tensor<20x4096x64xf32>) -> tensor<20x4096x64xf32>
  %12:3 = iree_linalg_ext.exp_reduction{indexing_maps = [affine_map<(d0, d1, d2, d3) -> (d0, d1, d3)>, affine_map<(d0, d1, d2, d3) -> (d0, d3, d2)>, affine_map<(d0, d1, d2, d3) -> (d0, d1)>, affine_map<(d0, d1, d2, d3) -> (d0, d1)>, affine_map<(d0, d1, d2, d3) -> (d0, d1, d2)>], iterator_types = [#iree_linalg_ext.iterator_type<parallel>, #iree_linalg_ext.iterator_type<parallel>, #iree_linalg_ext.iterator_type<parallel>, #iree_linalg_ext.iterator_type<reduction>], exp_reduced_operands = [1, 2]} ins(%6, %2 : tensor<20x4096x4096xf32>, tensor<20x4096x64xf16>) outs(%9, %10, %11 : tensor<20x4096xf32>, tensor<20x4096xf32>, tensor<20x4096x64xf32>) {
  ^bb0(%arg3: f32, %arg4: f16, %arg5: f32, %arg6: f32, %arg7: f32):
    %16 = arith.addf %arg3, %arg6 : f32
    %17 = arith.truncf %arg3 : f32 to f16
    %18 = arith.extf %17 : f16 to f32
    %19 = arith.extf %arg4 : f16 to f32
    %20 = arith.mulf %18, %19 : f32
    %21 = arith.addf %20, %arg7 : f32
    iree_linalg_ext.yield %arg5, %16, %21 : f32, f32, f32
  } -> tensor<20x4096xf32>, tensor<20x4096xf32>, tensor<20x4096x64xf32>
  %13 = tensor.empty() : tensor<20x4096x64xf16>
  %14 = linalg.generic {indexing_maps = [affine_map<(d0, d1, d2) -> (d0, d1, d2)>, affine_map<(d0, d1, d2) -> (d0, d1)>, affine_map<(d0, d1, d2) -> (d0, d1, d2)>], iterator_types = ["parallel", "parallel", "parallel"]} ins(%12#2, %12#1 : tensor<20x4096x64xf32>, tensor<20x4096xf32>) outs(%13 : tensor<20x4096x64xf16>) {
  ^bb0(%in: f32, %in_2: f32, %out: f16):
    %16 = arith.divf %in, %in_2 : f32
    %17 = arith.truncf %16 : f32 to f16
    linalg.yield %17 : f16
  } -> tensor<20x4096x64xf16>
  %15 = hal.tensor.export %14 "output0" : tensor<20x4096x64xf16> -> !hal.buffer_view
  util.return %15 : !hal.buffer_view
}

// -----// IR Dump After CSE (cse) //----- //
util.func public @attention(%arg0: !hal.buffer_view, %arg1: !hal.buffer_view, %arg2: !hal.buffer_view) -> !hal.buffer_view attributes {iree.abi.stub, iree.reflection = {iree.abi.declaration = "sync func @attention(%input0: tensor<20x4096x64xf16>, %input1: tensor<20x4096x64xf16>, %input2: tensor<20x4096x64xf16>) -> (%output0: tensor<20x4096x64xf16>)"}} {
  %cst = arith.constant 1.250000e-01 : f32
  %cst_0 = arith.constant 0.000000e+00 : f32
  %cst_1 = arith.constant -3.40282347E+38 : f32
  %0 = hal.tensor.import %arg0 "input0" : !hal.buffer_view -> tensor<20x4096x64xf16>
  %1 = hal.tensor.import %arg1 "input1" : !hal.buffer_view -> tensor<20x4096x64xf16>
  %2 = hal.tensor.import %arg2 "input2" : !hal.buffer_view -> tensor<20x4096x64xf16>
  %3 = tensor.empty() : tensor<20x4096x4096xf32>
  %4 = linalg.fill ins(%cst_0 : f32) outs(%3 : tensor<20x4096x4096xf32>) -> tensor<20x4096x4096xf32>
  %5 = linalg.generic {indexing_maps = [affine_map<(d0, d1, d2, d3) -> (d0, d1, d3)>, affine_map<(d0, d1, d2, d3) -> (d0, d2, d3)>, affine_map<(d0, d1, d2, d3) -> (d0, d1, d2)>], iterator_types = ["parallel", "parallel", "parallel", "reduction"]} ins(%0, %1 : tensor<20x4096x64xf16>, tensor<20x4096x64xf16>) outs(%4 : tensor<20x4096x4096xf32>) {
  ^bb0(%in: f16, %in_2: f16, %out: f32):
    %16 = arith.extf %in : f16 to f32
    %17 = arith.extf %in_2 : f16 to f32
    %18 = arith.mulf %16, %17 : f32
    %19 = arith.addf %18, %out : f32
    linalg.yield %19 : f32
  } -> tensor<20x4096x4096xf32>
  %6 = linalg.generic {indexing_maps = [affine_map<(d0, d1, d2) -> (d0, d1, d2)>, affine_map<(d0, d1, d2) -> (d0, d1, d2)>], iterator_types = ["parallel", "parallel", "parallel"]} ins(%5 : tensor<20x4096x4096xf32>) outs(%3 : tensor<20x4096x4096xf32>) {
  ^bb0(%in: f32, %out: f32):
    %16 = arith.mulf %in, %cst : f32
    linalg.yield %16 : f32
  } -> tensor<20x4096x4096xf32>
  %7 = tensor.empty() : tensor<20x4096xf32>
  %8 = tensor.empty() : tensor<20x4096x64xf32>
  %9 = linalg.fill ins(%cst_1 : f32) outs(%7 : tensor<20x4096xf32>) -> tensor<20x4096xf32>
  %10 = linalg.fill ins(%cst_0 : f32) outs(%7 : tensor<20x4096xf32>) -> tensor<20x4096xf32>
  %11 = linalg.fill ins(%cst_0 : f32) outs(%8 : tensor<20x4096x64xf32>) -> tensor<20x4096x64xf32>
  %12:3 = iree_linalg_ext.exp_reduction{indexing_maps = [affine_map<(d0, d1, d2, d3) -> (d0, d1, d3)>, affine_map<(d0, d1, d2, d3) -> (d0, d3, d2)>, affine_map<(d0, d1, d2, d3) -> (d0, d1)>, affine_map<(d0, d1, d2, d3) -> (d0, d1)>, affine_map<(d0, d1, d2, d3) -> (d0, d1, d2)>], iterator_types = [#iree_linalg_ext.iterator_type<parallel>, #iree_linalg_ext.iterator_type<parallel>, #iree_linalg_ext.iterator_type<parallel>, #iree_linalg_ext.iterator_type<reduction>], exp_reduced_operands = [1, 2]} ins(%6, %2 : tensor<20x4096x4096xf32>, tensor<20x4096x64xf16>) outs(%9, %10, %11 : tensor<20x4096xf32>, tensor<20x4096xf32>, tensor<20x4096x64xf32>) {
  ^bb0(%arg3: f32, %arg4: f16, %arg5: f32, %arg6: f32, %arg7: f32):
    %16 = arith.addf %arg3, %arg6 : f32
    %17 = arith.truncf %arg3 : f32 to f16
    %18 = arith.extf %17 : f16 to f32
    %19 = arith.extf %arg4 : f16 to f32
    %20 = arith.mulf %18, %19 : f32
    %21 = arith.addf %20, %arg7 : f32
    iree_linalg_ext.yield %arg5, %16, %21 : f32, f32, f32
  } -> tensor<20x4096xf32>, tensor<20x4096xf32>, tensor<20x4096x64xf32>
  %13 = tensor.empty() : tensor<20x4096x64xf16>
  %14 = linalg.generic {indexing_maps = [affine_map<(d0, d1, d2) -> (d0, d1, d2)>, affine_map<(d0, d1, d2) -> (d0, d1)>, affine_map<(d0, d1, d2) -> (d0, d1, d2)>], iterator_types = ["parallel", "parallel", "parallel"]} ins(%12#2, %12#1 : tensor<20x4096x64xf32>, tensor<20x4096xf32>) outs(%13 : tensor<20x4096x64xf16>) {
  ^bb0(%in: f32, %in_2: f32, %out: f16):
    %16 = arith.divf %in, %in_2 : f32
    %17 = arith.truncf %16 : f32 to f16
    linalg.yield %17 : f16
  } -> tensor<20x4096x64xf16>
  %15 = hal.tensor.export %14 "output0" : tensor<20x4096x64xf16> -> !hal.buffer_view
  util.return %15 : !hal.buffer_view
}

// -----// IR Dump After SymbolDCE (symbol-dce) //----- //
#map = affine_map<(d0, d1, d2, d3) -> (d0, d1, d3)>
#map1 = affine_map<(d0, d1, d2, d3) -> (d0, d2, d3)>
#map2 = affine_map<(d0, d1, d2, d3) -> (d0, d1, d2)>
#map3 = affine_map<(d0, d1, d2) -> (d0, d1, d2)>
#map4 = affine_map<(d0, d1, d2, d3) -> (d0, d3, d2)>
#map5 = affine_map<(d0, d1, d2, d3) -> (d0, d1)>
#map6 = affine_map<(d0, d1, d2) -> (d0, d1)>
module {
  util.func public @attention(%arg0: !hal.buffer_view, %arg1: !hal.buffer_view, %arg2: !hal.buffer_view) -> !hal.buffer_view attributes {iree.abi.stub, iree.reflection = {iree.abi.declaration = "sync func @attention(%input0: tensor<20x4096x64xf16>, %input1: tensor<20x4096x64xf16>, %input2: tensor<20x4096x64xf16>) -> (%output0: tensor<20x4096x64xf16>)"}} {
    %cst = arith.constant 1.250000e-01 : f32
    %cst_0 = arith.constant 0.000000e+00 : f32
    %cst_1 = arith.constant -3.40282347E+38 : f32
    %0 = hal.tensor.import %arg0 "input0" : !hal.buffer_view -> tensor<20x4096x64xf16>
    %1 = hal.tensor.import %arg1 "input1" : !hal.buffer_view -> tensor<20x4096x64xf16>
    %2 = hal.tensor.import %arg2 "input2" : !hal.buffer_view -> tensor<20x4096x64xf16>
    %3 = tensor.empty() : tensor<20x4096x4096xf32>
    %4 = linalg.fill ins(%cst_0 : f32) outs(%3 : tensor<20x4096x4096xf32>) -> tensor<20x4096x4096xf32>
    %5 = linalg.generic {indexing_maps = [#map, #map1, #map2], iterator_types = ["parallel", "parallel", "parallel", "reduction"]} ins(%0, %1 : tensor<20x4096x64xf16>, tensor<20x4096x64xf16>) outs(%4 : tensor<20x4096x4096xf32>) {
    ^bb0(%in: f16, %in_2: f16, %out: f32):
      %16 = arith.extf %in : f16 to f32
      %17 = arith.extf %in_2 : f16 to f32
      %18 = arith.mulf %16, %17 : f32
      %19 = arith.addf %18, %out : f32
      linalg.yield %19 : f32
    } -> tensor<20x4096x4096xf32>
    %6 = linalg.generic {indexing_maps = [#map3, #map3], iterator_types = ["parallel", "parallel", "parallel"]} ins(%5 : tensor<20x4096x4096xf32>) outs(%3 : tensor<20x4096x4096xf32>) {
    ^bb0(%in: f32, %out: f32):
      %16 = arith.mulf %in, %cst : f32
      linalg.yield %16 : f32
    } -> tensor<20x4096x4096xf32>
    %7 = tensor.empty() : tensor<20x4096xf32>
    %8 = tensor.empty() : tensor<20x4096x64xf32>
    %9 = linalg.fill ins(%cst_1 : f32) outs(%7 : tensor<20x4096xf32>) -> tensor<20x4096xf32>
    %10 = linalg.fill ins(%cst_0 : f32) outs(%7 : tensor<20x4096xf32>) -> tensor<20x4096xf32>
    %11 = linalg.fill ins(%cst_0 : f32) outs(%8 : tensor<20x4096x64xf32>) -> tensor<20x4096x64xf32>
    %12:3 = iree_linalg_ext.exp_reduction{indexing_maps = [#map, #map4, #map5, #map5, #map2], iterator_types = [#iree_linalg_ext.iterator_type<parallel>, #iree_linalg_ext.iterator_type<parallel>, #iree_linalg_ext.iterator_type<parallel>, #iree_linalg_ext.iterator_type<reduction>], exp_reduced_operands = [1, 2]} ins(%6, %2 : tensor<20x4096x4096xf32>, tensor<20x4096x64xf16>) outs(%9, %10, %11 : tensor<20x4096xf32>, tensor<20x4096xf32>, tensor<20x4096x64xf32>) {
    ^bb0(%arg3: f32, %arg4: f16, %arg5: f32, %arg6: f32, %arg7: f32):
      %16 = arith.addf %arg3, %arg6 : f32
      %17 = arith.truncf %arg3 : f32 to f16
      %18 = arith.extf %17 : f16 to f32
      %19 = arith.extf %arg4 : f16 to f32
      %20 = arith.mulf %18, %19 : f32
      %21 = arith.addf %20, %arg7 : f32
      iree_linalg_ext.yield %arg5, %16, %21 : f32, f32, f32
    } -> tensor<20x4096xf32>, tensor<20x4096xf32>, tensor<20x4096x64xf32>
    %13 = tensor.empty() : tensor<20x4096x64xf16>
    %14 = linalg.generic {indexing_maps = [#map3, #map6, #map3], iterator_types = ["parallel", "parallel", "parallel"]} ins(%12#2, %12#1 : tensor<20x4096x64xf32>, tensor<20x4096xf32>) outs(%13 : tensor<20x4096x64xf16>) {
    ^bb0(%in: f32, %in_2: f32, %out: f16):
      %16 = arith.divf %in, %in_2 : f32
      %17 = arith.truncf %16 : f32 to f16
      linalg.yield %17 : f16
    } -> tensor<20x4096x64xf16>
    %15 = hal.tensor.export %14 "output0" : tensor<20x4096x64xf16> -> !hal.buffer_view
    util.return %15 : !hal.buffer_view
  }
}


// -----// IR Dump After AssignLegacyTargetDevicesPass (iree-hal-assign-legacy-target-devices) //----- //
#executable_target_embedded_elf_x86_64 = #hal.executable.target<"llvm-cpu", "embedded-elf-x86_64", {cpu = "", cpu_features = "", data_layout = "e-m:e-p270:32:32-p271:32:32-p272:64:64-i64:64-i128:128-f80:128-n8:16:32:64-S128", iree.encoding.resolver = #iree_cpu.cpu_encoding_resolver<>, max_stack_allocation_size = 32768 : i64, native_vector_size = 16 : i64, target_triple = "x86_64-unknown-unknown-eabi-elf"}>
#map = affine_map<(d0, d1, d2, d3) -> (d0, d1, d3)>
#map1 = affine_map<(d0, d1, d2, d3) -> (d0, d2, d3)>
#map2 = affine_map<(d0, d1, d2, d3) -> (d0, d1, d2)>
#map3 = affine_map<(d0, d1, d2) -> (d0, d1, d2)>
#map4 = affine_map<(d0, d1, d2, d3) -> (d0, d3, d2)>
#map5 = affine_map<(d0, d1, d2, d3) -> (d0, d1)>
#map6 = affine_map<(d0, d1, d2) -> (d0, d1)>
#device_target_local = #hal.device.target<"local", [#executable_target_embedded_elf_x86_64]> : !hal.device
module attributes {hal.device.targets = [#device_target_local]} {
  util.func public @attention(%arg0: !hal.buffer_view, %arg1: !hal.buffer_view, %arg2: !hal.buffer_view) -> !hal.buffer_view attributes {iree.abi.stub, iree.reflection = {iree.abi.declaration = "sync func @attention(%input0: tensor<20x4096x64xf16>, %input1: tensor<20x4096x64xf16>, %input2: tensor<20x4096x64xf16>) -> (%output0: tensor<20x4096x64xf16>)"}} {
    %cst = arith.constant 1.250000e-01 : f32
    %cst_0 = arith.constant 0.000000e+00 : f32
    %cst_1 = arith.constant -3.40282347E+38 : f32
    %0 = hal.tensor.import %arg0 "input0" : !hal.buffer_view -> tensor<20x4096x64xf16>
    %1 = hal.tensor.import %arg1 "input1" : !hal.buffer_view -> tensor<20x4096x64xf16>
    %2 = hal.tensor.import %arg2 "input2" : !hal.buffer_view -> tensor<20x4096x64xf16>
    %3 = tensor.empty() : tensor<20x4096x4096xf32>
    %4 = linalg.fill ins(%cst_0 : f32) outs(%3 : tensor<20x4096x4096xf32>) -> tensor<20x4096x4096xf32>
    %5 = linalg.generic {indexing_maps = [#map, #map1, #map2], iterator_types = ["parallel", "parallel", "parallel", "reduction"]} ins(%0, %1 : tensor<20x4096x64xf16>, tensor<20x4096x64xf16>) outs(%4 : tensor<20x4096x4096xf32>) {
    ^bb0(%in: f16, %in_2: f16, %out: f32):
      %16 = arith.extf %in : f16 to f32
      %17 = arith.extf %in_2 : f16 to f32
      %18 = arith.mulf %16, %17 : f32
      %19 = arith.addf %18, %out : f32
      linalg.yield %19 : f32
    } -> tensor<20x4096x4096xf32>
    %6 = linalg.generic {indexing_maps = [#map3, #map3], iterator_types = ["parallel", "parallel", "parallel"]} ins(%5 : tensor<20x4096x4096xf32>) outs(%3 : tensor<20x4096x4096xf32>) {
    ^bb0(%in: f32, %out: f32):
      %16 = arith.mulf %in, %cst : f32
      linalg.yield %16 : f32
    } -> tensor<20x4096x4096xf32>
    %7 = tensor.empty() : tensor<20x4096xf32>
    %8 = tensor.empty() : tensor<20x4096x64xf32>
    %9 = linalg.fill ins(%cst_1 : f32) outs(%7 : tensor<20x4096xf32>) -> tensor<20x4096xf32>
    %10 = linalg.fill ins(%cst_0 : f32) outs(%7 : tensor<20x4096xf32>) -> tensor<20x4096xf32>
    %11 = linalg.fill ins(%cst_0 : f32) outs(%8 : tensor<20x4096x64xf32>) -> tensor<20x4096x64xf32>
    %12:3 = iree_linalg_ext.exp_reduction{indexing_maps = [#map, #map4, #map5, #map5, #map2], iterator_types = [#iree_linalg_ext.iterator_type<parallel>, #iree_linalg_ext.iterator_type<parallel>, #iree_linalg_ext.iterator_type<parallel>, #iree_linalg_ext.iterator_type<reduction>], exp_reduced_operands = [1, 2]} ins(%6, %2 : tensor<20x4096x4096xf32>, tensor<20x4096x64xf16>) outs(%9, %10, %11 : tensor<20x4096xf32>, tensor<20x4096xf32>, tensor<20x4096x64xf32>) {
    ^bb0(%arg3: f32, %arg4: f16, %arg5: f32, %arg6: f32, %arg7: f32):
      %16 = arith.addf %arg3, %arg6 : f32
      %17 = arith.truncf %arg3 : f32 to f16
      %18 = arith.extf %17 : f16 to f32
      %19 = arith.extf %arg4 : f16 to f32
      %20 = arith.mulf %18, %19 : f32
      %21 = arith.addf %20, %arg7 : f32
      iree_linalg_ext.yield %arg5, %16, %21 : f32, f32, f32
    } -> tensor<20x4096xf32>, tensor<20x4096xf32>, tensor<20x4096x64xf32>
    %13 = tensor.empty() : tensor<20x4096x64xf16>
    %14 = linalg.generic {indexing_maps = [#map3, #map6, #map3], iterator_types = ["parallel", "parallel", "parallel"]} ins(%12#2, %12#1 : tensor<20x4096x64xf32>, tensor<20x4096xf32>) outs(%13 : tensor<20x4096x64xf16>) {
    ^bb0(%in: f32, %in_2: f32, %out: f16):
      %16 = arith.divf %in, %in_2 : f32
      %17 = arith.truncf %16 : f32 to f16
      linalg.yield %17 : f16
    } -> tensor<20x4096x64xf16>
    %15 = hal.tensor.export %14 "output0" : tensor<20x4096x64xf16> -> !hal.buffer_view
    util.return %15 : !hal.buffer_view
  }
}


// -----// IR Dump After AssignTargetDevicesPass (iree-hal-assign-target-devices) //----- //
#executable_target_embedded_elf_x86_64 = #hal.executable.target<"llvm-cpu", "embedded-elf-x86_64", {cpu = "", cpu_features = "", data_layout = "e-m:e-p270:32:32-p271:32:32-p272:64:64-i64:64-i128:128-f80:128-n8:16:32:64-S128", iree.encoding.resolver = #iree_cpu.cpu_encoding_resolver<>, max_stack_allocation_size = 32768 : i64, native_vector_size = 16 : i64, target_triple = "x86_64-unknown-unknown-eabi-elf"}>
#map = affine_map<(d0, d1, d2, d3) -> (d0, d1, d3)>
#map1 = affine_map<(d0, d1, d2, d3) -> (d0, d2, d3)>
#map2 = affine_map<(d0, d1, d2, d3) -> (d0, d1, d2)>
#map3 = affine_map<(d0, d1, d2) -> (d0, d1, d2)>
#map4 = affine_map<(d0, d1, d2, d3) -> (d0, d3, d2)>
#map5 = affine_map<(d0, d1, d2, d3) -> (d0, d1)>
#map6 = affine_map<(d0, d1, d2) -> (d0, d1)>
#device_target_local = #hal.device.target<"local", [#executable_target_embedded_elf_x86_64]> : !hal.device
module attributes {hal.device.targets = [#device_target_local]} {
  util.func public @attention(%arg0: !hal.buffer_view, %arg1: !hal.buffer_view, %arg2: !hal.buffer_view) -> !hal.buffer_view attributes {iree.abi.stub, iree.reflection = {iree.abi.declaration = "sync func @attention(%input0: tensor<20x4096x64xf16>, %input1: tensor<20x4096x64xf16>, %input2: tensor<20x4096x64xf16>) -> (%output0: tensor<20x4096x64xf16>)"}} {
    %cst = arith.constant 1.250000e-01 : f32
    %cst_0 = arith.constant 0.000000e+00 : f32
    %cst_1 = arith.constant -3.40282347E+38 : f32
    %0 = hal.tensor.import %arg0 "input0" : !hal.buffer_view -> tensor<20x4096x64xf16>
    %1 = hal.tensor.import %arg1 "input1" : !hal.buffer_view -> tensor<20x4096x64xf16>
    %2 = hal.tensor.import %arg2 "input2" : !hal.buffer_view -> tensor<20x4096x64xf16>
    %3 = tensor.empty() : tensor<20x4096x4096xf32>
    %4 = linalg.fill ins(%cst_0 : f32) outs(%3 : tensor<20x4096x4096xf32>) -> tensor<20x4096x4096xf32>
    %5 = linalg.generic {indexing_maps = [#map, #map1, #map2], iterator_types = ["parallel", "parallel", "parallel", "reduction"]} ins(%0, %1 : tensor<20x4096x64xf16>, tensor<20x4096x64xf16>) outs(%4 : tensor<20x4096x4096xf32>) {
    ^bb0(%in: f16, %in_2: f16, %out: f32):
      %16 = arith.extf %in : f16 to f32
      %17 = arith.extf %in_2 : f16 to f32
      %18 = arith.mulf %16, %17 : f32
      %19 = arith.addf %18, %out : f32
      linalg.yield %19 : f32
    } -> tensor<20x4096x4096xf32>
    %6 = linalg.generic {indexing_maps = [#map3, #map3], iterator_types = ["parallel", "parallel", "parallel"]} ins(%5 : tensor<20x4096x4096xf32>) outs(%3 : tensor<20x4096x4096xf32>) {
    ^bb0(%in: f32, %out: f32):
      %16 = arith.mulf %in, %cst : f32
      linalg.yield %16 : f32
    } -> tensor<20x4096x4096xf32>
    %7 = tensor.empty() : tensor<20x4096xf32>
    %8 = tensor.empty() : tensor<20x4096x64xf32>
    %9 = linalg.fill ins(%cst_1 : f32) outs(%7 : tensor<20x4096xf32>) -> tensor<20x4096xf32>
    %10 = linalg.fill ins(%cst_0 : f32) outs(%7 : tensor<20x4096xf32>) -> tensor<20x4096xf32>
    %11 = linalg.fill ins(%cst_0 : f32) outs(%8 : tensor<20x4096x64xf32>) -> tensor<20x4096x64xf32>
    %12:3 = iree_linalg_ext.exp_reduction{indexing_maps = [#map, #map4, #map5, #map5, #map2], iterator_types = [#iree_linalg_ext.iterator_type<parallel>, #iree_linalg_ext.iterator_type<parallel>, #iree_linalg_ext.iterator_type<parallel>, #iree_linalg_ext.iterator_type<reduction>], exp_reduced_operands = [1, 2]} ins(%6, %2 : tensor<20x4096x4096xf32>, tensor<20x4096x64xf16>) outs(%9, %10, %11 : tensor<20x4096xf32>, tensor<20x4096xf32>, tensor<20x4096x64xf32>) {
    ^bb0(%arg3: f32, %arg4: f16, %arg5: f32, %arg6: f32, %arg7: f32):
      %16 = arith.addf %arg3, %arg6 : f32
      %17 = arith.truncf %arg3 : f32 to f16
      %18 = arith.extf %17 : f16 to f32
      %19 = arith.extf %arg4 : f16 to f32
      %20 = arith.mulf %18, %19 : f32
      %21 = arith.addf %20, %arg7 : f32
      iree_linalg_ext.yield %arg5, %16, %21 : f32, f32, f32
    } -> tensor<20x4096xf32>, tensor<20x4096xf32>, tensor<20x4096x64xf32>
    %13 = tensor.empty() : tensor<20x4096x64xf16>
    %14 = linalg.generic {indexing_maps = [#map3, #map6, #map3], iterator_types = ["parallel", "parallel", "parallel"]} ins(%12#2, %12#1 : tensor<20x4096x64xf32>, tensor<20x4096xf32>) outs(%13 : tensor<20x4096x64xf16>) {
    ^bb0(%in: f32, %in_2: f32, %out: f16):
      %16 = arith.divf %in, %in_2 : f32
      %17 = arith.truncf %16 : f32 to f16
      linalg.yield %17 : f16
    } -> tensor<20x4096x64xf16>
    %15 = hal.tensor.export %14 "output0" : tensor<20x4096x64xf16> -> !hal.buffer_view
    util.return %15 : !hal.buffer_view
  }
}


// -----// IR Dump After MaterializeTargetDevicesPass (iree-hal-materialize-target-devices) //----- //
#executable_target_embedded_elf_x86_64 = #hal.executable.target<"llvm-cpu", "embedded-elf-x86_64", {cpu = "", cpu_features = "", data_layout = "e-m:e-p270:32:32-p271:32:32-p272:64:64-i64:64-i128:128-f80:128-n8:16:32:64-S128", iree.encoding.resolver = #iree_cpu.cpu_encoding_resolver<>, max_stack_allocation_size = 32768 : i64, native_vector_size = 16 : i64, target_triple = "x86_64-unknown-unknown-eabi-elf"}>
#map = affine_map<(d0, d1, d2, d3) -> (d0, d1, d3)>
#map1 = affine_map<(d0, d1, d2, d3) -> (d0, d2, d3)>
#map2 = affine_map<(d0, d1, d2, d3) -> (d0, d1, d2)>
#map3 = affine_map<(d0, d1, d2) -> (d0, d1, d2)>
#map4 = affine_map<(d0, d1, d2, d3) -> (d0, d3, d2)>
#map5 = affine_map<(d0, d1, d2, d3) -> (d0, d1)>
#map6 = affine_map<(d0, d1, d2) -> (d0, d1)>
#device_target_local = #hal.device.target<"local", [#executable_target_embedded_elf_x86_64]> : !hal.device
module attributes {stream.affinity.default = #hal.device.affinity<@__device_0>} {
  util.global private @__device_0 = #device_target_local
  util.func public @attention(%arg0: !hal.buffer_view, %arg1: !hal.buffer_view, %arg2: !hal.buffer_view) -> !hal.buffer_view attributes {iree.abi.stub, iree.reflection = {iree.abi.declaration = "sync func @attention(%input0: tensor<20x4096x64xf16>, %input1: tensor<20x4096x64xf16>, %input2: tensor<20x4096x64xf16>) -> (%output0: tensor<20x4096x64xf16>)"}} {
    %cst = arith.constant 1.250000e-01 : f32
    %cst_0 = arith.constant 0.000000e+00 : f32
    %cst_1 = arith.constant -3.40282347E+38 : f32
    %0 = hal.tensor.import %arg0 "input0" : !hal.buffer_view -> tensor<20x4096x64xf16>
    %1 = hal.tensor.import %arg1 "input1" : !hal.buffer_view -> tensor<20x4096x64xf16>
    %2 = hal.tensor.import %arg2 "input2" : !hal.buffer_view -> tensor<20x4096x64xf16>
    %3 = tensor.empty() : tensor<20x4096x4096xf32>
    %4 = linalg.fill ins(%cst_0 : f32) outs(%3 : tensor<20x4096x4096xf32>) -> tensor<20x4096x4096xf32>
    %5 = linalg.generic {indexing_maps = [#map, #map1, #map2], iterator_types = ["parallel", "parallel", "parallel", "reduction"]} ins(%0, %1 : tensor<20x4096x64xf16>, tensor<20x4096x64xf16>) outs(%4 : tensor<20x4096x4096xf32>) {
    ^bb0(%in: f16, %in_2: f16, %out: f32):
      %16 = arith.extf %in : f16 to f32
      %17 = arith.extf %in_2 : f16 to f32
      %18 = arith.mulf %16, %17 : f32
      %19 = arith.addf %18, %out : f32
      linalg.yield %19 : f32
    } -> tensor<20x4096x4096xf32>
    %6 = linalg.generic {indexing_maps = [#map3, #map3], iterator_types = ["parallel", "parallel", "parallel"]} ins(%5 : tensor<20x4096x4096xf32>) outs(%3 : tensor<20x4096x4096xf32>) {
    ^bb0(%in: f32, %out: f32):
      %16 = arith.mulf %in, %cst : f32
      linalg.yield %16 : f32
    } -> tensor<20x4096x4096xf32>
    %7 = tensor.empty() : tensor<20x4096xf32>
    %8 = tensor.empty() : tensor<20x4096x64xf32>
    %9 = linalg.fill ins(%cst_1 : f32) outs(%7 : tensor<20x4096xf32>) -> tensor<20x4096xf32>
    %10 = linalg.fill ins(%cst_0 : f32) outs(%7 : tensor<20x4096xf32>) -> tensor<20x4096xf32>
    %11 = linalg.fill ins(%cst_0 : f32) outs(%8 : tensor<20x4096x64xf32>) -> tensor<20x4096x64xf32>
    %12:3 = iree_linalg_ext.exp_reduction{indexing_maps = [#map, #map4, #map5, #map5, #map2], iterator_types = [#iree_linalg_ext.iterator_type<parallel>, #iree_linalg_ext.iterator_type<parallel>, #iree_linalg_ext.iterator_type<parallel>, #iree_linalg_ext.iterator_type<reduction>], exp_reduced_operands = [1, 2]} ins(%6, %2 : tensor<20x4096x4096xf32>, tensor<20x4096x64xf16>) outs(%9, %10, %11 : tensor<20x4096xf32>, tensor<20x4096xf32>, tensor<20x4096x64xf32>) {
    ^bb0(%arg3: f32, %arg4: f16, %arg5: f32, %arg6: f32, %arg7: f32):
      %16 = arith.addf %arg3, %arg6 : f32
      %17 = arith.truncf %arg3 : f32 to f16
      %18 = arith.extf %17 : f16 to f32
      %19 = arith.extf %arg4 : f16 to f32
      %20 = arith.mulf %18, %19 : f32
      %21 = arith.addf %20, %arg7 : f32
      iree_linalg_ext.yield %arg5, %16, %21 : f32, f32, f32
    } -> tensor<20x4096xf32>, tensor<20x4096xf32>, tensor<20x4096x64xf32>
    %13 = tensor.empty() : tensor<20x4096x64xf16>
    %14 = linalg.generic {indexing_maps = [#map3, #map6, #map3], iterator_types = ["parallel", "parallel", "parallel"]} ins(%12#2, %12#1 : tensor<20x4096x64xf32>, tensor<20x4096xf32>) outs(%13 : tensor<20x4096x64xf16>) {
    ^bb0(%in: f32, %in_2: f32, %out: f16):
      %16 = arith.divf %in, %in_2 : f32
      %17 = arith.truncf %16 : f32 to f16
      linalg.yield %17 : f16
    } -> tensor<20x4096x64xf16>
    %15 = hal.tensor.export %14 "output0" : tensor<20x4096x64xf16> -> !hal.buffer_view
    util.return %15 : !hal.buffer_view
  }
}


// -----// IR Dump After ResolveDevicePromisesPass (iree-hal-resolve-device-promises) //----- //
#executable_target_embedded_elf_x86_64 = #hal.executable.target<"llvm-cpu", "embedded-elf-x86_64", {cpu = "", cpu_features = "", data_layout = "e-m:e-p270:32:32-p271:32:32-p272:64:64-i64:64-i128:128-f80:128-n8:16:32:64-S128", iree.encoding.resolver = #iree_cpu.cpu_encoding_resolver<>, max_stack_allocation_size = 32768 : i64, native_vector_size = 16 : i64, target_triple = "x86_64-unknown-unknown-eabi-elf"}>
#map = affine_map<(d0, d1, d2, d3) -> (d0, d1, d3)>
#map1 = affine_map<(d0, d1, d2, d3) -> (d0, d2, d3)>
#map2 = affine_map<(d0, d1, d2, d3) -> (d0, d1, d2)>
#map3 = affine_map<(d0, d1, d2) -> (d0, d1, d2)>
#map4 = affine_map<(d0, d1, d2, d3) -> (d0, d3, d2)>
#map5 = affine_map<(d0, d1, d2, d3) -> (d0, d1)>
#map6 = affine_map<(d0, d1, d2) -> (d0, d1)>
#device_target_local = #hal.device.target<"local", [#executable_target_embedded_elf_x86_64]> : !hal.device
module attributes {stream.affinity.default = #hal.device.affinity<@__device_0>} {
  util.global private @__device_0 = #device_target_local
  util.func public @attention(%arg0: !hal.buffer_view, %arg1: !hal.buffer_view, %arg2: !hal.buffer_view) -> !hal.buffer_view attributes {iree.abi.stub, iree.reflection = {iree.abi.declaration = "sync func @attention(%input0: tensor<20x4096x64xf16>, %input1: tensor<20x4096x64xf16>, %input2: tensor<20x4096x64xf16>) -> (%output0: tensor<20x4096x64xf16>)"}} {
    %cst = arith.constant 1.250000e-01 : f32
    %cst_0 = arith.constant 0.000000e+00 : f32
    %cst_1 = arith.constant -3.40282347E+38 : f32
    %0 = hal.tensor.import %arg0 "input0" : !hal.buffer_view -> tensor<20x4096x64xf16>
    %1 = hal.tensor.import %arg1 "input1" : !hal.buffer_view -> tensor<20x4096x64xf16>
    %2 = hal.tensor.import %arg2 "input2" : !hal.buffer_view -> tensor<20x4096x64xf16>
    %3 = tensor.empty() : tensor<20x4096x4096xf32>
    %4 = linalg.fill ins(%cst_0 : f32) outs(%3 : tensor<20x4096x4096xf32>) -> tensor<20x4096x4096xf32>
    %5 = linalg.generic {indexing_maps = [#map, #map1, #map2], iterator_types = ["parallel", "parallel", "parallel", "reduction"]} ins(%0, %1 : tensor<20x4096x64xf16>, tensor<20x4096x64xf16>) outs(%4 : tensor<20x4096x4096xf32>) {
    ^bb0(%in: f16, %in_2: f16, %out: f32):
      %16 = arith.extf %in : f16 to f32
      %17 = arith.extf %in_2 : f16 to f32
      %18 = arith.mulf %16, %17 : f32
      %19 = arith.addf %18, %out : f32
      linalg.yield %19 : f32
    } -> tensor<20x4096x4096xf32>
    %6 = linalg.generic {indexing_maps = [#map3, #map3], iterator_types = ["parallel", "parallel", "parallel"]} ins(%5 : tensor<20x4096x4096xf32>) outs(%3 : tensor<20x4096x4096xf32>) {
    ^bb0(%in: f32, %out: f32):
      %16 = arith.mulf %in, %cst : f32
      linalg.yield %16 : f32
    } -> tensor<20x4096x4096xf32>
    %7 = tensor.empty() : tensor<20x4096xf32>
    %8 = tensor.empty() : tensor<20x4096x64xf32>
    %9 = linalg.fill ins(%cst_1 : f32) outs(%7 : tensor<20x4096xf32>) -> tensor<20x4096xf32>
    %10 = linalg.fill ins(%cst_0 : f32) outs(%7 : tensor<20x4096xf32>) -> tensor<20x4096xf32>
    %11 = linalg.fill ins(%cst_0 : f32) outs(%8 : tensor<20x4096x64xf32>) -> tensor<20x4096x64xf32>
    %12:3 = iree_linalg_ext.exp_reduction{indexing_maps = [#map, #map4, #map5, #map5, #map2], iterator_types = [#iree_linalg_ext.iterator_type<parallel>, #iree_linalg_ext.iterator_type<parallel>, #iree_linalg_ext.iterator_type<parallel>, #iree_linalg_ext.iterator_type<reduction>], exp_reduced_operands = [1, 2]} ins(%6, %2 : tensor<20x4096x4096xf32>, tensor<20x4096x64xf16>) outs(%9, %10, %11 : tensor<20x4096xf32>, tensor<20x4096xf32>, tensor<20x4096x64xf32>) {
    ^bb0(%arg3: f32, %arg4: f16, %arg5: f32, %arg6: f32, %arg7: f32):
      %16 = arith.addf %arg3, %arg6 : f32
      %17 = arith.truncf %arg3 : f32 to f16
      %18 = arith.extf %17 : f16 to f32
      %19 = arith.extf %arg4 : f16 to f32
      %20 = arith.mulf %18, %19 : f32
      %21 = arith.addf %20, %arg7 : f32
      iree_linalg_ext.yield %arg5, %16, %21 : f32, f32, f32
    } -> tensor<20x4096xf32>, tensor<20x4096xf32>, tensor<20x4096x64xf32>
    %13 = tensor.empty() : tensor<20x4096x64xf16>
    %14 = linalg.generic {indexing_maps = [#map3, #map6, #map3], iterator_types = ["parallel", "parallel", "parallel"]} ins(%12#2, %12#1 : tensor<20x4096x64xf32>, tensor<20x4096xf32>) outs(%13 : tensor<20x4096x64xf16>) {
    ^bb0(%in: f32, %in_2: f32, %out: f16):
      %16 = arith.divf %in, %in_2 : f32
      %17 = arith.truncf %16 : f32 to f16
      linalg.yield %17 : f16
    } -> tensor<20x4096x64xf16>
    %15 = hal.tensor.export %14 "output0" : tensor<20x4096x64xf16> -> !hal.buffer_view
    util.return %15 : !hal.buffer_view
  }
}


// -----// IR Dump After ResolveDeviceAliasesPass (iree-hal-resolve-device-aliases) //----- //
#executable_target_embedded_elf_x86_64 = #hal.executable.target<"llvm-cpu", "embedded-elf-x86_64", {cpu = "", cpu_features = "", data_layout = "e-m:e-p270:32:32-p271:32:32-p272:64:64-i64:64-i128:128-f80:128-n8:16:32:64-S128", iree.encoding.resolver = #iree_cpu.cpu_encoding_resolver<>, max_stack_allocation_size = 32768 : i64, native_vector_size = 16 : i64, target_triple = "x86_64-unknown-unknown-eabi-elf"}>
#map = affine_map<(d0, d1, d2, d3) -> (d0, d1, d3)>
#map1 = affine_map<(d0, d1, d2, d3) -> (d0, d2, d3)>
#map2 = affine_map<(d0, d1, d2, d3) -> (d0, d1, d2)>
#map3 = affine_map<(d0, d1, d2) -> (d0, d1, d2)>
#map4 = affine_map<(d0, d1, d2, d3) -> (d0, d3, d2)>
#map5 = affine_map<(d0, d1, d2, d3) -> (d0, d1)>
#map6 = affine_map<(d0, d1, d2) -> (d0, d1)>
#device_target_local = #hal.device.target<"local", [#executable_target_embedded_elf_x86_64]> : !hal.device
module attributes {stream.affinity.default = #hal.device.affinity<@__device_0>} {
  util.global private @__device_0 = #device_target_local
  util.func public @attention(%arg0: !hal.buffer_view, %arg1: !hal.buffer_view, %arg2: !hal.buffer_view) -> !hal.buffer_view attributes {iree.abi.stub, iree.reflection = {iree.abi.declaration = "sync func @attention(%input0: tensor<20x4096x64xf16>, %input1: tensor<20x4096x64xf16>, %input2: tensor<20x4096x64xf16>) -> (%output0: tensor<20x4096x64xf16>)"}} {
    %cst = arith.constant 1.250000e-01 : f32
    %cst_0 = arith.constant 0.000000e+00 : f32
    %cst_1 = arith.constant -3.40282347E+38 : f32
    %0 = hal.tensor.import %arg0 "input0" : !hal.buffer_view -> tensor<20x4096x64xf16>
    %1 = hal.tensor.import %arg1 "input1" : !hal.buffer_view -> tensor<20x4096x64xf16>
    %2 = hal.tensor.import %arg2 "input2" : !hal.buffer_view -> tensor<20x4096x64xf16>
    %3 = tensor.empty() : tensor<20x4096x4096xf32>
    %4 = linalg.fill ins(%cst_0 : f32) outs(%3 : tensor<20x4096x4096xf32>) -> tensor<20x4096x4096xf32>
    %5 = linalg.generic {indexing_maps = [#map, #map1, #map2], iterator_types = ["parallel", "parallel", "parallel", "reduction"]} ins(%0, %1 : tensor<20x4096x64xf16>, tensor<20x4096x64xf16>) outs(%4 : tensor<20x4096x4096xf32>) {
    ^bb0(%in: f16, %in_2: f16, %out: f32):
      %16 = arith.extf %in : f16 to f32
      %17 = arith.extf %in_2 : f16 to f32
      %18 = arith.mulf %16, %17 : f32
      %19 = arith.addf %18, %out : f32
      linalg.yield %19 : f32
    } -> tensor<20x4096x4096xf32>
    %6 = linalg.generic {indexing_maps = [#map3, #map3], iterator_types = ["parallel", "parallel", "parallel"]} ins(%5 : tensor<20x4096x4096xf32>) outs(%3 : tensor<20x4096x4096xf32>) {
    ^bb0(%in: f32, %out: f32):
      %16 = arith.mulf %in, %cst : f32
      linalg.yield %16 : f32
    } -> tensor<20x4096x4096xf32>
    %7 = tensor.empty() : tensor<20x4096xf32>
    %8 = tensor.empty() : tensor<20x4096x64xf32>
    %9 = linalg.fill ins(%cst_1 : f32) outs(%7 : tensor<20x4096xf32>) -> tensor<20x4096xf32>
    %10 = linalg.fill ins(%cst_0 : f32) outs(%7 : tensor<20x4096xf32>) -> tensor<20x4096xf32>
    %11 = linalg.fill ins(%cst_0 : f32) outs(%8 : tensor<20x4096x64xf32>) -> tensor<20x4096x64xf32>
    %12:3 = iree_linalg_ext.exp_reduction{indexing_maps = [#map, #map4, #map5, #map5, #map2], iterator_types = [#iree_linalg_ext.iterator_type<parallel>, #iree_linalg_ext.iterator_type<parallel>, #iree_linalg_ext.iterator_type<parallel>, #iree_linalg_ext.iterator_type<reduction>], exp_reduced_operands = [1, 2]} ins(%6, %2 : tensor<20x4096x4096xf32>, tensor<20x4096x64xf16>) outs(%9, %10, %11 : tensor<20x4096xf32>, tensor<20x4096xf32>, tensor<20x4096x64xf32>) {
    ^bb0(%arg3: f32, %arg4: f16, %arg5: f32, %arg6: f32, %arg7: f32):
      %16 = arith.addf %arg3, %arg6 : f32
      %17 = arith.truncf %arg3 : f32 to f16
      %18 = arith.extf %17 : f16 to f32
      %19 = arith.extf %arg4 : f16 to f32
      %20 = arith.mulf %18, %19 : f32
      %21 = arith.addf %20, %arg7 : f32
      iree_linalg_ext.yield %arg5, %16, %21 : f32, f32, f32
    } -> tensor<20x4096xf32>, tensor<20x4096xf32>, tensor<20x4096x64xf32>
    %13 = tensor.empty() : tensor<20x4096x64xf16>
    %14 = linalg.generic {indexing_maps = [#map3, #map6, #map3], iterator_types = ["parallel", "parallel", "parallel"]} ins(%12#2, %12#1 : tensor<20x4096x64xf32>, tensor<20x4096xf32>) outs(%13 : tensor<20x4096x64xf16>) {
    ^bb0(%in: f32, %in_2: f32, %out: f16):
      %16 = arith.divf %in, %in_2 : f32
      %17 = arith.truncf %16 : f32 to f16
      linalg.yield %17 : f16
    } -> tensor<20x4096x64xf16>
    %15 = hal.tensor.export %14 "output0" : tensor<20x4096x64xf16> -> !hal.buffer_view
    util.return %15 : !hal.buffer_view
  }
}


// -----// IR Dump After VerifyDevicesPass (iree-hal-verify-devices) //----- //
#executable_target_embedded_elf_x86_64 = #hal.executable.target<"llvm-cpu", "embedded-elf-x86_64", {cpu = "", cpu_features = "", data_layout = "e-m:e-p270:32:32-p271:32:32-p272:64:64-i64:64-i128:128-f80:128-n8:16:32:64-S128", iree.encoding.resolver = #iree_cpu.cpu_encoding_resolver<>, max_stack_allocation_size = 32768 : i64, native_vector_size = 16 : i64, target_triple = "x86_64-unknown-unknown-eabi-elf"}>
#map = affine_map<(d0, d1, d2, d3) -> (d0, d1, d3)>
#map1 = affine_map<(d0, d1, d2, d3) -> (d0, d2, d3)>
#map2 = affine_map<(d0, d1, d2, d3) -> (d0, d1, d2)>
#map3 = affine_map<(d0, d1, d2) -> (d0, d1, d2)>
#map4 = affine_map<(d0, d1, d2, d3) -> (d0, d3, d2)>
#map5 = affine_map<(d0, d1, d2, d3) -> (d0, d1)>
#map6 = affine_map<(d0, d1, d2) -> (d0, d1)>
#device_target_local = #hal.device.target<"local", [#executable_target_embedded_elf_x86_64]> : !hal.device
module attributes {stream.affinity.default = #hal.device.affinity<@__device_0>} {
  util.global private @__device_0 = #device_target_local
  util.func public @attention(%arg0: !hal.buffer_view, %arg1: !hal.buffer_view, %arg2: !hal.buffer_view) -> !hal.buffer_view attributes {iree.abi.stub, iree.reflection = {iree.abi.declaration = "sync func @attention(%input0: tensor<20x4096x64xf16>, %input1: tensor<20x4096x64xf16>, %input2: tensor<20x4096x64xf16>) -> (%output0: tensor<20x4096x64xf16>)"}} {
    %cst = arith.constant 1.250000e-01 : f32
    %cst_0 = arith.constant 0.000000e+00 : f32
    %cst_1 = arith.constant -3.40282347E+38 : f32
    %0 = hal.tensor.import %arg0 "input0" : !hal.buffer_view -> tensor<20x4096x64xf16>
    %1 = hal.tensor.import %arg1 "input1" : !hal.buffer_view -> tensor<20x4096x64xf16>
    %2 = hal.tensor.import %arg2 "input2" : !hal.buffer_view -> tensor<20x4096x64xf16>
    %3 = tensor.empty() : tensor<20x4096x4096xf32>
    %4 = linalg.fill ins(%cst_0 : f32) outs(%3 : tensor<20x4096x4096xf32>) -> tensor<20x4096x4096xf32>
    %5 = linalg.generic {indexing_maps = [#map, #map1, #map2], iterator_types = ["parallel", "parallel", "parallel", "reduction"]} ins(%0, %1 : tensor<20x4096x64xf16>, tensor<20x4096x64xf16>) outs(%4 : tensor<20x4096x4096xf32>) {
    ^bb0(%in: f16, %in_2: f16, %out: f32):
      %16 = arith.extf %in : f16 to f32
      %17 = arith.extf %in_2 : f16 to f32
      %18 = arith.mulf %16, %17 : f32
      %19 = arith.addf %18, %out : f32
      linalg.yield %19 : f32
    } -> tensor<20x4096x4096xf32>
    %6 = linalg.generic {indexing_maps = [#map3, #map3], iterator_types = ["parallel", "parallel", "parallel"]} ins(%5 : tensor<20x4096x4096xf32>) outs(%3 : tensor<20x4096x4096xf32>) {
    ^bb0(%in: f32, %out: f32):
      %16 = arith.mulf %in, %cst : f32
      linalg.yield %16 : f32
    } -> tensor<20x4096x4096xf32>
    %7 = tensor.empty() : tensor<20x4096xf32>
    %8 = tensor.empty() : tensor<20x4096x64xf32>
    %9 = linalg.fill ins(%cst_1 : f32) outs(%7 : tensor<20x4096xf32>) -> tensor<20x4096xf32>
    %10 = linalg.fill ins(%cst_0 : f32) outs(%7 : tensor<20x4096xf32>) -> tensor<20x4096xf32>
    %11 = linalg.fill ins(%cst_0 : f32) outs(%8 : tensor<20x4096x64xf32>) -> tensor<20x4096x64xf32>
    %12:3 = iree_linalg_ext.exp_reduction{indexing_maps = [#map, #map4, #map5, #map5, #map2], iterator_types = [#iree_linalg_ext.iterator_type<parallel>, #iree_linalg_ext.iterator_type<parallel>, #iree_linalg_ext.iterator_type<parallel>, #iree_linalg_ext.iterator_type<reduction>], exp_reduced_operands = [1, 2]} ins(%6, %2 : tensor<20x4096x4096xf32>, tensor<20x4096x64xf16>) outs(%9, %10, %11 : tensor<20x4096xf32>, tensor<20x4096xf32>, tensor<20x4096x64xf32>) {
    ^bb0(%arg3: f32, %arg4: f16, %arg5: f32, %arg6: f32, %arg7: f32):
      %16 = arith.addf %arg3, %arg6 : f32
      %17 = arith.truncf %arg3 : f32 to f16
      %18 = arith.extf %17 : f16 to f32
      %19 = arith.extf %arg4 : f16 to f32
      %20 = arith.mulf %18, %19 : f32
      %21 = arith.addf %20, %arg7 : f32
      iree_linalg_ext.yield %arg5, %16, %21 : f32, f32, f32
    } -> tensor<20x4096xf32>, tensor<20x4096xf32>, tensor<20x4096x64xf32>
    %13 = tensor.empty() : tensor<20x4096x64xf16>
    %14 = linalg.generic {indexing_maps = [#map3, #map6, #map3], iterator_types = ["parallel", "parallel", "parallel"]} ins(%12#2, %12#1 : tensor<20x4096x64xf32>, tensor<20x4096xf32>) outs(%13 : tensor<20x4096x64xf16>) {
    ^bb0(%in: f32, %in_2: f32, %out: f16):
      %16 = arith.divf %in, %in_2 : f32
      %17 = arith.truncf %16 : f32 to f16
      linalg.yield %17 : f16
    } -> tensor<20x4096x64xf16>
    %15 = hal.tensor.export %14 "output0" : tensor<20x4096x64xf16> -> !hal.buffer_view
    util.return %15 : !hal.buffer_view
  }
}


// -----// IR Dump After AttrBasedPipelinePass (iree-preprocessing-attr-based-pipeline) //----- //
util.func public @attention(%arg0: !hal.buffer_view, %arg1: !hal.buffer_view, %arg2: !hal.buffer_view) -> !hal.buffer_view attributes {iree.abi.stub, iree.reflection = {iree.abi.declaration = "sync func @attention(%input0: tensor<20x4096x64xf16>, %input1: tensor<20x4096x64xf16>, %input2: tensor<20x4096x64xf16>) -> (%output0: tensor<20x4096x64xf16>)"}} {
  %cst = arith.constant 1.250000e-01 : f32
  %cst_0 = arith.constant 0.000000e+00 : f32
  %cst_1 = arith.constant -3.40282347E+38 : f32
  %0 = hal.tensor.import %arg0 "input0" : !hal.buffer_view -> tensor<20x4096x64xf16>
  %1 = hal.tensor.import %arg1 "input1" : !hal.buffer_view -> tensor<20x4096x64xf16>
  %2 = hal.tensor.import %arg2 "input2" : !hal.buffer_view -> tensor<20x4096x64xf16>
  %3 = tensor.empty() : tensor<20x4096x4096xf32>
  %4 = linalg.fill ins(%cst_0 : f32) outs(%3 : tensor<20x4096x4096xf32>) -> tensor<20x4096x4096xf32>
  %5 = linalg.generic {indexing_maps = [affine_map<(d0, d1, d2, d3) -> (d0, d1, d3)>, affine_map<(d0, d1, d2, d3) -> (d0, d2, d3)>, affine_map<(d0, d1, d2, d3) -> (d0, d1, d2)>], iterator_types = ["parallel", "parallel", "parallel", "reduction"]} ins(%0, %1 : tensor<20x4096x64xf16>, tensor<20x4096x64xf16>) outs(%4 : tensor<20x4096x4096xf32>) {
  ^bb0(%in: f16, %in_2: f16, %out: f32):
    %16 = arith.extf %in : f16 to f32
    %17 = arith.extf %in_2 : f16 to f32
    %18 = arith.mulf %16, %17 : f32
    %19 = arith.addf %18, %out : f32
    linalg.yield %19 : f32
  } -> tensor<20x4096x4096xf32>
  %6 = linalg.generic {indexing_maps = [affine_map<(d0, d1, d2) -> (d0, d1, d2)>, affine_map<(d0, d1, d2) -> (d0, d1, d2)>], iterator_types = ["parallel", "parallel", "parallel"]} ins(%5 : tensor<20x4096x4096xf32>) outs(%3 : tensor<20x4096x4096xf32>) {
  ^bb0(%in: f32, %out: f32):
    %16 = arith.mulf %in, %cst : f32
    linalg.yield %16 : f32
  } -> tensor<20x4096x4096xf32>
  %7 = tensor.empty() : tensor<20x4096xf32>
  %8 = tensor.empty() : tensor<20x4096x64xf32>
  %9 = linalg.fill ins(%cst_1 : f32) outs(%7 : tensor<20x4096xf32>) -> tensor<20x4096xf32>
  %10 = linalg.fill ins(%cst_0 : f32) outs(%7 : tensor<20x4096xf32>) -> tensor<20x4096xf32>
  %11 = linalg.fill ins(%cst_0 : f32) outs(%8 : tensor<20x4096x64xf32>) -> tensor<20x4096x64xf32>
  %12:3 = iree_linalg_ext.exp_reduction{indexing_maps = [affine_map<(d0, d1, d2, d3) -> (d0, d1, d3)>, affine_map<(d0, d1, d2, d3) -> (d0, d3, d2)>, affine_map<(d0, d1, d2, d3) -> (d0, d1)>, affine_map<(d0, d1, d2, d3) -> (d0, d1)>, affine_map<(d0, d1, d2, d3) -> (d0, d1, d2)>], iterator_types = [#iree_linalg_ext.iterator_type<parallel>, #iree_linalg_ext.iterator_type<parallel>, #iree_linalg_ext.iterator_type<parallel>, #iree_linalg_ext.iterator_type<reduction>], exp_reduced_operands = [1, 2]} ins(%6, %2 : tensor<20x4096x4096xf32>, tensor<20x4096x64xf16>) outs(%9, %10, %11 : tensor<20x4096xf32>, tensor<20x4096xf32>, tensor<20x4096x64xf32>) {
  ^bb0(%arg3: f32, %arg4: f16, %arg5: f32, %arg6: f32, %arg7: f32):
    %16 = arith.addf %arg3, %arg6 : f32
    %17 = arith.truncf %arg3 : f32 to f16
    %18 = arith.extf %17 : f16 to f32
    %19 = arith.extf %arg4 : f16 to f32
    %20 = arith.mulf %18, %19 : f32
    %21 = arith.addf %20, %arg7 : f32
    iree_linalg_ext.yield %arg5, %16, %21 : f32, f32, f32
  } -> tensor<20x4096xf32>, tensor<20x4096xf32>, tensor<20x4096x64xf32>
  %13 = tensor.empty() : tensor<20x4096x64xf16>
  %14 = linalg.generic {indexing_maps = [affine_map<(d0, d1, d2) -> (d0, d1, d2)>, affine_map<(d0, d1, d2) -> (d0, d1)>, affine_map<(d0, d1, d2) -> (d0, d1, d2)>], iterator_types = ["parallel", "parallel", "parallel"]} ins(%12#2, %12#1 : tensor<20x4096x64xf32>, tensor<20x4096xf32>) outs(%13 : tensor<20x4096x64xf16>) {
  ^bb0(%in: f32, %in_2: f32, %out: f16):
    %16 = arith.divf %in, %in_2 : f32
    %17 = arith.truncf %16 : f32 to f16
    linalg.yield %17 : f16
  } -> tensor<20x4096x64xf16>
  %15 = hal.tensor.export %14 "output0" : tensor<20x4096x64xf16> -> !hal.buffer_view
  util.return %15 : !hal.buffer_view
}

// -----// IR Dump After WarnOnUninitializedValuesPass (iree-global-opt-warn-on-uninitialized-values) //----- //
util.func public @attention(%arg0: !hal.buffer_view, %arg1: !hal.buffer_view, %arg2: !hal.buffer_view) -> !hal.buffer_view attributes {iree.abi.stub, iree.reflection = {iree.abi.declaration = "sync func @attention(%input0: tensor<20x4096x64xf16>, %input1: tensor<20x4096x64xf16>, %input2: tensor<20x4096x64xf16>) -> (%output0: tensor<20x4096x64xf16>)"}} {
  %cst = arith.constant 1.250000e-01 : f32
  %cst_0 = arith.constant 0.000000e+00 : f32
  %cst_1 = arith.constant -3.40282347E+38 : f32
  %0 = hal.tensor.import %arg0 "input0" : !hal.buffer_view -> tensor<20x4096x64xf16>
  %1 = hal.tensor.import %arg1 "input1" : !hal.buffer_view -> tensor<20x4096x64xf16>
  %2 = hal.tensor.import %arg2 "input2" : !hal.buffer_view -> tensor<20x4096x64xf16>
  %3 = tensor.empty() : tensor<20x4096x4096xf32>
  %4 = linalg.fill ins(%cst_0 : f32) outs(%3 : tensor<20x4096x4096xf32>) -> tensor<20x4096x4096xf32>
  %5 = linalg.generic {indexing_maps = [affine_map<(d0, d1, d2, d3) -> (d0, d1, d3)>, affine_map<(d0, d1, d2, d3) -> (d0, d2, d3)>, affine_map<(d0, d1, d2, d3) -> (d0, d1, d2)>], iterator_types = ["parallel", "parallel", "parallel", "reduction"]} ins(%0, %1 : tensor<20x4096x64xf16>, tensor<20x4096x64xf16>) outs(%4 : tensor<20x4096x4096xf32>) {
  ^bb0(%in: f16, %in_2: f16, %out: f32):
    %16 = arith.extf %in : f16 to f32
    %17 = arith.extf %in_2 : f16 to f32
    %18 = arith.mulf %16, %17 : f32
    %19 = arith.addf %18, %out : f32
    linalg.yield %19 : f32
  } -> tensor<20x4096x4096xf32>
  %6 = linalg.generic {indexing_maps = [affine_map<(d0, d1, d2) -> (d0, d1, d2)>, affine_map<(d0, d1, d2) -> (d0, d1, d2)>], iterator_types = ["parallel", "parallel", "parallel"]} ins(%5 : tensor<20x4096x4096xf32>) outs(%3 : tensor<20x4096x4096xf32>) {
  ^bb0(%in: f32, %out: f32):
    %16 = arith.mulf %in, %cst : f32
    linalg.yield %16 : f32
  } -> tensor<20x4096x4096xf32>
  %7 = tensor.empty() : tensor<20x4096xf32>
  %8 = tensor.empty() : tensor<20x4096x64xf32>
  %9 = linalg.fill ins(%cst_1 : f32) outs(%7 : tensor<20x4096xf32>) -> tensor<20x4096xf32>
  %10 = linalg.fill ins(%cst_0 : f32) outs(%7 : tensor<20x4096xf32>) -> tensor<20x4096xf32>
  %11 = linalg.fill ins(%cst_0 : f32) outs(%8 : tensor<20x4096x64xf32>) -> tensor<20x4096x64xf32>
  %12:3 = iree_linalg_ext.exp_reduction{indexing_maps = [affine_map<(d0, d1, d2, d3) -> (d0, d1, d3)>, affine_map<(d0, d1, d2, d3) -> (d0, d3, d2)>, affine_map<(d0, d1, d2, d3) -> (d0, d1)>, affine_map<(d0, d1, d2, d3) -> (d0, d1)>, affine_map<(d0, d1, d2, d3) -> (d0, d1, d2)>], iterator_types = [#iree_linalg_ext.iterator_type<parallel>, #iree_linalg_ext.iterator_type<parallel>, #iree_linalg_ext.iterator_type<parallel>, #iree_linalg_ext.iterator_type<reduction>], exp_reduced_operands = [1, 2]} ins(%6, %2 : tensor<20x4096x4096xf32>, tensor<20x4096x64xf16>) outs(%9, %10, %11 : tensor<20x4096xf32>, tensor<20x4096xf32>, tensor<20x4096x64xf32>) {
  ^bb0(%arg3: f32, %arg4: f16, %arg5: f32, %arg6: f32, %arg7: f32):
    %16 = arith.addf %arg3, %arg6 : f32
    %17 = arith.truncf %arg3 : f32 to f16
    %18 = arith.extf %17 : f16 to f32
    %19 = arith.extf %arg4 : f16 to f32
    %20 = arith.mulf %18, %19 : f32
    %21 = arith.addf %20, %arg7 : f32
    iree_linalg_ext.yield %arg5, %16, %21 : f32, f32, f32
  } -> tensor<20x4096xf32>, tensor<20x4096xf32>, tensor<20x4096x64xf32>
  %13 = tensor.empty() : tensor<20x4096x64xf16>
  %14 = linalg.generic {indexing_maps = [affine_map<(d0, d1, d2) -> (d0, d1, d2)>, affine_map<(d0, d1, d2) -> (d0, d1)>, affine_map<(d0, d1, d2) -> (d0, d1, d2)>], iterator_types = ["parallel", "parallel", "parallel"]} ins(%12#2, %12#1 : tensor<20x4096x64xf32>, tensor<20x4096xf32>) outs(%13 : tensor<20x4096x64xf16>) {
  ^bb0(%in: f32, %in_2: f32, %out: f16):
    %16 = arith.divf %in, %in_2 : f32
    %17 = arith.truncf %16 : f32 to f16
    linalg.yield %17 : f16
  } -> tensor<20x4096x64xf16>
  %15 = hal.tensor.export %14 "output0" : tensor<20x4096x64xf16> -> !hal.buffer_view
  util.return %15 : !hal.buffer_view
}

// -----// IR Dump After OptimizeIntArithmeticPass (iree-util-optimize-int-arithmetic) //----- //
util.func public @attention(%arg0: !hal.buffer_view, %arg1: !hal.buffer_view, %arg2: !hal.buffer_view) -> !hal.buffer_view attributes {iree.abi.stub, iree.reflection = {iree.abi.declaration = "sync func @attention(%input0: tensor<20x4096x64xf16>, %input1: tensor<20x4096x64xf16>, %input2: tensor<20x4096x64xf16>) -> (%output0: tensor<20x4096x64xf16>)"}} {
  %cst = arith.constant 1.250000e-01 : f32
  %cst_0 = arith.constant 0.000000e+00 : f32
  %cst_1 = arith.constant -3.40282347E+38 : f32
  %0 = hal.tensor.import %arg0 "input0" : !hal.buffer_view -> tensor<20x4096x64xf16>
  %1 = hal.tensor.import %arg1 "input1" : !hal.buffer_view -> tensor<20x4096x64xf16>
  %2 = hal.tensor.import %arg2 "input2" : !hal.buffer_view -> tensor<20x4096x64xf16>
  %3 = tensor.empty() : tensor<20x4096x4096xf32>
  %4 = linalg.fill ins(%cst_0 : f32) outs(%3 : tensor<20x4096x4096xf32>) -> tensor<20x4096x4096xf32>
  %5 = linalg.generic {indexing_maps = [affine_map<(d0, d1, d2, d3) -> (d0, d1, d3)>, affine_map<(d0, d1, d2, d3) -> (d0, d2, d3)>, affine_map<(d0, d1, d2, d3) -> (d0, d1, d2)>], iterator_types = ["parallel", "parallel", "parallel", "reduction"]} ins(%0, %1 : tensor<20x4096x64xf16>, tensor<20x4096x64xf16>) outs(%4 : tensor<20x4096x4096xf32>) {
  ^bb0(%in: f16, %in_2: f16, %out: f32):
    %16 = arith.extf %in : f16 to f32
    %17 = arith.extf %in_2 : f16 to f32
    %18 = arith.mulf %16, %17 : f32
    %19 = arith.addf %18, %out : f32
    linalg.yield %19 : f32
  } -> tensor<20x4096x4096xf32>
  %6 = linalg.generic {indexing_maps = [affine_map<(d0, d1, d2) -> (d0, d1, d2)>, affine_map<(d0, d1, d2) -> (d0, d1, d2)>], iterator_types = ["parallel", "parallel", "parallel"]} ins(%5 : tensor<20x4096x4096xf32>) outs(%3 : tensor<20x4096x4096xf32>) {
  ^bb0(%in: f32, %out: f32):
    %16 = arith.mulf %in, %cst : f32
    linalg.yield %16 : f32
  } -> tensor<20x4096x4096xf32>
  %7 = tensor.empty() : tensor<20x4096xf32>
  %8 = tensor.empty() : tensor<20x4096x64xf32>
  %9 = linalg.fill ins(%cst_1 : f32) outs(%7 : tensor<20x4096xf32>) -> tensor<20x4096xf32>
  %10 = linalg.fill ins(%cst_0 : f32) outs(%7 : tensor<20x4096xf32>) -> tensor<20x4096xf32>
  %11 = linalg.fill ins(%cst_0 : f32) outs(%8 : tensor<20x4096x64xf32>) -> tensor<20x4096x64xf32>
  %12:3 = iree_linalg_ext.exp_reduction{indexing_maps = [affine_map<(d0, d1, d2, d3) -> (d0, d1, d3)>, affine_map<(d0, d1, d2, d3) -> (d0, d3, d2)>, affine_map<(d0, d1, d2, d3) -> (d0, d1)>, affine_map<(d0, d1, d2, d3) -> (d0, d1)>, affine_map<(d0, d1, d2, d3) -> (d0, d1, d2)>], iterator_types = [#iree_linalg_ext.iterator_type<parallel>, #iree_linalg_ext.iterator_type<parallel>, #iree_linalg_ext.iterator_type<parallel>, #iree_linalg_ext.iterator_type<reduction>], exp_reduced_operands = [1, 2]} ins(%6, %2 : tensor<20x4096x4096xf32>, tensor<20x4096x64xf16>) outs(%9, %10, %11 : tensor<20x4096xf32>, tensor<20x4096xf32>, tensor<20x4096x64xf32>) {
  ^bb0(%arg3: f32, %arg4: f16, %arg5: f32, %arg6: f32, %arg7: f32):
    %16 = arith.addf %arg3, %arg6 : f32
    %17 = arith.truncf %arg3 : f32 to f16
    %18 = arith.extf %17 : f16 to f32
    %19 = arith.extf %arg4 : f16 to f32
    %20 = arith.mulf %18, %19 : f32
    %21 = arith.addf %20, %arg7 : f32
    iree_linalg_ext.yield %arg5, %16, %21 : f32, f32, f32
  } -> tensor<20x4096xf32>, tensor<20x4096xf32>, tensor<20x4096x64xf32>
  %13 = tensor.empty() : tensor<20x4096x64xf16>
  %14 = linalg.generic {indexing_maps = [affine_map<(d0, d1, d2) -> (d0, d1, d2)>, affine_map<(d0, d1, d2) -> (d0, d1)>, affine_map<(d0, d1, d2) -> (d0, d1, d2)>], iterator_types = ["parallel", "parallel", "parallel"]} ins(%12#2, %12#1 : tensor<20x4096x64xf32>, tensor<20x4096xf32>) outs(%13 : tensor<20x4096x64xf16>) {
  ^bb0(%in: f32, %in_2: f32, %out: f16):
    %16 = arith.divf %in, %in_2 : f32
    %17 = arith.truncf %16 : f32 to f16
    linalg.yield %17 : f16
  } -> tensor<20x4096x64xf16>
  %15 = hal.tensor.export %14 "output0" : tensor<20x4096x64xf16> -> !hal.buffer_view
  util.return %15 : !hal.buffer_view
}

// -----// IR Dump After LinalgQuantizedConvToConvPass (iree-global-opt-quantized-conv-to-conv) //----- //
util.func public @attention(%arg0: !hal.buffer_view, %arg1: !hal.buffer_view, %arg2: !hal.buffer_view) -> !hal.buffer_view attributes {iree.abi.stub, iree.reflection = {iree.abi.declaration = "sync func @attention(%input0: tensor<20x4096x64xf16>, %input1: tensor<20x4096x64xf16>, %input2: tensor<20x4096x64xf16>) -> (%output0: tensor<20x4096x64xf16>)"}} {
  %cst = arith.constant 1.250000e-01 : f32
  %cst_0 = arith.constant 0.000000e+00 : f32
  %cst_1 = arith.constant -3.40282347E+38 : f32
  %0 = hal.tensor.import %arg0 "input0" : !hal.buffer_view -> tensor<20x4096x64xf16>
  %1 = hal.tensor.import %arg1 "input1" : !hal.buffer_view -> tensor<20x4096x64xf16>
  %2 = hal.tensor.import %arg2 "input2" : !hal.buffer_view -> tensor<20x4096x64xf16>
  %3 = tensor.empty() : tensor<20x4096x4096xf32>
  %4 = linalg.fill ins(%cst_0 : f32) outs(%3 : tensor<20x4096x4096xf32>) -> tensor<20x4096x4096xf32>
  %5 = linalg.generic {indexing_maps = [affine_map<(d0, d1, d2, d3) -> (d0, d1, d3)>, affine_map<(d0, d1, d2, d3) -> (d0, d2, d3)>, affine_map<(d0, d1, d2, d3) -> (d0, d1, d2)>], iterator_types = ["parallel", "parallel", "parallel", "reduction"]} ins(%0, %1 : tensor<20x4096x64xf16>, tensor<20x4096x64xf16>) outs(%4 : tensor<20x4096x4096xf32>) {
  ^bb0(%in: f16, %in_2: f16, %out: f32):
    %16 = arith.extf %in : f16 to f32
    %17 = arith.extf %in_2 : f16 to f32
    %18 = arith.mulf %16, %17 : f32
    %19 = arith.addf %18, %out : f32
    linalg.yield %19 : f32
  } -> tensor<20x4096x4096xf32>
  %6 = linalg.generic {indexing_maps = [affine_map<(d0, d1, d2) -> (d0, d1, d2)>, affine_map<(d0, d1, d2) -> (d0, d1, d2)>], iterator_types = ["parallel", "parallel", "parallel"]} ins(%5 : tensor<20x4096x4096xf32>) outs(%3 : tensor<20x4096x4096xf32>) {
  ^bb0(%in: f32, %out: f32):
    %16 = arith.mulf %in, %cst : f32
    linalg.yield %16 : f32
  } -> tensor<20x4096x4096xf32>
  %7 = tensor.empty() : tensor<20x4096xf32>
  %8 = tensor.empty() : tensor<20x4096x64xf32>
  %9 = linalg.fill ins(%cst_1 : f32) outs(%7 : tensor<20x4096xf32>) -> tensor<20x4096xf32>
  %10 = linalg.fill ins(%cst_0 : f32) outs(%7 : tensor<20x4096xf32>) -> tensor<20x4096xf32>
  %11 = linalg.fill ins(%cst_0 : f32) outs(%8 : tensor<20x4096x64xf32>) -> tensor<20x4096x64xf32>
  %12:3 = iree_linalg_ext.exp_reduction{indexing_maps = [affine_map<(d0, d1, d2, d3) -> (d0, d1, d3)>, affine_map<(d0, d1, d2, d3) -> (d0, d3, d2)>, affine_map<(d0, d1, d2, d3) -> (d0, d1)>, affine_map<(d0, d1, d2, d3) -> (d0, d1)>, affine_map<(d0, d1, d2, d3) -> (d0, d1, d2)>], iterator_types = [#iree_linalg_ext.iterator_type<parallel>, #iree_linalg_ext.iterator_type<parallel>, #iree_linalg_ext.iterator_type<parallel>, #iree_linalg_ext.iterator_type<reduction>], exp_reduced_operands = [1, 2]} ins(%6, %2 : tensor<20x4096x4096xf32>, tensor<20x4096x64xf16>) outs(%9, %10, %11 : tensor<20x4096xf32>, tensor<20x4096xf32>, tensor<20x4096x64xf32>) {
  ^bb0(%arg3: f32, %arg4: f16, %arg5: f32, %arg6: f32, %arg7: f32):
    %16 = arith.addf %arg3, %arg6 : f32
    %17 = arith.truncf %arg3 : f32 to f16
    %18 = arith.extf %17 : f16 to f32
    %19 = arith.extf %arg4 : f16 to f32
    %20 = arith.mulf %18, %19 : f32
    %21 = arith.addf %20, %arg7 : f32
    iree_linalg_ext.yield %arg5, %16, %21 : f32, f32, f32
  } -> tensor<20x4096xf32>, tensor<20x4096xf32>, tensor<20x4096x64xf32>
  %13 = tensor.empty() : tensor<20x4096x64xf16>
  %14 = linalg.generic {indexing_maps = [affine_map<(d0, d1, d2) -> (d0, d1, d2)>, affine_map<(d0, d1, d2) -> (d0, d1)>, affine_map<(d0, d1, d2) -> (d0, d1, d2)>], iterator_types = ["parallel", "parallel", "parallel"]} ins(%12#2, %12#1 : tensor<20x4096x64xf32>, tensor<20x4096xf32>) outs(%13 : tensor<20x4096x64xf16>) {
  ^bb0(%in: f32, %in_2: f32, %out: f16):
    %16 = arith.divf %in, %in_2 : f32
    %17 = arith.truncf %16 : f32 to f16
    linalg.yield %17 : f16
  } -> tensor<20x4096x64xf16>
  %15 = hal.tensor.export %14 "output0" : tensor<20x4096x64xf16> -> !hal.buffer_view
  util.return %15 : !hal.buffer_view
}

// -----// IR Dump After LinalgQuantizedMatmulToMatmulPass (iree-global-opt-quantized-matmul-to-matmul) //----- //
util.func public @attention(%arg0: !hal.buffer_view, %arg1: !hal.buffer_view, %arg2: !hal.buffer_view) -> !hal.buffer_view attributes {iree.abi.stub, iree.reflection = {iree.abi.declaration = "sync func @attention(%input0: tensor<20x4096x64xf16>, %input1: tensor<20x4096x64xf16>, %input2: tensor<20x4096x64xf16>) -> (%output0: tensor<20x4096x64xf16>)"}} {
  %cst = arith.constant 1.250000e-01 : f32
  %cst_0 = arith.constant 0.000000e+00 : f32
  %cst_1 = arith.constant -3.40282347E+38 : f32
  %0 = hal.tensor.import %arg0 "input0" : !hal.buffer_view -> tensor<20x4096x64xf16>
  %1 = hal.tensor.import %arg1 "input1" : !hal.buffer_view -> tensor<20x4096x64xf16>
  %2 = hal.tensor.import %arg2 "input2" : !hal.buffer_view -> tensor<20x4096x64xf16>
  %3 = tensor.empty() : tensor<20x4096x4096xf32>
  %4 = linalg.fill ins(%cst_0 : f32) outs(%3 : tensor<20x4096x4096xf32>) -> tensor<20x4096x4096xf32>
  %5 = linalg.generic {indexing_maps = [affine_map<(d0, d1, d2, d3) -> (d0, d1, d3)>, affine_map<(d0, d1, d2, d3) -> (d0, d2, d3)>, affine_map<(d0, d1, d2, d3) -> (d0, d1, d2)>], iterator_types = ["parallel", "parallel", "parallel", "reduction"]} ins(%0, %1 : tensor<20x4096x64xf16>, tensor<20x4096x64xf16>) outs(%4 : tensor<20x4096x4096xf32>) {
  ^bb0(%in: f16, %in_2: f16, %out: f32):
    %16 = arith.extf %in : f16 to f32
    %17 = arith.extf %in_2 : f16 to f32
    %18 = arith.mulf %16, %17 : f32
    %19 = arith.addf %18, %out : f32
    linalg.yield %19 : f32
  } -> tensor<20x4096x4096xf32>
  %6 = linalg.generic {indexing_maps = [affine_map<(d0, d1, d2) -> (d0, d1, d2)>, affine_map<(d0, d1, d2) -> (d0, d1, d2)>], iterator_types = ["parallel", "parallel", "parallel"]} ins(%5 : tensor<20x4096x4096xf32>) outs(%3 : tensor<20x4096x4096xf32>) {
  ^bb0(%in: f32, %out: f32):
    %16 = arith.mulf %in, %cst : f32
    linalg.yield %16 : f32
  } -> tensor<20x4096x4096xf32>
  %7 = tensor.empty() : tensor<20x4096xf32>
  %8 = tensor.empty() : tensor<20x4096x64xf32>
  %9 = linalg.fill ins(%cst_1 : f32) outs(%7 : tensor<20x4096xf32>) -> tensor<20x4096xf32>
  %10 = linalg.fill ins(%cst_0 : f32) outs(%7 : tensor<20x4096xf32>) -> tensor<20x4096xf32>
  %11 = linalg.fill ins(%cst_0 : f32) outs(%8 : tensor<20x4096x64xf32>) -> tensor<20x4096x64xf32>
  %12:3 = iree_linalg_ext.exp_reduction{indexing_maps = [affine_map<(d0, d1, d2, d3) -> (d0, d1, d3)>, affine_map<(d0, d1, d2, d3) -> (d0, d3, d2)>, affine_map<(d0, d1, d2, d3) -> (d0, d1)>, affine_map<(d0, d1, d2, d3) -> (d0, d1)>, affine_map<(d0, d1, d2, d3) -> (d0, d1, d2)>], iterator_types = [#iree_linalg_ext.iterator_type<parallel>, #iree_linalg_ext.iterator_type<parallel>, #iree_linalg_ext.iterator_type<parallel>, #iree_linalg_ext.iterator_type<reduction>], exp_reduced_operands = [1, 2]} ins(%6, %2 : tensor<20x4096x4096xf32>, tensor<20x4096x64xf16>) outs(%9, %10, %11 : tensor<20x4096xf32>, tensor<20x4096xf32>, tensor<20x4096x64xf32>) {
  ^bb0(%arg3: f32, %arg4: f16, %arg5: f32, %arg6: f32, %arg7: f32):
    %16 = arith.addf %arg3, %arg6 : f32
    %17 = arith.truncf %arg3 : f32 to f16
    %18 = arith.extf %17 : f16 to f32
    %19 = arith.extf %arg4 : f16 to f32
    %20 = arith.mulf %18, %19 : f32
    %21 = arith.addf %20, %arg7 : f32
    iree_linalg_ext.yield %arg5, %16, %21 : f32, f32, f32
  } -> tensor<20x4096xf32>, tensor<20x4096xf32>, tensor<20x4096x64xf32>
  %13 = tensor.empty() : tensor<20x4096x64xf16>
  %14 = linalg.generic {indexing_maps = [affine_map<(d0, d1, d2) -> (d0, d1, d2)>, affine_map<(d0, d1, d2) -> (d0, d1)>, affine_map<(d0, d1, d2) -> (d0, d1, d2)>], iterator_types = ["parallel", "parallel", "parallel"]} ins(%12#2, %12#1 : tensor<20x4096x64xf32>, tensor<20x4096xf32>) outs(%13 : tensor<20x4096x64xf16>) {
  ^bb0(%in: f32, %in_2: f32, %out: f16):
    %16 = arith.divf %in, %in_2 : f32
    %17 = arith.truncf %16 : f32 to f16
    linalg.yield %17 : f16
  } -> tensor<20x4096x64xf16>
  %15 = hal.tensor.export %14 "output0" : tensor<20x4096x64xf16> -> !hal.buffer_view
  util.return %15 : !hal.buffer_view
}

// -----// IR Dump After CanonicalizePass (iree-flow-canonicalize) //----- //
util.func public @attention(%arg0: !hal.buffer_view, %arg1: !hal.buffer_view, %arg2: !hal.buffer_view) -> !hal.buffer_view attributes {iree.abi.stub, iree.reflection = {iree.abi.declaration = "sync func @attention(%input0: tensor<20x4096x64xf16>, %input1: tensor<20x4096x64xf16>, %input2: tensor<20x4096x64xf16>) -> (%output0: tensor<20x4096x64xf16>)"}} {
  %cst = arith.constant 1.250000e-01 : f32
  %cst_0 = arith.constant 0.000000e+00 : f32
  %cst_1 = arith.constant -3.40282347E+38 : f32
  %0 = hal.tensor.import %arg0 "input0" : !hal.buffer_view -> tensor<20x4096x64xf16>
  %1 = hal.tensor.import %arg1 "input1" : !hal.buffer_view -> tensor<20x4096x64xf16>
  %2 = hal.tensor.import %arg2 "input2" : !hal.buffer_view -> tensor<20x4096x64xf16>
  %3 = tensor.empty() : tensor<20x4096x4096xf32>
  %4 = linalg.fill ins(%cst_0 : f32) outs(%3 : tensor<20x4096x4096xf32>) -> tensor<20x4096x4096xf32>
  %5 = linalg.generic {indexing_maps = [affine_map<(d0, d1, d2, d3) -> (d0, d1, d3)>, affine_map<(d0, d1, d2, d3) -> (d0, d2, d3)>, affine_map<(d0, d1, d2, d3) -> (d0, d1, d2)>], iterator_types = ["parallel", "parallel", "parallel", "reduction"]} ins(%0, %1 : tensor<20x4096x64xf16>, tensor<20x4096x64xf16>) outs(%4 : tensor<20x4096x4096xf32>) {
  ^bb0(%in: f16, %in_2: f16, %out: f32):
    %16 = arith.extf %in : f16 to f32
    %17 = arith.extf %in_2 : f16 to f32
    %18 = arith.mulf %16, %17 : f32
    %19 = arith.addf %18, %out : f32
    linalg.yield %19 : f32
  } -> tensor<20x4096x4096xf32>
  %6 = linalg.generic {indexing_maps = [affine_map<(d0, d1, d2) -> (d0, d1, d2)>, affine_map<(d0, d1, d2) -> (d0, d1, d2)>], iterator_types = ["parallel", "parallel", "parallel"]} ins(%5 : tensor<20x4096x4096xf32>) outs(%3 : tensor<20x4096x4096xf32>) {
  ^bb0(%in: f32, %out: f32):
    %16 = arith.mulf %in, %cst : f32
    linalg.yield %16 : f32
  } -> tensor<20x4096x4096xf32>
  %7 = tensor.empty() : tensor<20x4096xf32>
  %8 = tensor.empty() : tensor<20x4096x64xf32>
  %9 = linalg.fill ins(%cst_1 : f32) outs(%7 : tensor<20x4096xf32>) -> tensor<20x4096xf32>
  %10 = linalg.fill ins(%cst_0 : f32) outs(%7 : tensor<20x4096xf32>) -> tensor<20x4096xf32>
  %11 = linalg.fill ins(%cst_0 : f32) outs(%8 : tensor<20x4096x64xf32>) -> tensor<20x4096x64xf32>
  %12:3 = iree_linalg_ext.exp_reduction{indexing_maps = [affine_map<(d0, d1, d2, d3) -> (d0, d1, d3)>, affine_map<(d0, d1, d2, d3) -> (d0, d3, d2)>, affine_map<(d0, d1, d2, d3) -> (d0, d1)>, affine_map<(d0, d1, d2, d3) -> (d0, d1)>, affine_map<(d0, d1, d2, d3) -> (d0, d1, d2)>], iterator_types = [#iree_linalg_ext.iterator_type<parallel>, #iree_linalg_ext.iterator_type<parallel>, #iree_linalg_ext.iterator_type<parallel>, #iree_linalg_ext.iterator_type<reduction>], exp_reduced_operands = [1, 2]} ins(%6, %2 : tensor<20x4096x4096xf32>, tensor<20x4096x64xf16>) outs(%9, %10, %11 : tensor<20x4096xf32>, tensor<20x4096xf32>, tensor<20x4096x64xf32>) {
  ^bb0(%arg3: f32, %arg4: f16, %arg5: f32, %arg6: f32, %arg7: f32):
    %16 = arith.addf %arg3, %arg6 : f32
    %17 = arith.truncf %arg3 : f32 to f16
    %18 = arith.extf %17 : f16 to f32
    %19 = arith.extf %arg4 : f16 to f32
    %20 = arith.mulf %18, %19 : f32
    %21 = arith.addf %20, %arg7 : f32
    iree_linalg_ext.yield %arg5, %16, %21 : f32, f32, f32
  } -> tensor<20x4096xf32>, tensor<20x4096xf32>, tensor<20x4096x64xf32>
  %13 = tensor.empty() : tensor<20x4096x64xf16>
  %14 = linalg.generic {indexing_maps = [affine_map<(d0, d1, d2) -> (d0, d1, d2)>, affine_map<(d0, d1, d2) -> (d0, d1)>, affine_map<(d0, d1, d2) -> (d0, d1, d2)>], iterator_types = ["parallel", "parallel", "parallel"]} ins(%12#2, %12#1 : tensor<20x4096x64xf32>, tensor<20x4096xf32>) outs(%13 : tensor<20x4096x64xf16>) {
  ^bb0(%in: f32, %in_2: f32, %out: f16):
    %16 = arith.divf %in, %in_2 : f32
    %17 = arith.truncf %16 : f32 to f16
    linalg.yield %17 : f16
  } -> tensor<20x4096x64xf16>
  %15 = hal.tensor.export %14 "output0" : tensor<20x4096x64xf16> -> !hal.buffer_view
  util.return %15 : !hal.buffer_view
}

// -----// IR Dump After RemoveZeroExtentTensorsPass (iree-global-opt-remove-zero-extent-tensors) //----- //
util.func public @attention(%arg0: !hal.buffer_view, %arg1: !hal.buffer_view, %arg2: !hal.buffer_view) -> !hal.buffer_view attributes {iree.abi.stub, iree.reflection = {iree.abi.declaration = "sync func @attention(%input0: tensor<20x4096x64xf16>, %input1: tensor<20x4096x64xf16>, %input2: tensor<20x4096x64xf16>) -> (%output0: tensor<20x4096x64xf16>)"}} {
  %cst = arith.constant 1.250000e-01 : f32
  %cst_0 = arith.constant 0.000000e+00 : f32
  %cst_1 = arith.constant -3.40282347E+38 : f32
  %0 = hal.tensor.import %arg0 "input0" : !hal.buffer_view -> tensor<20x4096x64xf16>
  %1 = hal.tensor.import %arg1 "input1" : !hal.buffer_view -> tensor<20x4096x64xf16>
  %2 = hal.tensor.import %arg2 "input2" : !hal.buffer_view -> tensor<20x4096x64xf16>
  %3 = tensor.empty() : tensor<20x4096x4096xf32>
  %4 = linalg.fill ins(%cst_0 : f32) outs(%3 : tensor<20x4096x4096xf32>) -> tensor<20x4096x4096xf32>
  %5 = linalg.generic {indexing_maps = [affine_map<(d0, d1, d2, d3) -> (d0, d1, d3)>, affine_map<(d0, d1, d2, d3) -> (d0, d2, d3)>, affine_map<(d0, d1, d2, d3) -> (d0, d1, d2)>], iterator_types = ["parallel", "parallel", "parallel", "reduction"]} ins(%0, %1 : tensor<20x4096x64xf16>, tensor<20x4096x64xf16>) outs(%4 : tensor<20x4096x4096xf32>) {
  ^bb0(%in: f16, %in_2: f16, %out: f32):
    %16 = arith.extf %in : f16 to f32
    %17 = arith.extf %in_2 : f16 to f32
    %18 = arith.mulf %16, %17 : f32
    %19 = arith.addf %18, %out : f32
    linalg.yield %19 : f32
  } -> tensor<20x4096x4096xf32>
  %6 = linalg.generic {indexing_maps = [affine_map<(d0, d1, d2) -> (d0, d1, d2)>, affine_map<(d0, d1, d2) -> (d0, d1, d2)>], iterator_types = ["parallel", "parallel", "parallel"]} ins(%5 : tensor<20x4096x4096xf32>) outs(%3 : tensor<20x4096x4096xf32>) {
  ^bb0(%in: f32, %out: f32):
    %16 = arith.mulf %in, %cst : f32
    linalg.yield %16 : f32
  } -> tensor<20x4096x4096xf32>
  %7 = tensor.empty() : tensor<20x4096xf32>
  %8 = tensor.empty() : tensor<20x4096x64xf32>
  %9 = linalg.fill ins(%cst_1 : f32) outs(%7 : tensor<20x4096xf32>) -> tensor<20x4096xf32>
  %10 = linalg.fill ins(%cst_0 : f32) outs(%7 : tensor<20x4096xf32>) -> tensor<20x4096xf32>
  %11 = linalg.fill ins(%cst_0 : f32) outs(%8 : tensor<20x4096x64xf32>) -> tensor<20x4096x64xf32>
  %12:3 = iree_linalg_ext.exp_reduction{indexing_maps = [affine_map<(d0, d1, d2, d3) -> (d0, d1, d3)>, affine_map<(d0, d1, d2, d3) -> (d0, d3, d2)>, affine_map<(d0, d1, d2, d3) -> (d0, d1)>, affine_map<(d0, d1, d2, d3) -> (d0, d1)>, affine_map<(d0, d1, d2, d3) -> (d0, d1, d2)>], iterator_types = [#iree_linalg_ext.iterator_type<parallel>, #iree_linalg_ext.iterator_type<parallel>, #iree_linalg_ext.iterator_type<parallel>, #iree_linalg_ext.iterator_type<reduction>], exp_reduced_operands = [1, 2]} ins(%6, %2 : tensor<20x4096x4096xf32>, tensor<20x4096x64xf16>) outs(%9, %10, %11 : tensor<20x4096xf32>, tensor<20x4096xf32>, tensor<20x4096x64xf32>) {
  ^bb0(%arg3: f32, %arg4: f16, %arg5: f32, %arg6: f32, %arg7: f32):
    %16 = arith.addf %arg3, %arg6 : f32
    %17 = arith.truncf %arg3 : f32 to f16
    %18 = arith.extf %17 : f16 to f32
    %19 = arith.extf %arg4 : f16 to f32
    %20 = arith.mulf %18, %19 : f32
    %21 = arith.addf %20, %arg7 : f32
    iree_linalg_ext.yield %arg5, %16, %21 : f32, f32, f32
  } -> tensor<20x4096xf32>, tensor<20x4096xf32>, tensor<20x4096x64xf32>
  %13 = tensor.empty() : tensor<20x4096x64xf16>
  %14 = linalg.generic {indexing_maps = [affine_map<(d0, d1, d2) -> (d0, d1, d2)>, affine_map<(d0, d1, d2) -> (d0, d1)>, affine_map<(d0, d1, d2) -> (d0, d1, d2)>], iterator_types = ["parallel", "parallel", "parallel"]} ins(%12#2, %12#1 : tensor<20x4096x64xf32>, tensor<20x4096xf32>) outs(%13 : tensor<20x4096x64xf16>) {
  ^bb0(%in: f32, %in_2: f32, %out: f16):
    %16 = arith.divf %in, %in_2 : f32
    %17 = arith.truncf %16 : f32 to f16
    linalg.yield %17 : f16
  } -> tensor<20x4096x64xf16>
  %15 = hal.tensor.export %14 "output0" : tensor<20x4096x64xf16> -> !hal.buffer_view
  util.return %15 : !hal.buffer_view
}

// -----// IR Dump After DetachElementwiseFromNamedOpsPass (iree-global-opt-detach-elementwise-from-named-ops) //----- //
util.func public @attention(%arg0: !hal.buffer_view, %arg1: !hal.buffer_view, %arg2: !hal.buffer_view) -> !hal.buffer_view attributes {iree.abi.stub, iree.reflection = {iree.abi.declaration = "sync func @attention(%input0: tensor<20x4096x64xf16>, %input1: tensor<20x4096x64xf16>, %input2: tensor<20x4096x64xf16>) -> (%output0: tensor<20x4096x64xf16>)"}} {
  %cst = arith.constant 1.250000e-01 : f32
  %cst_0 = arith.constant 0.000000e+00 : f32
  %cst_1 = arith.constant -3.40282347E+38 : f32
  %0 = hal.tensor.import %arg0 "input0" : !hal.buffer_view -> tensor<20x4096x64xf16>
  %1 = hal.tensor.import %arg1 "input1" : !hal.buffer_view -> tensor<20x4096x64xf16>
  %2 = hal.tensor.import %arg2 "input2" : !hal.buffer_view -> tensor<20x4096x64xf16>
  %3 = tensor.empty() : tensor<20x4096x4096xf32>
  %4 = linalg.fill ins(%cst_0 : f32) outs(%3 : tensor<20x4096x4096xf32>) -> tensor<20x4096x4096xf32>
  %5 = linalg.generic {indexing_maps = [affine_map<(d0, d1, d2, d3) -> (d0, d1, d3)>, affine_map<(d0, d1, d2, d3) -> (d0, d2, d3)>, affine_map<(d0, d1, d2, d3) -> (d0, d1, d2)>], iterator_types = ["parallel", "parallel", "parallel", "reduction"]} ins(%0, %1 : tensor<20x4096x64xf16>, tensor<20x4096x64xf16>) outs(%4 : tensor<20x4096x4096xf32>) {
  ^bb0(%in: f16, %in_2: f16, %out: f32):
    %16 = arith.extf %in : f16 to f32
    %17 = arith.extf %in_2 : f16 to f32
    %18 = arith.mulf %16, %17 : f32
    %19 = arith.addf %18, %out : f32
    linalg.yield %19 : f32
  } -> tensor<20x4096x4096xf32>
  %6 = linalg.generic {indexing_maps = [affine_map<(d0, d1, d2) -> (d0, d1, d2)>, affine_map<(d0, d1, d2) -> (d0, d1, d2)>], iterator_types = ["parallel", "parallel", "parallel"]} ins(%5 : tensor<20x4096x4096xf32>) outs(%3 : tensor<20x4096x4096xf32>) {
  ^bb0(%in: f32, %out: f32):
    %16 = arith.mulf %in, %cst : f32
    linalg.yield %16 : f32
  } -> tensor<20x4096x4096xf32>
  %7 = tensor.empty() : tensor<20x4096xf32>
  %8 = tensor.empty() : tensor<20x4096x64xf32>
  %9 = linalg.fill ins(%cst_1 : f32) outs(%7 : tensor<20x4096xf32>) -> tensor<20x4096xf32>
  %10 = linalg.fill ins(%cst_0 : f32) outs(%7 : tensor<20x4096xf32>) -> tensor<20x4096xf32>
  %11 = linalg.fill ins(%cst_0 : f32) outs(%8 : tensor<20x4096x64xf32>) -> tensor<20x4096x64xf32>
  %12:3 = iree_linalg_ext.exp_reduction{indexing_maps = [affine_map<(d0, d1, d2, d3) -> (d0, d1, d3)>, affine_map<(d0, d1, d2, d3) -> (d0, d3, d2)>, affine_map<(d0, d1, d2, d3) -> (d0, d1)>, affine_map<(d0, d1, d2, d3) -> (d0, d1)>, affine_map<(d0, d1, d2, d3) -> (d0, d1, d2)>], iterator_types = [#iree_linalg_ext.iterator_type<parallel>, #iree_linalg_ext.iterator_type<parallel>, #iree_linalg_ext.iterator_type<parallel>, #iree_linalg_ext.iterator_type<reduction>], exp_reduced_operands = [1, 2]} ins(%6, %2 : tensor<20x4096x4096xf32>, tensor<20x4096x64xf16>) outs(%9, %10, %11 : tensor<20x4096xf32>, tensor<20x4096xf32>, tensor<20x4096x64xf32>) {
  ^bb0(%arg3: f32, %arg4: f16, %arg5: f32, %arg6: f32, %arg7: f32):
    %16 = arith.addf %arg3, %arg6 : f32
    %17 = arith.truncf %arg3 : f32 to f16
    %18 = arith.extf %17 : f16 to f32
    %19 = arith.extf %arg4 : f16 to f32
    %20 = arith.mulf %18, %19 : f32
    %21 = arith.addf %20, %arg7 : f32
    iree_linalg_ext.yield %arg5, %16, %21 : f32, f32, f32
  } -> tensor<20x4096xf32>, tensor<20x4096xf32>, tensor<20x4096x64xf32>
  %13 = tensor.empty() : tensor<20x4096x64xf16>
  %14 = linalg.generic {indexing_maps = [affine_map<(d0, d1, d2) -> (d0, d1, d2)>, affine_map<(d0, d1, d2) -> (d0, d1)>, affine_map<(d0, d1, d2) -> (d0, d1, d2)>], iterator_types = ["parallel", "parallel", "parallel"]} ins(%12#2, %12#1 : tensor<20x4096x64xf32>, tensor<20x4096xf32>) outs(%13 : tensor<20x4096x64xf16>) {
  ^bb0(%in: f32, %in_2: f32, %out: f16):
    %16 = arith.divf %in, %in_2 : f32
    %17 = arith.truncf %16 : f32 to f16
    linalg.yield %17 : f16
  } -> tensor<20x4096x64xf16>
  %15 = hal.tensor.export %14 "output0" : tensor<20x4096x64xf16> -> !hal.buffer_view
  util.return %15 : !hal.buffer_view
}

// -----// IR Dump After SimplifyDepthwiseConvPass (simplify-depthwise-conv) //----- //
util.func public @attention(%arg0: !hal.buffer_view, %arg1: !hal.buffer_view, %arg2: !hal.buffer_view) -> !hal.buffer_view attributes {iree.abi.stub, iree.reflection = {iree.abi.declaration = "sync func @attention(%input0: tensor<20x4096x64xf16>, %input1: tensor<20x4096x64xf16>, %input2: tensor<20x4096x64xf16>) -> (%output0: tensor<20x4096x64xf16>)"}} {
  %cst = arith.constant 1.250000e-01 : f32
  %cst_0 = arith.constant 0.000000e+00 : f32
  %cst_1 = arith.constant -3.40282347E+38 : f32
  %0 = hal.tensor.import %arg0 "input0" : !hal.buffer_view -> tensor<20x4096x64xf16>
  %1 = hal.tensor.import %arg1 "input1" : !hal.buffer_view -> tensor<20x4096x64xf16>
  %2 = hal.tensor.import %arg2 "input2" : !hal.buffer_view -> tensor<20x4096x64xf16>
  %3 = tensor.empty() : tensor<20x4096x4096xf32>
  %4 = linalg.fill ins(%cst_0 : f32) outs(%3 : tensor<20x4096x4096xf32>) -> tensor<20x4096x4096xf32>
  %5 = linalg.generic {indexing_maps = [affine_map<(d0, d1, d2, d3) -> (d0, d1, d3)>, affine_map<(d0, d1, d2, d3) -> (d0, d2, d3)>, affine_map<(d0, d1, d2, d3) -> (d0, d1, d2)>], iterator_types = ["parallel", "parallel", "parallel", "reduction"]} ins(%0, %1 : tensor<20x4096x64xf16>, tensor<20x4096x64xf16>) outs(%4 : tensor<20x4096x4096xf32>) {
  ^bb0(%in: f16, %in_2: f16, %out: f32):
    %16 = arith.extf %in : f16 to f32
    %17 = arith.extf %in_2 : f16 to f32
    %18 = arith.mulf %16, %17 : f32
    %19 = arith.addf %18, %out : f32
    linalg.yield %19 : f32
  } -> tensor<20x4096x4096xf32>
  %6 = linalg.generic {indexing_maps = [affine_map<(d0, d1, d2) -> (d0, d1, d2)>, affine_map<(d0, d1, d2) -> (d0, d1, d2)>], iterator_types = ["parallel", "parallel", "parallel"]} ins(%5 : tensor<20x4096x4096xf32>) outs(%3 : tensor<20x4096x4096xf32>) {
  ^bb0(%in: f32, %out: f32):
    %16 = arith.mulf %in, %cst : f32
    linalg.yield %16 : f32
  } -> tensor<20x4096x4096xf32>
  %7 = tensor.empty() : tensor<20x4096xf32>
  %8 = tensor.empty() : tensor<20x4096x64xf32>
  %9 = linalg.fill ins(%cst_1 : f32) outs(%7 : tensor<20x4096xf32>) -> tensor<20x4096xf32>
  %10 = linalg.fill ins(%cst_0 : f32) outs(%7 : tensor<20x4096xf32>) -> tensor<20x4096xf32>
  %11 = linalg.fill ins(%cst_0 : f32) outs(%8 : tensor<20x4096x64xf32>) -> tensor<20x4096x64xf32>
  %12:3 = iree_linalg_ext.exp_reduction{indexing_maps = [affine_map<(d0, d1, d2, d3) -> (d0, d1, d3)>, affine_map<(d0, d1, d2, d3) -> (d0, d3, d2)>, affine_map<(d0, d1, d2, d3) -> (d0, d1)>, affine_map<(d0, d1, d2, d3) -> (d0, d1)>, affine_map<(d0, d1, d2, d3) -> (d0, d1, d2)>], iterator_types = [#iree_linalg_ext.iterator_type<parallel>, #iree_linalg_ext.iterator_type<parallel>, #iree_linalg_ext.iterator_type<parallel>, #iree_linalg_ext.iterator_type<reduction>], exp_reduced_operands = [1, 2]} ins(%6, %2 : tensor<20x4096x4096xf32>, tensor<20x4096x64xf16>) outs(%9, %10, %11 : tensor<20x4096xf32>, tensor<20x4096xf32>, tensor<20x4096x64xf32>) {
  ^bb0(%arg3: f32, %arg4: f16, %arg5: f32, %arg6: f32, %arg7: f32):
    %16 = arith.addf %arg3, %arg6 : f32
    %17 = arith.truncf %arg3 : f32 to f16
    %18 = arith.extf %17 : f16 to f32
    %19 = arith.extf %arg4 : f16 to f32
    %20 = arith.mulf %18, %19 : f32
    %21 = arith.addf %20, %arg7 : f32
    iree_linalg_ext.yield %arg5, %16, %21 : f32, f32, f32
  } -> tensor<20x4096xf32>, tensor<20x4096xf32>, tensor<20x4096x64xf32>
  %13 = tensor.empty() : tensor<20x4096x64xf16>
  %14 = linalg.generic {indexing_maps = [affine_map<(d0, d1, d2) -> (d0, d1, d2)>, affine_map<(d0, d1, d2) -> (d0, d1)>, affine_map<(d0, d1, d2) -> (d0, d1, d2)>], iterator_types = ["parallel", "parallel", "parallel"]} ins(%12#2, %12#1 : tensor<20x4096x64xf32>, tensor<20x4096xf32>) outs(%13 : tensor<20x4096x64xf16>) {
  ^bb0(%in: f32, %in_2: f32, %out: f16):
    %16 = arith.divf %in, %in_2 : f32
    %17 = arith.truncf %16 : f32 to f16
    linalg.yield %17 : f16
  } -> tensor<20x4096x64xf16>
  %15 = hal.tensor.export %14 "output0" : tensor<20x4096x64xf16> -> !hal.buffer_view
  util.return %15 : !hal.buffer_view
}

// -----// IR Dump After EraseUnusedLinalgOperandsPass (iree-global-opt-erase-unused-linalg-operands) //----- //
#executable_target_embedded_elf_x86_64 = #hal.executable.target<"llvm-cpu", "embedded-elf-x86_64", {cpu = "", cpu_features = "", data_layout = "e-m:e-p270:32:32-p271:32:32-p272:64:64-i64:64-i128:128-f80:128-n8:16:32:64-S128", iree.encoding.resolver = #iree_cpu.cpu_encoding_resolver<>, max_stack_allocation_size = 32768 : i64, native_vector_size = 16 : i64, target_triple = "x86_64-unknown-unknown-eabi-elf"}>
#map = affine_map<(d0, d1, d2, d3) -> (d0, d1, d3)>
#map1 = affine_map<(d0, d1, d2, d3) -> (d0, d2, d3)>
#map2 = affine_map<(d0, d1, d2, d3) -> (d0, d1, d2)>
#map3 = affine_map<(d0, d1, d2) -> (d0, d1, d2)>
#map4 = affine_map<(d0, d1, d2, d3) -> (d0, d3, d2)>
#map5 = affine_map<(d0, d1, d2, d3) -> (d0, d1)>
#map6 = affine_map<(d0, d1, d2) -> (d0, d1)>
#device_target_local = #hal.device.target<"local", [#executable_target_embedded_elf_x86_64]> : !hal.device
module attributes {stream.affinity.default = #hal.device.affinity<@__device_0>} {
  util.global private @__device_0 = #device_target_local
  util.func public @attention(%arg0: !hal.buffer_view, %arg1: !hal.buffer_view, %arg2: !hal.buffer_view) -> !hal.buffer_view attributes {iree.abi.stub, iree.reflection = {iree.abi.declaration = "sync func @attention(%input0: tensor<20x4096x64xf16>, %input1: tensor<20x4096x64xf16>, %input2: tensor<20x4096x64xf16>) -> (%output0: tensor<20x4096x64xf16>)"}} {
    %cst = arith.constant 1.250000e-01 : f32
    %cst_0 = arith.constant 0.000000e+00 : f32
    %cst_1 = arith.constant -3.40282347E+38 : f32
    %0 = hal.tensor.import %arg0 "input0" : !hal.buffer_view -> tensor<20x4096x64xf16>
    %1 = hal.tensor.import %arg1 "input1" : !hal.buffer_view -> tensor<20x4096x64xf16>
    %2 = hal.tensor.import %arg2 "input2" : !hal.buffer_view -> tensor<20x4096x64xf16>
    %3 = tensor.empty() : tensor<20x4096x4096xf32>
    %4 = linalg.fill ins(%cst_0 : f32) outs(%3 : tensor<20x4096x4096xf32>) -> tensor<20x4096x4096xf32>
    %5 = linalg.generic {indexing_maps = [#map, #map1, #map2], iterator_types = ["parallel", "parallel", "parallel", "reduction"]} ins(%0, %1 : tensor<20x4096x64xf16>, tensor<20x4096x64xf16>) outs(%4 : tensor<20x4096x4096xf32>) {
    ^bb0(%in: f16, %in_2: f16, %out: f32):
      %16 = arith.extf %in : f16 to f32
      %17 = arith.extf %in_2 : f16 to f32
      %18 = arith.mulf %16, %17 : f32
      %19 = arith.addf %18, %out : f32
      linalg.yield %19 : f32
    } -> tensor<20x4096x4096xf32>
    %6 = linalg.generic {indexing_maps = [#map3, #map3], iterator_types = ["parallel", "parallel", "parallel"]} ins(%5 : tensor<20x4096x4096xf32>) outs(%3 : tensor<20x4096x4096xf32>) {
    ^bb0(%in: f32, %out: f32):
      %16 = arith.mulf %in, %cst : f32
      linalg.yield %16 : f32
    } -> tensor<20x4096x4096xf32>
    %7 = tensor.empty() : tensor<20x4096xf32>
    %8 = tensor.empty() : tensor<20x4096x64xf32>
    %9 = linalg.fill ins(%cst_1 : f32) outs(%7 : tensor<20x4096xf32>) -> tensor<20x4096xf32>
    %10 = linalg.fill ins(%cst_0 : f32) outs(%7 : tensor<20x4096xf32>) -> tensor<20x4096xf32>
    %11 = linalg.fill ins(%cst_0 : f32) outs(%8 : tensor<20x4096x64xf32>) -> tensor<20x4096x64xf32>
    %12:3 = iree_linalg_ext.exp_reduction{indexing_maps = [#map, #map4, #map5, #map5, #map2], iterator_types = [#iree_linalg_ext.iterator_type<parallel>, #iree_linalg_ext.iterator_type<parallel>, #iree_linalg_ext.iterator_type<parallel>, #iree_linalg_ext.iterator_type<reduction>], exp_reduced_operands = [1, 2]} ins(%6, %2 : tensor<20x4096x4096xf32>, tensor<20x4096x64xf16>) outs(%9, %10, %11 : tensor<20x4096xf32>, tensor<20x4096xf32>, tensor<20x4096x64xf32>) {
    ^bb0(%arg3: f32, %arg4: f16, %arg5: f32, %arg6: f32, %arg7: f32):
      %16 = arith.addf %arg3, %arg6 : f32
      %17 = arith.truncf %arg3 : f32 to f16
      %18 = arith.extf %17 : f16 to f32
      %19 = arith.extf %arg4 : f16 to f32
      %20 = arith.mulf %18, %19 : f32
      %21 = arith.addf %20, %arg7 : f32
      iree_linalg_ext.yield %arg5, %16, %21 : f32, f32, f32
    } -> tensor<20x4096xf32>, tensor<20x4096xf32>, tensor<20x4096x64xf32>
    %13 = tensor.empty() : tensor<20x4096x64xf16>
    %14 = linalg.generic {indexing_maps = [#map3, #map6, #map3], iterator_types = ["parallel", "parallel", "parallel"]} ins(%12#2, %12#1 : tensor<20x4096x64xf32>, tensor<20x4096xf32>) outs(%13 : tensor<20x4096x64xf16>) {
    ^bb0(%in: f32, %in_2: f32, %out: f16):
      %16 = arith.divf %in, %in_2 : f32
      %17 = arith.truncf %16 : f32 to f16
      linalg.yield %17 : f16
    } -> tensor<20x4096x64xf16>
    %15 = hal.tensor.export %14 "output0" : tensor<20x4096x64xf16> -> !hal.buffer_view
    util.return %15 : !hal.buffer_view
  }
}


// -----// IR Dump After ExpandTensorShapesPass (iree-global-opt-expand-tensor-shapes) //----- //
#executable_target_embedded_elf_x86_64 = #hal.executable.target<"llvm-cpu", "embedded-elf-x86_64", {cpu = "", cpu_features = "", data_layout = "e-m:e-p270:32:32-p271:32:32-p272:64:64-i64:64-i128:128-f80:128-n8:16:32:64-S128", iree.encoding.resolver = #iree_cpu.cpu_encoding_resolver<>, max_stack_allocation_size = 32768 : i64, native_vector_size = 16 : i64, target_triple = "x86_64-unknown-unknown-eabi-elf"}>
#map = affine_map<(d0, d1, d2, d3) -> (d0, d1, d3)>
#map1 = affine_map<(d0, d1, d2, d3) -> (d0, d2, d3)>
#map2 = affine_map<(d0, d1, d2, d3) -> (d0, d1, d2)>
#map3 = affine_map<(d0, d1, d2) -> (d0, d1, d2)>
#map4 = affine_map<(d0, d1, d2, d3) -> (d0, d3, d2)>
#map5 = affine_map<(d0, d1, d2, d3) -> (d0, d1)>
#map6 = affine_map<(d0, d1, d2) -> (d0, d1)>
#device_target_local = #hal.device.target<"local", [#executable_target_embedded_elf_x86_64]> : !hal.device
module attributes {stream.affinity.default = #hal.device.affinity<@__device_0>} {
  util.global private @__device_0 = #device_target_local
  util.func public @attention(%arg0: !hal.buffer_view, %arg1: !hal.buffer_view, %arg2: !hal.buffer_view) -> !hal.buffer_view attributes {iree.abi.stub, iree.reflection = {iree.abi.declaration = "sync func @attention(%input0: tensor<20x4096x64xf16>, %input1: tensor<20x4096x64xf16>, %input2: tensor<20x4096x64xf16>) -> (%output0: tensor<20x4096x64xf16>)"}} {
    %cst = arith.constant 1.250000e-01 : f32
    %cst_0 = arith.constant 0.000000e+00 : f32
    %cst_1 = arith.constant -3.40282347E+38 : f32
    %0 = hal.tensor.import %arg0 "input0" : !hal.buffer_view -> tensor<20x4096x64xf16>
    %1 = hal.tensor.import %arg1 "input1" : !hal.buffer_view -> tensor<20x4096x64xf16>
    %2 = hal.tensor.import %arg2 "input2" : !hal.buffer_view -> tensor<20x4096x64xf16>
    %3 = tensor.empty() : tensor<20x4096x4096xf32>
    %4 = linalg.fill ins(%cst_0 : f32) outs(%3 : tensor<20x4096x4096xf32>) -> tensor<20x4096x4096xf32>
    %5 = linalg.generic {indexing_maps = [#map, #map1, #map2], iterator_types = ["parallel", "parallel", "parallel", "reduction"]} ins(%0, %1 : tensor<20x4096x64xf16>, tensor<20x4096x64xf16>) outs(%4 : tensor<20x4096x4096xf32>) {
    ^bb0(%in: f16, %in_2: f16, %out: f32):
      %16 = arith.extf %in : f16 to f32
      %17 = arith.extf %in_2 : f16 to f32
      %18 = arith.mulf %16, %17 : f32
      %19 = arith.addf %18, %out : f32
      linalg.yield %19 : f32
    } -> tensor<20x4096x4096xf32>
    %6 = linalg.generic {indexing_maps = [#map3, #map3], iterator_types = ["parallel", "parallel", "parallel"]} ins(%5 : tensor<20x4096x4096xf32>) outs(%3 : tensor<20x4096x4096xf32>) {
    ^bb0(%in: f32, %out: f32):
      %16 = arith.mulf %in, %cst : f32
      linalg.yield %16 : f32
    } -> tensor<20x4096x4096xf32>
    %7 = tensor.empty() : tensor<20x4096xf32>
    %8 = tensor.empty() : tensor<20x4096x64xf32>
    %9 = linalg.fill ins(%cst_1 : f32) outs(%7 : tensor<20x4096xf32>) -> tensor<20x4096xf32>
    %10 = linalg.fill ins(%cst_0 : f32) outs(%7 : tensor<20x4096xf32>) -> tensor<20x4096xf32>
    %11 = linalg.fill ins(%cst_0 : f32) outs(%8 : tensor<20x4096x64xf32>) -> tensor<20x4096x64xf32>
    %12:3 = iree_linalg_ext.exp_reduction{indexing_maps = [#map, #map4, #map5, #map5, #map2], iterator_types = [#iree_linalg_ext.iterator_type<parallel>, #iree_linalg_ext.iterator_type<parallel>, #iree_linalg_ext.iterator_type<parallel>, #iree_linalg_ext.iterator_type<reduction>], exp_reduced_operands = [1, 2]} ins(%6, %2 : tensor<20x4096x4096xf32>, tensor<20x4096x64xf16>) outs(%9, %10, %11 : tensor<20x4096xf32>, tensor<20x4096xf32>, tensor<20x4096x64xf32>) {
    ^bb0(%arg3: f32, %arg4: f16, %arg5: f32, %arg6: f32, %arg7: f32):
      %16 = arith.addf %arg3, %arg6 : f32
      %17 = arith.truncf %arg3 : f32 to f16
      %18 = arith.extf %17 : f16 to f32
      %19 = arith.extf %arg4 : f16 to f32
      %20 = arith.mulf %18, %19 : f32
      %21 = arith.addf %20, %arg7 : f32
      iree_linalg_ext.yield %arg5, %16, %21 : f32, f32, f32
    } -> tensor<20x4096xf32>, tensor<20x4096xf32>, tensor<20x4096x64xf32>
    %13 = tensor.empty() : tensor<20x4096x64xf16>
    %14 = linalg.generic {indexing_maps = [#map3, #map6, #map3], iterator_types = ["parallel", "parallel", "parallel"]} ins(%12#2, %12#1 : tensor<20x4096x64xf32>, tensor<20x4096xf32>) outs(%13 : tensor<20x4096x64xf16>) {
    ^bb0(%in: f32, %in_2: f32, %out: f16):
      %16 = arith.divf %in, %in_2 : f32
      %17 = arith.truncf %16 : f32 to f16
      linalg.yield %17 : f16
    } -> tensor<20x4096x64xf16>
    %15 = hal.tensor.export %14 "output0" : tensor<20x4096x64xf16> -> !hal.buffer_view
    util.return %15 : !hal.buffer_view
  }
}


// -----// IR Dump After ConvertElementwiseToLinalgPass (convert-elementwise-to-linalg) //----- //
util.func public @attention(%arg0: !hal.buffer_view, %arg1: !hal.buffer_view, %arg2: !hal.buffer_view) -> !hal.buffer_view attributes {iree.abi.stub, iree.reflection = {iree.abi.declaration = "sync func @attention(%input0: tensor<20x4096x64xf16>, %input1: tensor<20x4096x64xf16>, %input2: tensor<20x4096x64xf16>) -> (%output0: tensor<20x4096x64xf16>)"}} {
  %cst = arith.constant 1.250000e-01 : f32
  %cst_0 = arith.constant 0.000000e+00 : f32
  %cst_1 = arith.constant -3.40282347E+38 : f32
  %0 = hal.tensor.import %arg0 "input0" : !hal.buffer_view -> tensor<20x4096x64xf16>
  %1 = hal.tensor.import %arg1 "input1" : !hal.buffer_view -> tensor<20x4096x64xf16>
  %2 = hal.tensor.import %arg2 "input2" : !hal.buffer_view -> tensor<20x4096x64xf16>
  %3 = tensor.empty() : tensor<20x4096x4096xf32>
  %4 = linalg.fill ins(%cst_0 : f32) outs(%3 : tensor<20x4096x4096xf32>) -> tensor<20x4096x4096xf32>
  %5 = linalg.generic {indexing_maps = [affine_map<(d0, d1, d2, d3) -> (d0, d1, d3)>, affine_map<(d0, d1, d2, d3) -> (d0, d2, d3)>, affine_map<(d0, d1, d2, d3) -> (d0, d1, d2)>], iterator_types = ["parallel", "parallel", "parallel", "reduction"]} ins(%0, %1 : tensor<20x4096x64xf16>, tensor<20x4096x64xf16>) outs(%4 : tensor<20x4096x4096xf32>) {
  ^bb0(%in: f16, %in_2: f16, %out: f32):
    %16 = arith.extf %in : f16 to f32
    %17 = arith.extf %in_2 : f16 to f32
    %18 = arith.mulf %16, %17 : f32
    %19 = arith.addf %18, %out : f32
    linalg.yield %19 : f32
  } -> tensor<20x4096x4096xf32>
  %6 = linalg.generic {indexing_maps = [affine_map<(d0, d1, d2) -> (d0, d1, d2)>, affine_map<(d0, d1, d2) -> (d0, d1, d2)>], iterator_types = ["parallel", "parallel", "parallel"]} ins(%5 : tensor<20x4096x4096xf32>) outs(%3 : tensor<20x4096x4096xf32>) {
  ^bb0(%in: f32, %out: f32):
    %16 = arith.mulf %in, %cst : f32
    linalg.yield %16 : f32
  } -> tensor<20x4096x4096xf32>
  %7 = tensor.empty() : tensor<20x4096xf32>
  %8 = tensor.empty() : tensor<20x4096x64xf32>
  %9 = linalg.fill ins(%cst_1 : f32) outs(%7 : tensor<20x4096xf32>) -> tensor<20x4096xf32>
  %10 = linalg.fill ins(%cst_0 : f32) outs(%7 : tensor<20x4096xf32>) -> tensor<20x4096xf32>
  %11 = linalg.fill ins(%cst_0 : f32) outs(%8 : tensor<20x4096x64xf32>) -> tensor<20x4096x64xf32>
  %12:3 = iree_linalg_ext.exp_reduction{indexing_maps = [affine_map<(d0, d1, d2, d3) -> (d0, d1, d3)>, affine_map<(d0, d1, d2, d3) -> (d0, d3, d2)>, affine_map<(d0, d1, d2, d3) -> (d0, d1)>, affine_map<(d0, d1, d2, d3) -> (d0, d1)>, affine_map<(d0, d1, d2, d3) -> (d0, d1, d2)>], iterator_types = [#iree_linalg_ext.iterator_type<parallel>, #iree_linalg_ext.iterator_type<parallel>, #iree_linalg_ext.iterator_type<parallel>, #iree_linalg_ext.iterator_type<reduction>], exp_reduced_operands = [1, 2]} ins(%6, %2 : tensor<20x4096x4096xf32>, tensor<20x4096x64xf16>) outs(%9, %10, %11 : tensor<20x4096xf32>, tensor<20x4096xf32>, tensor<20x4096x64xf32>) {
  ^bb0(%arg3: f32, %arg4: f16, %arg5: f32, %arg6: f32, %arg7: f32):
    %16 = arith.addf %arg3, %arg6 : f32
    %17 = arith.truncf %arg3 : f32 to f16
    %18 = arith.extf %17 : f16 to f32
    %19 = arith.extf %arg4 : f16 to f32
    %20 = arith.mulf %18, %19 : f32
    %21 = arith.addf %20, %arg7 : f32
    iree_linalg_ext.yield %arg5, %16, %21 : f32, f32, f32
  } -> tensor<20x4096xf32>, tensor<20x4096xf32>, tensor<20x4096x64xf32>
  %13 = tensor.empty() : tensor<20x4096x64xf16>
  %14 = linalg.generic {indexing_maps = [affine_map<(d0, d1, d2) -> (d0, d1, d2)>, affine_map<(d0, d1, d2) -> (d0, d1)>, affine_map<(d0, d1, d2) -> (d0, d1, d2)>], iterator_types = ["parallel", "parallel", "parallel"]} ins(%12#2, %12#1 : tensor<20x4096x64xf32>, tensor<20x4096xf32>) outs(%13 : tensor<20x4096x64xf16>) {
  ^bb0(%in: f32, %in_2: f32, %out: f16):
    %16 = arith.divf %in, %in_2 : f32
    %17 = arith.truncf %16 : f32 to f16
    linalg.yield %17 : f16
  } -> tensor<20x4096x64xf16>
  %15 = hal.tensor.export %14 "output0" : tensor<20x4096x64xf16> -> !hal.buffer_view
  util.return %15 : !hal.buffer_view
}

// -----// IR Dump After RaiseSpecialOpsPass (iree-global-opt-raise-special-ops) //----- //
util.func public @attention(%arg0: !hal.buffer_view, %arg1: !hal.buffer_view, %arg2: !hal.buffer_view) -> !hal.buffer_view attributes {iree.abi.stub, iree.reflection = {iree.abi.declaration = "sync func @attention(%input0: tensor<20x4096x64xf16>, %input1: tensor<20x4096x64xf16>, %input2: tensor<20x4096x64xf16>) -> (%output0: tensor<20x4096x64xf16>)"}} {
  %cst = arith.constant 1.250000e-01 : f32
  %cst_0 = arith.constant 0.000000e+00 : f32
  %cst_1 = arith.constant -3.40282347E+38 : f32
  %0 = hal.tensor.import %arg0 "input0" : !hal.buffer_view -> tensor<20x4096x64xf16>
  %1 = hal.tensor.import %arg1 "input1" : !hal.buffer_view -> tensor<20x4096x64xf16>
  %2 = hal.tensor.import %arg2 "input2" : !hal.buffer_view -> tensor<20x4096x64xf16>
  %3 = tensor.empty() : tensor<20x4096x4096xf32>
  %4 = linalg.fill ins(%cst_0 : f32) outs(%3 : tensor<20x4096x4096xf32>) -> tensor<20x4096x4096xf32>
  %5 = linalg.generic {indexing_maps = [affine_map<(d0, d1, d2, d3) -> (d0, d1, d3)>, affine_map<(d0, d1, d2, d3) -> (d0, d2, d3)>, affine_map<(d0, d1, d2, d3) -> (d0, d1, d2)>], iterator_types = ["parallel", "parallel", "parallel", "reduction"]} ins(%0, %1 : tensor<20x4096x64xf16>, tensor<20x4096x64xf16>) outs(%4 : tensor<20x4096x4096xf32>) {
  ^bb0(%in: f16, %in_2: f16, %out: f32):
    %16 = arith.extf %in : f16 to f32
    %17 = arith.extf %in_2 : f16 to f32
    %18 = arith.mulf %16, %17 : f32
    %19 = arith.addf %18, %out : f32
    linalg.yield %19 : f32
  } -> tensor<20x4096x4096xf32>
  %6 = linalg.generic {indexing_maps = [affine_map<(d0, d1, d2) -> (d0, d1, d2)>, affine_map<(d0, d1, d2) -> (d0, d1, d2)>], iterator_types = ["parallel", "parallel", "parallel"]} ins(%5 : tensor<20x4096x4096xf32>) outs(%3 : tensor<20x4096x4096xf32>) {
  ^bb0(%in: f32, %out: f32):
    %16 = arith.mulf %in, %cst : f32
    linalg.yield %16 : f32
  } -> tensor<20x4096x4096xf32>
  %7 = tensor.empty() : tensor<20x4096xf32>
  %8 = tensor.empty() : tensor<20x4096x64xf32>
  %9 = linalg.fill ins(%cst_1 : f32) outs(%7 : tensor<20x4096xf32>) -> tensor<20x4096xf32>
  %10 = linalg.fill ins(%cst_0 : f32) outs(%7 : tensor<20x4096xf32>) -> tensor<20x4096xf32>
  %11 = linalg.fill ins(%cst_0 : f32) outs(%8 : tensor<20x4096x64xf32>) -> tensor<20x4096x64xf32>
  %12:3 = iree_linalg_ext.exp_reduction{indexing_maps = [affine_map<(d0, d1, d2, d3) -> (d0, d1, d3)>, affine_map<(d0, d1, d2, d3) -> (d0, d3, d2)>, affine_map<(d0, d1, d2, d3) -> (d0, d1)>, affine_map<(d0, d1, d2, d3) -> (d0, d1)>, affine_map<(d0, d1, d2, d3) -> (d0, d1, d2)>], iterator_types = [#iree_linalg_ext.iterator_type<parallel>, #iree_linalg_ext.iterator_type<parallel>, #iree_linalg_ext.iterator_type<parallel>, #iree_linalg_ext.iterator_type<reduction>], exp_reduced_operands = [1, 2]} ins(%6, %2 : tensor<20x4096x4096xf32>, tensor<20x4096x64xf16>) outs(%9, %10, %11 : tensor<20x4096xf32>, tensor<20x4096xf32>, tensor<20x4096x64xf32>) {
  ^bb0(%arg3: f32, %arg4: f16, %arg5: f32, %arg6: f32, %arg7: f32):
    %16 = arith.addf %arg3, %arg6 : f32
    %17 = arith.truncf %arg3 : f32 to f16
    %18 = arith.extf %17 : f16 to f32
    %19 = arith.extf %arg4 : f16 to f32
    %20 = arith.mulf %18, %19 : f32
    %21 = arith.addf %20, %arg7 : f32
    iree_linalg_ext.yield %arg5, %16, %21 : f32, f32, f32
  } -> tensor<20x4096xf32>, tensor<20x4096xf32>, tensor<20x4096x64xf32>
  %13 = tensor.empty() : tensor<20x4096x64xf16>
  %14 = linalg.generic {indexing_maps = [affine_map<(d0, d1, d2) -> (d0, d1, d2)>, affine_map<(d0, d1, d2) -> (d0, d1)>, affine_map<(d0, d1, d2) -> (d0, d1, d2)>], iterator_types = ["parallel", "parallel", "parallel"]} ins(%12#2, %12#1 : tensor<20x4096x64xf32>, tensor<20x4096xf32>) outs(%13 : tensor<20x4096x64xf16>) {
  ^bb0(%in: f32, %in_2: f32, %out: f16):
    %16 = arith.divf %in, %in_2 : f32
    %17 = arith.truncf %16 : f32 to f16
    linalg.yield %17 : f16
  } -> tensor<20x4096x64xf16>
  %15 = hal.tensor.export %14 "output0" : tensor<20x4096x64xf16> -> !hal.buffer_view
  util.return %15 : !hal.buffer_view
}

// -----// IR Dump After DecomposeConcatPass (iree-global-opt-decompose-concat) //----- //
util.func public @attention(%arg0: !hal.buffer_view, %arg1: !hal.buffer_view, %arg2: !hal.buffer_view) -> !hal.buffer_view attributes {iree.abi.stub, iree.reflection = {iree.abi.declaration = "sync func @attention(%input0: tensor<20x4096x64xf16>, %input1: tensor<20x4096x64xf16>, %input2: tensor<20x4096x64xf16>) -> (%output0: tensor<20x4096x64xf16>)"}} {
  %cst = arith.constant 1.250000e-01 : f32
  %cst_0 = arith.constant 0.000000e+00 : f32
  %cst_1 = arith.constant -3.40282347E+38 : f32
  %0 = hal.tensor.import %arg0 "input0" : !hal.buffer_view -> tensor<20x4096x64xf16>
  %1 = hal.tensor.import %arg1 "input1" : !hal.buffer_view -> tensor<20x4096x64xf16>
  %2 = hal.tensor.import %arg2 "input2" : !hal.buffer_view -> tensor<20x4096x64xf16>
  %3 = tensor.empty() : tensor<20x4096x4096xf32>
  %4 = linalg.fill ins(%cst_0 : f32) outs(%3 : tensor<20x4096x4096xf32>) -> tensor<20x4096x4096xf32>
  %5 = linalg.generic {indexing_maps = [affine_map<(d0, d1, d2, d3) -> (d0, d1, d3)>, affine_map<(d0, d1, d2, d3) -> (d0, d2, d3)>, affine_map<(d0, d1, d2, d3) -> (d0, d1, d2)>], iterator_types = ["parallel", "parallel", "parallel", "reduction"]} ins(%0, %1 : tensor<20x4096x64xf16>, tensor<20x4096x64xf16>) outs(%4 : tensor<20x4096x4096xf32>) {
  ^bb0(%in: f16, %in_2: f16, %out: f32):
    %16 = arith.extf %in : f16 to f32
    %17 = arith.extf %in_2 : f16 to f32
    %18 = arith.mulf %16, %17 : f32
    %19 = arith.addf %18, %out : f32
    linalg.yield %19 : f32
  } -> tensor<20x4096x4096xf32>
  %6 = linalg.generic {indexing_maps = [affine_map<(d0, d1, d2) -> (d0, d1, d2)>, affine_map<(d0, d1, d2) -> (d0, d1, d2)>], iterator_types = ["parallel", "parallel", "parallel"]} ins(%5 : tensor<20x4096x4096xf32>) outs(%3 : tensor<20x4096x4096xf32>) {
  ^bb0(%in: f32, %out: f32):
    %16 = arith.mulf %in, %cst : f32
    linalg.yield %16 : f32
  } -> tensor<20x4096x4096xf32>
  %7 = tensor.empty() : tensor<20x4096xf32>
  %8 = tensor.empty() : tensor<20x4096x64xf32>
  %9 = linalg.fill ins(%cst_1 : f32) outs(%7 : tensor<20x4096xf32>) -> tensor<20x4096xf32>
  %10 = linalg.fill ins(%cst_0 : f32) outs(%7 : tensor<20x4096xf32>) -> tensor<20x4096xf32>
  %11 = linalg.fill ins(%cst_0 : f32) outs(%8 : tensor<20x4096x64xf32>) -> tensor<20x4096x64xf32>
  %12:3 = iree_linalg_ext.exp_reduction{indexing_maps = [affine_map<(d0, d1, d2, d3) -> (d0, d1, d3)>, affine_map<(d0, d1, d2, d3) -> (d0, d3, d2)>, affine_map<(d0, d1, d2, d3) -> (d0, d1)>, affine_map<(d0, d1, d2, d3) -> (d0, d1)>, affine_map<(d0, d1, d2, d3) -> (d0, d1, d2)>], iterator_types = [#iree_linalg_ext.iterator_type<parallel>, #iree_linalg_ext.iterator_type<parallel>, #iree_linalg_ext.iterator_type<parallel>, #iree_linalg_ext.iterator_type<reduction>], exp_reduced_operands = [1, 2]} ins(%6, %2 : tensor<20x4096x4096xf32>, tensor<20x4096x64xf16>) outs(%9, %10, %11 : tensor<20x4096xf32>, tensor<20x4096xf32>, tensor<20x4096x64xf32>) {
  ^bb0(%arg3: f32, %arg4: f16, %arg5: f32, %arg6: f32, %arg7: f32):
    %16 = arith.addf %arg3, %arg6 : f32
    %17 = arith.truncf %arg3 : f32 to f16
    %18 = arith.extf %17 : f16 to f32
    %19 = arith.extf %arg4 : f16 to f32
    %20 = arith.mulf %18, %19 : f32
    %21 = arith.addf %20, %arg7 : f32
    iree_linalg_ext.yield %arg5, %16, %21 : f32, f32, f32
  } -> tensor<20x4096xf32>, tensor<20x4096xf32>, tensor<20x4096x64xf32>
  %13 = tensor.empty() : tensor<20x4096x64xf16>
  %14 = linalg.generic {indexing_maps = [affine_map<(d0, d1, d2) -> (d0, d1, d2)>, affine_map<(d0, d1, d2) -> (d0, d1)>, affine_map<(d0, d1, d2) -> (d0, d1, d2)>], iterator_types = ["parallel", "parallel", "parallel"]} ins(%12#2, %12#1 : tensor<20x4096x64xf32>, tensor<20x4096xf32>) outs(%13 : tensor<20x4096x64xf16>) {
  ^bb0(%in: f32, %in_2: f32, %out: f16):
    %16 = arith.divf %in, %in_2 : f32
    %17 = arith.truncf %16 : f32 to f16
    linalg.yield %17 : f16
  } -> tensor<20x4096x64xf16>
  %15 = hal.tensor.export %14 "output0" : tensor<20x4096x64xf16> -> !hal.buffer_view
  util.return %15 : !hal.buffer_view
}

// -----// IR Dump After GeneralizeLinalgNamedOpsPass (iree-global-opt-generalize-linalg-named-ops) //----- //
util.func public @attention(%arg0: !hal.buffer_view, %arg1: !hal.buffer_view, %arg2: !hal.buffer_view) -> !hal.buffer_view attributes {iree.abi.stub, iree.reflection = {iree.abi.declaration = "sync func @attention(%input0: tensor<20x4096x64xf16>, %input1: tensor<20x4096x64xf16>, %input2: tensor<20x4096x64xf16>) -> (%output0: tensor<20x4096x64xf16>)"}} {
  %cst = arith.constant 1.250000e-01 : f32
  %cst_0 = arith.constant 0.000000e+00 : f32
  %cst_1 = arith.constant -3.40282347E+38 : f32
  %0 = hal.tensor.import %arg0 "input0" : !hal.buffer_view -> tensor<20x4096x64xf16>
  %1 = hal.tensor.import %arg1 "input1" : !hal.buffer_view -> tensor<20x4096x64xf16>
  %2 = hal.tensor.import %arg2 "input2" : !hal.buffer_view -> tensor<20x4096x64xf16>
  %3 = tensor.empty() : tensor<20x4096x4096xf32>
  %4 = linalg.fill ins(%cst_0 : f32) outs(%3 : tensor<20x4096x4096xf32>) -> tensor<20x4096x4096xf32>
  %5 = linalg.generic {indexing_maps = [affine_map<(d0, d1, d2, d3) -> (d0, d1, d3)>, affine_map<(d0, d1, d2, d3) -> (d0, d2, d3)>, affine_map<(d0, d1, d2, d3) -> (d0, d1, d2)>], iterator_types = ["parallel", "parallel", "parallel", "reduction"]} ins(%0, %1 : tensor<20x4096x64xf16>, tensor<20x4096x64xf16>) outs(%4 : tensor<20x4096x4096xf32>) {
  ^bb0(%in: f16, %in_2: f16, %out: f32):
    %16 = arith.extf %in : f16 to f32
    %17 = arith.extf %in_2 : f16 to f32
    %18 = arith.mulf %16, %17 : f32
    %19 = arith.addf %18, %out : f32
    linalg.yield %19 : f32
  } -> tensor<20x4096x4096xf32>
  %6 = linalg.generic {indexing_maps = [affine_map<(d0, d1, d2) -> (d0, d1, d2)>, affine_map<(d0, d1, d2) -> (d0, d1, d2)>], iterator_types = ["parallel", "parallel", "parallel"]} ins(%5 : tensor<20x4096x4096xf32>) outs(%3 : tensor<20x4096x4096xf32>) {
  ^bb0(%in: f32, %out: f32):
    %16 = arith.mulf %in, %cst : f32
    linalg.yield %16 : f32
  } -> tensor<20x4096x4096xf32>
  %7 = tensor.empty() : tensor<20x4096xf32>
  %8 = tensor.empty() : tensor<20x4096x64xf32>
  %9 = linalg.fill ins(%cst_1 : f32) outs(%7 : tensor<20x4096xf32>) -> tensor<20x4096xf32>
  %10 = linalg.fill ins(%cst_0 : f32) outs(%7 : tensor<20x4096xf32>) -> tensor<20x4096xf32>
  %11 = linalg.fill ins(%cst_0 : f32) outs(%8 : tensor<20x4096x64xf32>) -> tensor<20x4096x64xf32>
  %12:3 = iree_linalg_ext.exp_reduction{indexing_maps = [affine_map<(d0, d1, d2, d3) -> (d0, d1, d3)>, affine_map<(d0, d1, d2, d3) -> (d0, d3, d2)>, affine_map<(d0, d1, d2, d3) -> (d0, d1)>, affine_map<(d0, d1, d2, d3) -> (d0, d1)>, affine_map<(d0, d1, d2, d3) -> (d0, d1, d2)>], iterator_types = [#iree_linalg_ext.iterator_type<parallel>, #iree_linalg_ext.iterator_type<parallel>, #iree_linalg_ext.iterator_type<parallel>, #iree_linalg_ext.iterator_type<reduction>], exp_reduced_operands = [1, 2]} ins(%6, %2 : tensor<20x4096x4096xf32>, tensor<20x4096x64xf16>) outs(%9, %10, %11 : tensor<20x4096xf32>, tensor<20x4096xf32>, tensor<20x4096x64xf32>) {
  ^bb0(%arg3: f32, %arg4: f16, %arg5: f32, %arg6: f32, %arg7: f32):
    %16 = arith.addf %arg3, %arg6 : f32
    %17 = arith.truncf %arg3 : f32 to f16
    %18 = arith.extf %17 : f16 to f32
    %19 = arith.extf %arg4 : f16 to f32
    %20 = arith.mulf %18, %19 : f32
    %21 = arith.addf %20, %arg7 : f32
    iree_linalg_ext.yield %arg5, %16, %21 : f32, f32, f32
  } -> tensor<20x4096xf32>, tensor<20x4096xf32>, tensor<20x4096x64xf32>
  %13 = tensor.empty() : tensor<20x4096x64xf16>
  %14 = linalg.generic {indexing_maps = [affine_map<(d0, d1, d2) -> (d0, d1, d2)>, affine_map<(d0, d1, d2) -> (d0, d1)>, affine_map<(d0, d1, d2) -> (d0, d1, d2)>], iterator_types = ["parallel", "parallel", "parallel"]} ins(%12#2, %12#1 : tensor<20x4096x64xf32>, tensor<20x4096xf32>) outs(%13 : tensor<20x4096x64xf16>) {
  ^bb0(%in: f32, %in_2: f32, %out: f16):
    %16 = arith.divf %in, %in_2 : f32
    %17 = arith.truncf %16 : f32 to f16
    linalg.yield %17 : f16
  } -> tensor<20x4096x64xf16>
  %15 = hal.tensor.export %14 "output0" : tensor<20x4096x64xf16> -> !hal.buffer_view
  util.return %15 : !hal.buffer_view
}

// -----// IR Dump After InsertTensorBarriersPass (iree-dispatch-creation-insert-tensor-barriers) //----- //
util.func public @attention(%arg0: !hal.buffer_view, %arg1: !hal.buffer_view, %arg2: !hal.buffer_view) -> !hal.buffer_view attributes {iree.abi.stub, iree.reflection = {iree.abi.declaration = "sync func @attention(%input0: tensor<20x4096x64xf16>, %input1: tensor<20x4096x64xf16>, %input2: tensor<20x4096x64xf16>) -> (%output0: tensor<20x4096x64xf16>)"}} {
  %cst = arith.constant 1.250000e-01 : f32
  %cst_0 = arith.constant 0.000000e+00 : f32
  %cst_1 = arith.constant -3.40282347E+38 : f32
  %0 = hal.tensor.import %arg0 "input0" : !hal.buffer_view -> tensor<20x4096x64xf16>
  %1 = iree_tensor_ext.compute_barrier.start %0 : tensor<20x4096x64xf16> -> tensor<20x4096x64xf16>
  %2 = hal.tensor.import %arg1 "input1" : !hal.buffer_view -> tensor<20x4096x64xf16>
  %3 = iree_tensor_ext.compute_barrier.start %2 : tensor<20x4096x64xf16> -> tensor<20x4096x64xf16>
  %4 = hal.tensor.import %arg2 "input2" : !hal.buffer_view -> tensor<20x4096x64xf16>
  %5 = iree_tensor_ext.compute_barrier.start %4 : tensor<20x4096x64xf16> -> tensor<20x4096x64xf16>
  %6 = tensor.empty() : tensor<20x4096x4096xf32>
  %7 = linalg.fill ins(%cst_0 : f32) outs(%6 : tensor<20x4096x4096xf32>) -> tensor<20x4096x4096xf32>
  %8 = linalg.generic {indexing_maps = [affine_map<(d0, d1, d2, d3) -> (d0, d1, d3)>, affine_map<(d0, d1, d2, d3) -> (d0, d2, d3)>, affine_map<(d0, d1, d2, d3) -> (d0, d1, d2)>], iterator_types = ["parallel", "parallel", "parallel", "reduction"]} ins(%1, %3 : tensor<20x4096x64xf16>, tensor<20x4096x64xf16>) outs(%7 : tensor<20x4096x4096xf32>) {
  ^bb0(%in: f16, %in_2: f16, %out: f32):
    %20 = arith.extf %in : f16 to f32
    %21 = arith.extf %in_2 : f16 to f32
    %22 = arith.mulf %20, %21 : f32
    %23 = arith.addf %22, %out : f32
    linalg.yield %23 : f32
  } -> tensor<20x4096x4096xf32>
  %9 = linalg.generic {indexing_maps = [affine_map<(d0, d1, d2) -> (d0, d1, d2)>, affine_map<(d0, d1, d2) -> (d0, d1, d2)>], iterator_types = ["parallel", "parallel", "parallel"]} ins(%8 : tensor<20x4096x4096xf32>) outs(%6 : tensor<20x4096x4096xf32>) {
  ^bb0(%in: f32, %out: f32):
    %20 = arith.mulf %in, %cst : f32
    linalg.yield %20 : f32
  } -> tensor<20x4096x4096xf32>
  %10 = tensor.empty() : tensor<20x4096xf32>
  %11 = tensor.empty() : tensor<20x4096x64xf32>
  %12 = linalg.fill ins(%cst_1 : f32) outs(%10 : tensor<20x4096xf32>) -> tensor<20x4096xf32>
  %13 = linalg.fill ins(%cst_0 : f32) outs(%10 : tensor<20x4096xf32>) -> tensor<20x4096xf32>
  %14 = linalg.fill ins(%cst_0 : f32) outs(%11 : tensor<20x4096x64xf32>) -> tensor<20x4096x64xf32>
  %15:3 = iree_linalg_ext.exp_reduction{indexing_maps = [affine_map<(d0, d1, d2, d3) -> (d0, d1, d3)>, affine_map<(d0, d1, d2, d3) -> (d0, d3, d2)>, affine_map<(d0, d1, d2, d3) -> (d0, d1)>, affine_map<(d0, d1, d2, d3) -> (d0, d1)>, affine_map<(d0, d1, d2, d3) -> (d0, d1, d2)>], iterator_types = [#iree_linalg_ext.iterator_type<parallel>, #iree_linalg_ext.iterator_type<parallel>, #iree_linalg_ext.iterator_type<parallel>, #iree_linalg_ext.iterator_type<reduction>], exp_reduced_operands = [1, 2]} ins(%9, %5 : tensor<20x4096x4096xf32>, tensor<20x4096x64xf16>) outs(%12, %13, %14 : tensor<20x4096xf32>, tensor<20x4096xf32>, tensor<20x4096x64xf32>) {
  ^bb0(%arg3: f32, %arg4: f16, %arg5: f32, %arg6: f32, %arg7: f32):
    %20 = arith.addf %arg3, %arg6 : f32
    %21 = arith.truncf %arg3 : f32 to f16
    %22 = arith.extf %21 : f16 to f32
    %23 = arith.extf %arg4 : f16 to f32
    %24 = arith.mulf %22, %23 : f32
    %25 = arith.addf %24, %arg7 : f32
    iree_linalg_ext.yield %arg5, %20, %25 : f32, f32, f32
  } -> tensor<20x4096xf32>, tensor<20x4096xf32>, tensor<20x4096x64xf32>
  %16 = tensor.empty() : tensor<20x4096x64xf16>
  %17 = linalg.generic {indexing_maps = [affine_map<(d0, d1, d2) -> (d0, d1, d2)>, affine_map<(d0, d1, d2) -> (d0, d1)>, affine_map<(d0, d1, d2) -> (d0, d1, d2)>], iterator_types = ["parallel", "parallel", "parallel"]} ins(%15#2, %15#1 : tensor<20x4096x64xf32>, tensor<20x4096xf32>) outs(%16 : tensor<20x4096x64xf16>) {
  ^bb0(%in: f32, %in_2: f32, %out: f16):
    %20 = arith.divf %in, %in_2 : f32
    %21 = arith.truncf %20 : f32 to f16
    linalg.yield %21 : f16
  } -> tensor<20x4096x64xf16>
  %18 = iree_tensor_ext.compute_barrier.end %17 : tensor<20x4096x64xf16> -> tensor<20x4096x64xf16>
  %19 = hal.tensor.export %18 "output0" : tensor<20x4096x64xf16> -> !hal.buffer_view
  util.return %19 : !hal.buffer_view
}

// -----// IR Dump After FoldUnitExtentDimsPass (iree-dispatch-creation-fold-unit-extent-dims) //----- //
#executable_target_embedded_elf_x86_64 = #hal.executable.target<"llvm-cpu", "embedded-elf-x86_64", {cpu = "", cpu_features = "", data_layout = "e-m:e-p270:32:32-p271:32:32-p272:64:64-i64:64-i128:128-f80:128-n8:16:32:64-S128", iree.encoding.resolver = #iree_cpu.cpu_encoding_resolver<>, max_stack_allocation_size = 32768 : i64, native_vector_size = 16 : i64, target_triple = "x86_64-unknown-unknown-eabi-elf"}>
#map = affine_map<(d0, d1, d2, d3) -> (d0, d1, d3)>
…
      %25 = llvm.extractvalue %24[10] : !llvm.struct<"iree_hal_executable_dispatch_state_v0_t", (i32, i32, i16, i16, i32, i32, i16, i8, i8, ptr, ptr, ptr)>
      %26 = llvm.getelementptr %25[1] : (!llvm.ptr) -> !llvm.ptr, !llvm.ptr
      %27 = llvm.load %26 : !llvm.ptr -> !llvm.ptr
      llvm.intr.assume %3 ["align"(%27, %8 : !llvm.ptr, i64)] : i1
      %28 = llvm.load %arg2 : !llvm.ptr -> !llvm.struct<"iree_hal_executable_workgroup_state_v0_t", (i32, i32, i16, i16, i32, ptr, i32)>
      %29 = llvm.extractvalue %28[0] : !llvm.struct<"iree_hal_executable_workgroup_state_v0_t", (i32, i32, i16, i16, i32, ptr, i32)>
      %30 = llvm.zext %29 : i32 to i64
      %31 = llvm.mul %30, %8 overflow<nsw> : i64
      llvm.br ^bb1(%11 : i64)
    ^bb1(%32: i64):  // 2 preds: ^bb0, ^bb5
      %33 = llvm.icmp "slt" %32, %8 : i64
      llvm.cond_br %33, ^bb2, ^bb6
    ^bb2:  // pred: ^bb1
      %34 = llvm.add %32, %31 : i64
      %35 = llvm.getelementptr %23[%34] : (!llvm.ptr, i64) -> !llvm.ptr, f32
      %36 = llvm.load %35 {alignment = 4 : i64} : !llvm.ptr -> vector<1xf32>
      llvm.br ^bb3(%11 : i64)
    ^bb3(%37: i64):  // 2 preds: ^bb2, ^bb4
      %38 = llvm.icmp "slt" %37, %8 : i64
      llvm.cond_br %38, ^bb4, ^bb5
    ^bb4:  // pred: ^bb3
      %39 = llvm.mul %34, %8 : i64
      %40 = llvm.add %39, %37 : i64
      %41 = llvm.getelementptr %17[%40] : (!llvm.ptr, i64) -> !llvm.ptr, f32
      %42 = llvm.load %41 {alignment = 4 : i64} : !llvm.ptr -> vector<4xf32>
      %43 = llvm.extractelement %36[%2 : i64] : vector<1xf32>
      %44 = llvm.insertelement %43, %1[%0 : i32] : vector<4xf32>
      %45 = llvm.shufflevector %44, %1 [0, 0, 0, 0] : vector<4xf32>
      %46 = llvm.fdiv %42, %45 : vector<4xf32>
      %47 = llvm.fptrunc %46 : vector<4xf32> to vector<4xf16>
      %48 = llvm.getelementptr %27[%40] : (!llvm.ptr, i64) -> !llvm.ptr, f16
      llvm.store %47, %48 {alignment = 2 : i64} : vector<4xf16>, !llvm.ptr
      %49 = llvm.add %37, %6 : i64
      llvm.br ^bb3(%49 : i64)
    ^bb5:  // pred: ^bb3
      %50 = llvm.add %32, %7 : i64
      llvm.br ^bb1(%50 : i64)
    ^bb6:  // pred: ^bb1
      llvm.return %0 : i32
    }
  }
}

// -----// IR Dump After CSE (cse) //----- //
module attributes {llvm.data_layout = "e-m:e-p270:32:32-p271:32:32-p272:64:64-i64:64-i128:128-f80:128-n8:16:32:64-S128", llvm.target_triple = "x86_64-unknown-unknown-eabi-elf"} {
  llvm.func @attention_dispatch_0_matmul_like_20x4096x4096x64_f16xf16xf32(%arg0: !llvm.ptr {llvm.align = 16 : i64, llvm.noalias, llvm.nonnull, llvm.noundef}, %arg1: !llvm.ptr {llvm.align = 16 : i64, llvm.noalias, llvm.nonnull, llvm.noundef}, %arg2: !llvm.ptr {llvm.align = 16 : i64, llvm.noalias, llvm.nonnull, llvm.noundef}) -> i32 {
    %0 = llvm.mlir.constant(0 : i32) : i32
    %1 = llvm.mlir.poison : vector<1xf32>
    %2 = llvm.mlir.constant(3 : i64) : i64
    %3 = llvm.mlir.constant(2 : i64) : i64
    %4 = llvm.mlir.constant(1 : i64) : i64
    %5 = llvm.mlir.constant(0 : i64) : i64
    %6 = llvm.mlir.constant(16777216 : index) : i64
    %7 = llvm.mlir.constant(true) : i1
    %8 = llvm.mlir.constant(262144 : index) : i64
    %9 = llvm.mlir.constant(1.250000e-01 : f32) : f32
    %10 = llvm.mlir.constant(-1 : index) : i64
    %11 = llvm.mlir.constant(4096 : index) : i64
    %12 = llvm.mlir.constant(dense<0.000000e+00> : vector<1xf32>) : vector<1xf32>
    %13 = llvm.mlir.constant(1 : index) : i64
    %14 = llvm.mlir.constant(4 : index) : i64
    %15 = llvm.mlir.constant(64 : index) : i64
    %16 = llvm.mlir.constant(0 : index) : i64
    %17 = llvm.load %arg1 : !llvm.ptr -> !llvm.struct<"iree_hal_executable_dispatch_state_v0_t", (i32, i32, i16, i16, i32, i32, i16, i8, i8, ptr, ptr, ptr)>
    %18 = llvm.extractvalue %17[10] : !llvm.struct<"iree_hal_executable_dispatch_state_v0_t", (i32, i32, i16, i16, i32, i32, i16, i8, i8, ptr, ptr, ptr)>
    %19 = llvm.load %18 : !llvm.ptr -> !llvm.ptr
    llvm.intr.assume %7 ["align"(%19, %15 : !llvm.ptr, i64)] : i1
    %20 = llvm.load %arg1 : !llvm.ptr -> !llvm.struct<"iree_hal_executable_dispatch_state_v0_t", (i32, i32, i16, i16, i32, i32, i16, i8, i8, ptr, ptr, ptr)>
    %21 = llvm.extractvalue %20[10] : !llvm.struct<"iree_hal_executable_dispatch_state_v0_t", (i32, i32, i16, i16, i32, i32, i16, i8, i8, ptr, ptr, ptr)>
    %22 = llvm.getelementptr %21[1] : (!llvm.ptr) -> !llvm.ptr, !llvm.ptr
    %23 = llvm.load %22 : !llvm.ptr -> !llvm.ptr
    llvm.intr.assume %7 ["align"(%23, %15 : !llvm.ptr, i64)] : i1
    %24 = llvm.load %arg1 : !llvm.ptr -> !llvm.struct<"iree_hal_executable_dispatch_state_v0_t", (i32, i32, i16, i16, i32, i32, i16, i8, i8, ptr, ptr, ptr)>
    %25 = llvm.extractvalue %24[10] : !llvm.struct<"iree_hal_executable_dispatch_state_v0_t", (i32, i32, i16, i16, i32, i32, i16, i8, i8, ptr, ptr, ptr)>
    %26 = llvm.getelementptr %25[2] : (!llvm.ptr) -> !llvm.ptr, !llvm.ptr
    %27 = llvm.load %26 : !llvm.ptr -> !llvm.ptr
    llvm.intr.assume %7 ["align"(%27, %15 : !llvm.ptr, i64)] : i1
    %28 = llvm.load %arg2 : !llvm.ptr -> !llvm.struct<"iree_hal_executable_workgroup_state_v0_t", (i32, i32, i16, i16, i32, ptr, i32)>
    %29 = llvm.extractvalue %28[0] : !llvm.struct<"iree_hal_executable_workgroup_state_v0_t", (i32, i32, i16, i16, i32, ptr, i32)>
    %30 = llvm.zext %29 : i32 to i64
    %31 = llvm.sdiv %30, %11 : i64
    %32 = llvm.mul %31, %11 : i64
    %33 = llvm.icmp "ne" %30, %32 : i64
    %34 = llvm.icmp "slt" %30, %16 : i64
    %35 = llvm.and %33, %34 : i1
    %36 = llvm.add %31, %10 : i64
    %37 = llvm.select %35, %36, %31 : i1, i64
    %38 = llvm.srem %30, %11 : i64
    %39 = llvm.icmp "slt" %38, %16 : i64
    %40 = llvm.add %38, %11 overflow<nsw> : i64
    %41 = llvm.select %39, %40, %38 : i1, i64
    %42 = llvm.sdiv %41, %15 : i64
    %43 = llvm.srem %30, %15 : i64
    %44 = llvm.icmp "slt" %43, %16 : i64
    %45 = llvm.add %43, %15 overflow<nsw> : i64
    %46 = llvm.select %44, %45, %43 : i1, i64
    %47 = llvm.mul %37, %14 overflow<nsw> : i64
    %48 = llvm.mul %42, %15 overflow<nsw> : i64
    %49 = llvm.mul %46, %15 overflow<nsw> : i64
    llvm.br ^bb1(%16 : i64)
  ^bb1(%50: i64):  // 2 preds: ^bb0, ^bb11
    %51 = llvm.icmp "slt" %50, %14 : i64
    llvm.cond_br %51, ^bb2, ^bb12
  ^bb2:  // pred: ^bb1
    %52 = llvm.add %50, %47 : i64
    llvm.br ^bb3(%16 : i64)
  ^bb3(%53: i64):  // 2 preds: ^bb2, ^bb10
    %54 = llvm.icmp "slt" %53, %15 : i64
    llvm.cond_br %54, ^bb4, ^bb11
  ^bb4:  // pred: ^bb3
    %55 = llvm.add %53, %48 : i64
    llvm.br ^bb5(%16 : i64)
  ^bb5(%56: i64):  // 2 preds: ^bb4, ^bb9
    %57 = llvm.icmp "slt" %56, %15 : i64
    llvm.cond_br %57, ^bb6, ^bb10
  ^bb6:  // pred: ^bb5
    %58 = llvm.add %56, %49 : i64
    llvm.br ^bb7(%16, %12 : i64, vector<1xf32>)
  ^bb7(%59: i64, %60: vector<1xf32>):  // 2 preds: ^bb6, ^bb8
    %61 = llvm.icmp "slt" %59, %15 : i64
    llvm.cond_br %61, ^bb8, ^bb9
  ^bb8:  // pred: ^bb7
    %62 = llvm.mul %52, %8 : i64
    %63 = llvm.mul %55, %15 : i64
    %64 = llvm.add %62, %63 : i64
    %65 = llvm.add %64, %59 : i64
    %66 = llvm.getelementptr %19[%65] : (!llvm.ptr, i64) -> !llvm.ptr, f16
    %67 = llvm.load %66 {alignment = 2 : i64} : !llvm.ptr -> vector<4xf16>
    %68 = llvm.mul %58, %15 : i64
    %69 = llvm.add %62, %68 : i64
    %70 = llvm.add %69, %59 : i64
    %71 = llvm.getelementptr %23[%70] : (!llvm.ptr, i64) -> !llvm.ptr, f16
    %72 = llvm.load %71 {alignment = 2 : i64} : !llvm.ptr -> vector<4xf16>
    %73 = llvm.fpext %67 : vector<4xf16> to vector<4xf32>
    %74 = llvm.fpext %72 : vector<4xf16> to vector<4xf32>
    %75 = llvm.extractelement %74[%5 : i64] : vector<4xf32>
    %76 = llvm.insertelement %75, %1[%5 : i64] : vector<1xf32>
    %77 = llvm.extractelement %74[%4 : i64] : vector<4xf32>
    %78 = llvm.insertelement %77, %1[%5 : i64] : vector<1xf32>
    %79 = llvm.extractelement %74[%3 : i64] : vector<4xf32>
    %80 = llvm.insertelement %79, %1[%5 : i64] : vector<1xf32>
    %81 = llvm.extractelement %74[%2 : i64] : vector<4xf32>
    %82 = llvm.insertelement %81, %1[%5 : i64] : vector<1xf32>
    %83 = llvm.extractelement %73[%5 : i64] : vector<4xf32>
    %84 = llvm.insertelement %83, %1[%0 : i32] : vector<1xf32>
    %85 = llvm.intr.fmuladd(%76, %84, %60) : (vector<1xf32>, vector<1xf32>, vector<1xf32>) -> vector<1xf32>
    %86 = llvm.extractelement %73[%4 : i64] : vector<4xf32>
    %87 = llvm.insertelement %86, %1[%0 : i32] : vector<1xf32>
    %88 = llvm.intr.fmuladd(%78, %87, %85) : (vector<1xf32>, vector<1xf32>, vector<1xf32>) -> vector<1xf32>
    %89 = llvm.extractelement %73[%3 : i64] : vector<4xf32>
    %90 = llvm.insertelement %89, %1[%0 : i32] : vector<1xf32>
    %91 = llvm.intr.fmuladd(%80, %90, %88) : (vector<1xf32>, vector<1xf32>, vector<1xf32>) -> vector<1xf32>
    %92 = llvm.extractelement %73[%2 : i64] : vector<4xf32>
    %93 = llvm.insertelement %92, %1[%0 : i32] : vector<1xf32>
    %94 = llvm.intr.fmuladd(%82, %93, %91) : (vector<1xf32>, vector<1xf32>, vector<1xf32>) -> vector<1xf32>
    %95 = llvm.add %59, %14 : i64
    llvm.br ^bb7(%95, %94 : i64, vector<1xf32>)
  ^bb9:  // pred: ^bb7
    %96 = llvm.extractelement %60[%5 : i64] : vector<1xf32>
    %97 = llvm.fmul %96, %9 : f32
    %98 = llvm.mul %52, %6 overflow<nsw, nuw> : i64
    %99 = llvm.mul %55, %11 overflow<nsw, nuw> : i64
    %100 = llvm.add %98, %99 overflow<nsw, nuw> : i64
    %101 = llvm.add %100, %58 overflow<nsw, nuw> : i64
    %102 = llvm.getelementptr inbounds|nuw %27[%101] : (!llvm.ptr, i64) -> !llvm.ptr, f32
    llvm.store %97, %102 : f32, !llvm.ptr
    %103 = llvm.add %56, %13 : i64
    llvm.br ^bb5(%103 : i64)
  ^bb10:  // pred: ^bb5
    %104 = llvm.add %53, %13 : i64
    llvm.br ^bb3(%104 : i64)
  ^bb11:  // pred: ^bb3
    %105 = llvm.add %50, %13 : i64
    llvm.br ^bb1(%105 : i64)
  ^bb12:  // pred: ^bb1
    llvm.return %0 : i32
  }
}

// -----// IR Dump After TranslateAllExecutablesPass (iree-hal-translate-all-executables) //----- //
hal.executable private @attention_dispatch_2 {
  hal.executable.variant public @embedded_elf_x86_64 target(<"llvm-cpu", "embedded-elf-x86_64", {cpu = "", cpu_features = "", data_layout = "e-m:e-p270:32:32-p271:32:32-p272:64:64-i64:64-i128:128-f80:128-n8:16:32:64-S128", iree.encoding.resolver = #iree_cpu.cpu_encoding_resolver<>, max_stack_allocation_size = 32768 : i64, native_vector_size = 16 : i64, target_triple = "x86_64-unknown-unknown-eabi-elf"}>) {
    hal.executable.export public @attention_dispatch_2_elementwise_81920x64_f32xf32xf16 ordinal(0) layout(#hal.pipeline.layout<bindings = [#hal.pipeline.binding<storage_buffer, "ReadOnly|Indirect">, #hal.pipeline.binding<storage_buffer, Indirect>], flags = Indirect>) count(%arg0: !hal.device) -> (index, index, index) {
      %c1280 = arith.constant 1280 : index
      %c1 = arith.constant 1 : index
      %c1_0 = arith.constant 1 : index
      hal.return %c1280, %c1, %c1_0 : index, index, index
    } attributes {workgroup_size = [1 : index, 1 : index, 1 : index]}
    builtin.module attributes {llvm.data_layout = "e-m:e-p270:32:32-p271:32:32-p272:64:64-i64:64-i128:128-f80:128-n8:16:32:64-S128", llvm.target_triple = "x86_64-unknown-unknown-eabi-elf"} {
      llvm.func @attention_dispatch_2_elementwise_81920x64_f32xf32xf16(%arg0: !llvm.ptr {llvm.align = 16 : i64, llvm.noalias, llvm.nonnull, llvm.noundef}, %arg1: !llvm.ptr {llvm.align = 16 : i64, llvm.noalias, llvm.nonnull, llvm.noundef}, %arg2: !llvm.ptr {llvm.align = 16 : i64, llvm.noalias, llvm.nonnull, llvm.noundef}) -> i32 {
        %0 = llvm.mlir.constant(0 : i32) : i32
        %1 = llvm.mlir.poison : vector<4xf32>
        %2 = llvm.mlir.constant(0 : i64) : i64
        %3 = llvm.mlir.constant(true) : i1
        %4 = llvm.mlir.constant(8 : i64) : i64
        %5 = llvm.mlir.constant(32 : i64) : i64
        %6 = llvm.mlir.constant(4 : index) : i64
        %7 = llvm.mlir.constant(1 : index) : i64
        %8 = llvm.mlir.constant(64 : index) : i64
        %9 = llvm.mlir.constant(1342504960 : index) : i64
        %10 = llvm.mlir.constant(1342177280 : index) : i64
        %11 = llvm.mlir.constant(0 : index) : i64
        %12 = llvm.load %arg1 : !llvm.ptr -> !llvm.struct<"iree_hal_executable_dispatch_state_v0_t", (i32, i32, i16, i16, i32, i32, i16, i8, i8, ptr, ptr, ptr)>
        %13 = llvm.extractvalue %12[10] : !llvm.struct<"iree_hal_executable_dispatch_state_v0_t", (i32, i32, i16, i16, i32, i32, i16, i8, i8, ptr, ptr, ptr)>
        %14 = llvm.load %13 : !llvm.ptr -> !llvm.ptr
        %15 = llvm.mul %9, %4 : i64
        %16 = llvm.udiv %15, %5 : i64
        %17 = llvm.getelementptr %14[%16] : (!llvm.ptr, i64) -> !llvm.ptr, f32
        llvm.intr.assume %3 ["align"(%17, %8 : !llvm.ptr, i64)] : i1
        %18 = llvm.load %arg1 : !llvm.ptr -> !llvm.struct<"iree_hal_executable_dispatch_state_v0_t", (i32, i32, i16, i16, i32, i32, i16, i8, i8, ptr, ptr, ptr)>
        %19 = llvm.extractvalue %18[10] : !llvm.struct<"iree_hal_executable_dispatch_state_v0_t", (i32, i32, i16, i16, i32, i32, i16, i8, i8, ptr, ptr, ptr)>
        %20 = llvm.load %19 : !llvm.ptr -> !llvm.ptr
        %21 = llvm.mul %10, %4 : i64
        %22 = llvm.udiv %21, %5 : i64
        %23 = llvm.getelementptr %20[%22] : (!llvm.ptr, i64) -> !llvm.ptr, f32
        llvm.intr.assume %3 ["align"(%23, %8 : !llvm.ptr, i64)] : i1
        %24 = llvm.load %arg1 : !llvm.ptr -> !llvm.struct<"iree_hal_executable_dispatch_state_v0_t", (i32, i32, i16, i16, i32, i32, i16, i8, i8, ptr, ptr, ptr)>
        %25 = llvm.extractvalue %24[10] : !llvm.struct<"iree_hal_executable_dispatch_state_v0_t", (i32, i32, i16, i16, i32, i32, i16, i8, i8, ptr, ptr, ptr)>
        %26 = llvm.getelementptr %25[1] : (!llvm.ptr) -> !llvm.ptr, !llvm.ptr
        %27 = llvm.load %26 : !llvm.ptr -> !llvm.ptr
        llvm.intr.assume %3 ["align"(%27, %8 : !llvm.ptr, i64)] : i1
        %28 = llvm.load %arg2 : !llvm.ptr -> !llvm.struct<"iree_hal_executable_workgroup_state_v0_t", (i32, i32, i16, i16, i32, ptr, i32)>
        %29 = llvm.extractvalue %28[0] : !llvm.struct<"iree_hal_executable_workgroup_state_v0_t", (i32, i32, i16, i16, i32, ptr, i32)>
        %30 = llvm.zext %29 : i32 to i64
        %31 = llvm.mul %30, %8 overflow<nsw> : i64
        llvm.br ^bb1(%11 : i64)
      ^bb1(%32: i64):  // 2 preds: ^bb0, ^bb5
        %33 = llvm.icmp "slt" %32, %8 : i64
        llvm.cond_br %33, ^bb2, ^bb6
      ^bb2:  // pred: ^bb1
        %34 = llvm.add %32, %31 : i64
        %35 = llvm.getelementptr %23[%34] : (!llvm.ptr, i64) -> !llvm.ptr, f32
        %36 = llvm.load %35 {alignment = 4 : i64} : !llvm.ptr -> vector<1xf32>
        llvm.br ^bb3(%11 : i64)
      ^bb3(%37: i64):  // 2 preds: ^bb2, ^bb4
        %38 = llvm.icmp "slt" %37, %8 : i64
        llvm.cond_br %38, ^bb4, ^bb5
      ^bb4:  // pred: ^bb3
        %39 = llvm.mul %34, %8 : i64
        %40 = llvm.add %39, %37 : i64
        %41 = llvm.getelementptr %17[%40] : (!llvm.ptr, i64) -> !llvm.ptr, f32
        %42 = llvm.load %41 {alignment = 4 : i64} : !llvm.ptr -> vector<4xf32>
        %43 = llvm.extractelement %36[%2 : i64] : vector<1xf32>
        %44 = llvm.insertelement %43, %1[%0 : i32] : vector<4xf32>
        %45 = llvm.shufflevector %44, %1 [0, 0, 0, 0] : vector<4xf32>
        %46 = llvm.fdiv %42, %45 : vector<4xf32>
        %47 = llvm.fptrunc %46 : vector<4xf32> to vector<4xf16>
        %48 = llvm.getelementptr %27[%40] : (!llvm.ptr, i64) -> !llvm.ptr, f16
        llvm.store %47, %48 {alignment = 2 : i64} : vector<4xf16>, !llvm.ptr
        %49 = llvm.add %37, %6 : i64
        llvm.br ^bb3(%49 : i64)
      ^bb5:  // pred: ^bb3
        %50 = llvm.add %32, %7 : i64
        llvm.br ^bb1(%50 : i64)
      ^bb6:  // pred: ^bb1
        llvm.return %0 : i32
      }
    }
  }
}

// -----// IR Dump After AddFastMathFlagsPass (iree-codegen-add-fast-math-flags) //----- //
llvm.func @attention_dispatch_0_matmul_like_20x4096x4096x64_f16xf16xf32(%arg0: !llvm.ptr {llvm.align = 16 : i64, llvm.noalias, llvm.nonnull, llvm.noundef}, %arg1: !llvm.ptr {llvm.align = 16 : i64, llvm.noalias, llvm.nonnull, llvm.noundef}, %arg2: !llvm.ptr {llvm.align = 16 : i64, llvm.noalias, llvm.nonnull, llvm.noundef}) -> i32 {
  %0 = llvm.mlir.constant(0 : i32) : i32
  %1 = llvm.mlir.poison : vector<1xf32>
  %2 = llvm.mlir.constant(3 : i64) : i64
  %3 = llvm.mlir.constant(2 : i64) : i64
  %4 = llvm.mlir.constant(1 : i64) : i64
  %5 = llvm.mlir.constant(0 : i64) : i64
  %6 = llvm.mlir.constant(16777216 : index) : i64
  %7 = llvm.mlir.constant(true) : i1
  %8 = llvm.mlir.constant(262144 : index) : i64
  %9 = llvm.mlir.constant(1.250000e-01 : f32) : f32
  %10 = llvm.mlir.constant(-1 : index) : i64
  %11 = llvm.mlir.constant(4096 : index) : i64
  %12 = llvm.mlir.constant(dense<0.000000e+00> : vector<1xf32>) : vector<1xf32>
  %13 = llvm.mlir.constant(1 : index) : i64
  %14 = llvm.mlir.constant(4 : index) : i64
  %15 = llvm.mlir.constant(64 : index) : i64
  %16 = llvm.mlir.constant(0 : index) : i64
  %17 = llvm.load %arg1 : !llvm.ptr -> !llvm.struct<"iree_hal_executable_dispatch_state_v0_t", (i32, i32, i16, i16, i32, i32, i16, i8, i8, ptr, ptr, ptr)>
  %18 = llvm.extractvalue %17[10] : !llvm.struct<"iree_hal_executable_dispatch_state_v0_t", (i32, i32, i16, i16, i32, i32, i16, i8, i8, ptr, ptr, ptr)>
  %19 = llvm.load %18 : !llvm.ptr -> !llvm.ptr
  llvm.intr.assume %7 ["align"(%19, %15 : !llvm.ptr, i64)] : i1
  %20 = llvm.load %arg1 : !llvm.ptr -> !llvm.struct<"iree_hal_executable_dispatch_state_v0_t", (i32, i32, i16, i16, i32, i32, i16, i8, i8, ptr, ptr, ptr)>
  %21 = llvm.extractvalue %20[10] : !llvm.struct<"iree_hal_executable_dispatch_state_v0_t", (i32, i32, i16, i16, i32, i32, i16, i8, i8, ptr, ptr, ptr)>
  %22 = llvm.getelementptr %21[1] : (!llvm.ptr) -> !llvm.ptr, !llvm.ptr
  %23 = llvm.load %22 : !llvm.ptr -> !llvm.ptr
  llvm.intr.assume %7 ["align"(%23, %15 : !llvm.ptr, i64)] : i1
  %24 = llvm.load %arg1 : !llvm.ptr -> !llvm.struct<"iree_hal_executable_dispatch_state_v0_t", (i32, i32, i16, i16, i32, i32, i16, i8, i8, ptr, ptr, ptr)>
  %25 = llvm.extractvalue %24[10] : !llvm.struct<"iree_hal_executable_dispatch_state_v0_t", (i32, i32, i16, i16, i32, i32, i16, i8, i8, ptr, ptr, ptr)>
  %26 = llvm.getelementptr %25[2] : (!llvm.ptr) -> !llvm.ptr, !llvm.ptr
  %27 = llvm.load %26 : !llvm.ptr -> !llvm.ptr
  llvm.intr.assume %7 ["align"(%27, %15 : !llvm.ptr, i64)] : i1
  %28 = llvm.load %arg2 : !llvm.ptr -> !llvm.struct<"iree_hal_executable_workgroup_state_v0_t", (i32, i32, i16, i16, i32, ptr, i32)>
  %29 = llvm.extractvalue %28[0] : !llvm.struct<"iree_hal_executable_workgroup_state_v0_t", (i32, i32, i16, i16, i32, ptr, i32)>
  %30 = llvm.zext %29 : i32 to i64
  %31 = llvm.sdiv %30, %11 : i64
  %32 = llvm.mul %31, %11 : i64
  %33 = llvm.icmp "ne" %30, %32 : i64
  %34 = llvm.icmp "slt" %30, %16 : i64
  %35 = llvm.and %33, %34 : i1
  %36 = llvm.add %31, %10 : i64
  %37 = llvm.select %35, %36, %31 : i1, i64
  %38 = llvm.srem %30, %11 : i64
  %39 = llvm.icmp "slt" %38, %16 : i64
  %40 = llvm.add %38, %11 overflow<nsw> : i64
  %41 = llvm.select %39, %40, %38 : i1, i64
  %42 = llvm.sdiv %41, %15 : i64
  %43 = llvm.srem %30, %15 : i64
  %44 = llvm.icmp "slt" %43, %16 : i64
  %45 = llvm.add %43, %15 overflow<nsw> : i64
  %46 = llvm.select %44, %45, %43 : i1, i64
  %47 = llvm.mul %37, %14 overflow<nsw> : i64
  %48 = llvm.mul %42, %15 overflow<nsw> : i64
  %49 = llvm.mul %46, %15 overflow<nsw> : i64
  llvm.br ^bb1(%16 : i64)
^bb1(%50: i64):  // 2 preds: ^bb0, ^bb11
  %51 = llvm.icmp "slt" %50, %14 : i64
  llvm.cond_br %51, ^bb2, ^bb12
^bb2:  // pred: ^bb1
  %52 = llvm.add %50, %47 : i64
  llvm.br ^bb3(%16 : i64)
^bb3(%53: i64):  // 2 preds: ^bb2, ^bb10
  %54 = llvm.icmp "slt" %53, %15 : i64
  llvm.cond_br %54, ^bb4, ^bb11
^bb4:  // pred: ^bb3
  %55 = llvm.add %53, %48 : i64
  llvm.br ^bb5(%16 : i64)
^bb5(%56: i64):  // 2 preds: ^bb4, ^bb9
  %57 = llvm.icmp "slt" %56, %15 : i64
  llvm.cond_br %57, ^bb6, ^bb10
^bb6:  // pred: ^bb5
  %58 = llvm.add %56, %49 : i64
  llvm.br ^bb7(%16, %12 : i64, vector<1xf32>)
^bb7(%59: i64, %60: vector<1xf32>):  // 2 preds: ^bb6, ^bb8
  %61 = llvm.icmp "slt" %59, %15 : i64
  llvm.cond_br %61, ^bb8, ^bb9
^bb8:  // pred: ^bb7
  %62 = llvm.mul %52, %8 : i64
  %63 = llvm.mul %55, %15 : i64
  %64 = llvm.add %62, %63 : i64
  %65 = llvm.add %64, %59 : i64
  %66 = llvm.getelementptr %19[%65] : (!llvm.ptr, i64) -> !llvm.ptr, f16
  %67 = llvm.load %66 {alignment = 2 : i64} : !llvm.ptr -> vector<4xf16>
  %68 = llvm.mul %58, %15 : i64
  %69 = llvm.add %62, %68 : i64
  %70 = llvm.add %69, %59 : i64
  %71 = llvm.getelementptr %23[%70] : (!llvm.ptr, i64) -> !llvm.ptr, f16
  %72 = llvm.load %71 {alignment = 2 : i64} : !llvm.ptr -> vector<4xf16>
  %73 = llvm.fpext %67 : vector<4xf16> to vector<4xf32>
  %74 = llvm.fpext %72 : vector<4xf16> to vector<4xf32>
  %75 = llvm.extractelement %74[%5 : i64] : vector<4xf32>
  %76 = llvm.insertelement %75, %1[%5 : i64] : vector<1xf32>
  %77 = llvm.extractelement %74[%4 : i64] : vector<4xf32>
  %78 = llvm.insertelement %77, %1[%5 : i64] : vector<1xf32>
  %79 = llvm.extractelement %74[%3 : i64] : vector<4xf32>
  %80 = llvm.insertelement %79, %1[%5 : i64] : vector<1xf32>
  %81 = llvm.extractelement %74[%2 : i64] : vector<4xf32>
  %82 = llvm.insertelement %81, %1[%5 : i64] : vector<1xf32>
  %83 = llvm.extractelement %73[%5 : i64] : vector<4xf32>
  %84 = llvm.insertelement %83, %1[%0 : i32] : vector<1xf32>
  %85 = llvm.intr.fmuladd(%76, %84, %60) : (vector<1xf32>, vector<1xf32>, vector<1xf32>) -> vector<1xf32>
  %86 = llvm.extractelement %73[%4 : i64] : vector<4xf32>
  %87 = llvm.insertelement %86, %1[%0 : i32] : vector<1xf32>
  %88 = llvm.intr.fmuladd(%78, %87, %85) : (vector<1xf32>, vector<1xf32>, vector<1xf32>) -> vector<1xf32>
  %89 = llvm.extractelement %73[%3 : i64] : vector<4xf32>
  %90 = llvm.insertelement %89, %1[%0 : i32] : vector<1xf32>
  %91 = llvm.intr.fmuladd(%80, %90, %88) : (vector<1xf32>, vector<1xf32>, vector<1xf32>) -> vector<1xf32>
  %92 = llvm.extractelement %73[%2 : i64] : vector<4xf32>
  %93 = llvm.insertelement %92, %1[%0 : i32] : vector<1xf32>
  %94 = llvm.intr.fmuladd(%82, %93, %91) : (vector<1xf32>, vector<1xf32>, vector<1xf32>) -> vector<1xf32>
  %95 = llvm.add %59, %14 : i64
  llvm.br ^bb7(%95, %94 : i64, vector<1xf32>)
^bb9:  // pred: ^bb7
  %96 = llvm.extractelement %60[%5 : i64] : vector<1xf32>
  %97 = llvm.fmul %96, %9 {fastmathFlags = #llvm.fastmath<contract>} : f32
  %98 = llvm.mul %52, %6 overflow<nsw, nuw> : i64
  %99 = llvm.mul %55, %11 overflow<nsw, nuw> : i64
  %100 = llvm.add %98, %99 overflow<nsw, nuw> : i64
  %101 = llvm.add %100, %58 overflow<nsw, nuw> : i64
  %102 = llvm.getelementptr inbounds|nuw %27[%101] : (!llvm.ptr, i64) -> !llvm.ptr, f32
  llvm.store %97, %102 : f32, !llvm.ptr
  %103 = llvm.add %56, %13 : i64
  llvm.br ^bb5(%103 : i64)
^bb10:  // pred: ^bb5
  %104 = llvm.add %53, %13 : i64
  llvm.br ^bb3(%104 : i64)
^bb11:  // pred: ^bb3
  %105 = llvm.add %50, %13 : i64
  llvm.br ^bb1(%105 : i64)
^bb12:  // pred: ^bb1
  llvm.return %0 : i32
}

// -----// IR Dump After TranslateTargetExecutableVariantsPass (iree-hal-translate-target-executable-variants) //----- //
hal.executable.variant public @embedded_elf_x86_64 target(<"llvm-cpu", "embedded-elf-x86_64", {cpu = "", cpu_features = "", data_layout = "e-m:e-p270:32:32-p271:32:32-p272:64:64-i64:64-i128:128-f80:128-n8:16:32:64-S128", iree.encoding.resolver = #iree_cpu.cpu_encoding_resolver<>, max_stack_allocation_size = 32768 : i64, native_vector_size = 16 : i64, target_triple = "x86_64-unknown-unknown-eabi-elf"}>) {
  hal.executable.export public @attention_dispatch_0_matmul_like_20x4096x4096x64_f16xf16xf32 ordinal(0) layout(#hal.pipeline.layout<bindings = [#hal.pipeline.binding<storage_buffer, "ReadOnly|Indirect">, #hal.pipeline.binding<storage_buffer, "ReadOnly|Indirect">, #hal.pipeline.binding<storage_buffer, Indirect>], flags = Indirect>) count(%arg0: !hal.device) -> (index, index, index) {
    %c20480 = arith.constant 20480 : index
    %c1 = arith.constant 1 : index
    %c1_0 = arith.constant 1 : index
    hal.return %c20480, %c1, %c1_0 : index, index, index
  } attributes {workgroup_size = [1 : index, 1 : index, 1 : index]}
  builtin.module attributes {llvm.data_layout = "e-m:e-p270:32:32-p271:32:32-p272:64:64-i64:64-i128:128-f80:128-n8:16:32:64-S128", llvm.target_triple = "x86_64-unknown-unknown-eabi-elf"} {
    llvm.func @attention_dispatch_0_matmul_like_20x4096x4096x64_f16xf16xf32(%arg0: !llvm.ptr {llvm.align = 16 : i64, llvm.noalias, llvm.nonnull, llvm.noundef}, %arg1: !llvm.ptr {llvm.align = 16 : i64, llvm.noalias, llvm.nonnull, llvm.noundef}, %arg2: !llvm.ptr {llvm.align = 16 : i64, llvm.noalias, llvm.nonnull, llvm.noundef}) -> i32 {
      %0 = llvm.mlir.constant(0 : i32) : i32
      %1 = llvm.mlir.poison : vector<1xf32>
      %2 = llvm.mlir.constant(3 : i64) : i64
      %3 = llvm.mlir.constant(2 : i64) : i64
      %4 = llvm.mlir.constant(1 : i64) : i64
      %5 = llvm.mlir.constant(0 : i64) : i64
      %6 = llvm.mlir.constant(16777216 : index) : i64
      %7 = llvm.mlir.constant(true) : i1
      %8 = llvm.mlir.constant(262144 : index) : i64
      %9 = llvm.mlir.constant(1.250000e-01 : f32) : f32
      %10 = llvm.mlir.constant(-1 : index) : i64
      %11 = llvm.mlir.constant(4096 : index) : i64
      %12 = llvm.mlir.constant(dense<0.000000e+00> : vector<1xf32>) : vector<1xf32>
      %13 = llvm.mlir.constant(1 : index) : i64
      %14 = llvm.mlir.constant(4 : index) : i64
      %15 = llvm.mlir.constant(64 : index) : i64
      %16 = llvm.mlir.constant(0 : index) : i64
      %17 = llvm.load %arg1 : !llvm.ptr -> !llvm.struct<"iree_hal_executable_dispatch_state_v0_t", (i32, i32, i16, i16, i32, i32, i16, i8, i8, ptr, ptr, ptr)>
      %18 = llvm.extractvalue %17[10] : !llvm.struct<"iree_hal_executable_dispatch_state_v0_t", (i32, i32, i16, i16, i32, i32, i16, i8, i8, ptr, ptr, ptr)>
      %19 = llvm.load %18 : !llvm.ptr -> !llvm.ptr
      llvm.intr.assume %7 ["align"(%19, %15 : !llvm.ptr, i64)] : i1
      %20 = llvm.load %arg1 : !llvm.ptr -> !llvm.struct<"iree_hal_executable_dispatch_state_v0_t", (i32, i32, i16, i16, i32, i32, i16, i8, i8, ptr, ptr, ptr)>
      %21 = llvm.extractvalue %20[10] : !llvm.struct<"iree_hal_executable_dispatch_state_v0_t", (i32, i32, i16, i16, i32, i32, i16, i8, i8, ptr, ptr, ptr)>
      %22 = llvm.getelementptr %21[1] : (!llvm.ptr) -> !llvm.ptr, !llvm.ptr
      %23 = llvm.load %22 : !llvm.ptr -> !llvm.ptr
      llvm.intr.assume %7 ["align"(%23, %15 : !llvm.ptr, i64)] : i1
      %24 = llvm.load %arg1 : !llvm.ptr -> !llvm.struct<"iree_hal_executable_dispatch_state_v0_t", (i32, i32, i16, i16, i32, i32, i16, i8, i8, ptr, ptr, ptr)>
      %25 = llvm.extractvalue %24[10] : !llvm.struct<"iree_hal_executable_dispatch_state_v0_t", (i32, i32, i16, i16, i32, i32, i16, i8, i8, ptr, ptr, ptr)>
      %26 = llvm.getelementptr %25[2] : (!llvm.ptr) -> !llvm.ptr, !llvm.ptr
      %27 = llvm.load %26 : !llvm.ptr -> !llvm.ptr
      llvm.intr.assume %7 ["align"(%27, %15 : !llvm.ptr, i64)] : i1
      %28 = llvm.load %arg2 : !llvm.ptr -> !llvm.struct<"iree_hal_executable_workgroup_state_v0_t", (i32, i32, i16, i16, i32, ptr, i32)>
      %29 = llvm.extractvalue %28[0] : !llvm.struct<"iree_hal_executable_workgroup_state_v0_t", (i32, i32, i16, i16, i32, ptr, i32)>
      %30 = llvm.zext %29 : i32 to i64
      %31 = llvm.sdiv %30, %11 : i64
      %32 = llvm.mul %31, %11 : i64
      %33 = llvm.icmp "ne" %30, %32 : i64
      %34 = llvm.icmp "slt" %30, %16 : i64
      %35 = llvm.and %33, %34 : i1
      %36 = llvm.add %31, %10 : i64
      %37 = llvm.select %35, %36, %31 : i1, i64
      %38 = llvm.srem %30, %11 : i64
      %39 = llvm.icmp "slt" %38, %16 : i64
      %40 = llvm.add %38, %11 overflow<nsw> : i64
      %41 = llvm.select %39, %40, %38 : i1, i64
      %42 = llvm.sdiv %41, %15 : i64
      %43 = llvm.srem %30, %15 : i64
      %44 = llvm.icmp "slt" %43, %16 : i64
      %45 = llvm.add %43, %15 overflow<nsw> : i64
      %46 = llvm.select %44, %45, %43 : i1, i64
      %47 = llvm.mul %37, %14 overflow<nsw> : i64
      %48 = llvm.mul %42, %15 overflow<nsw> : i64
      %49 = llvm.mul %46, %15 overflow<nsw> : i64
      llvm.br ^bb1(%16 : i64)
    ^bb1(%50: i64):  // 2 preds: ^bb0, ^bb11
      %51 = llvm.icmp "slt" %50, %14 : i64
      llvm.cond_br %51, ^bb2, ^bb12
    ^bb2:  // pred: ^bb1
      %52 = llvm.add %50, %47 : i64
      llvm.br ^bb3(%16 : i64)
    ^bb3(%53: i64):  // 2 preds: ^bb2, ^bb10
      %54 = llvm.icmp "slt" %53, %15 : i64
      llvm.cond_br %54, ^bb4, ^bb11
    ^bb4:  // pred: ^bb3
      %55 = llvm.add %53, %48 : i64
      llvm.br ^bb5(%16 : i64)
    ^bb5(%56: i64):  // 2 preds: ^bb4, ^bb9
      %57 = llvm.icmp "slt" %56, %15 : i64
      llvm.cond_br %57, ^bb6, ^bb10
    ^bb6:  // pred: ^bb5
      %58 = llvm.add %56, %49 : i64
      llvm.br ^bb7(%16, %12 : i64, vector<1xf32>)
    ^bb7(%59: i64, %60: vector<1xf32>):  // 2 preds: ^bb6, ^bb8
      %61 = llvm.icmp "slt" %59, %15 : i64
      llvm.cond_br %61, ^bb8, ^bb9
    ^bb8:  // pred: ^bb7
      %62 = llvm.mul %52, %8 : i64
      %63 = llvm.mul %55, %15 : i64
      %64 = llvm.add %62, %63 : i64
      %65 = llvm.add %64, %59 : i64
      %66 = llvm.getelementptr %19[%65] : (!llvm.ptr, i64) -> !llvm.ptr, f16
      %67 = llvm.load %66 {alignment = 2 : i64} : !llvm.ptr -> vector<4xf16>
      %68 = llvm.mul %58, %15 : i64
      %69 = llvm.add %62, %68 : i64
      %70 = llvm.add %69, %59 : i64
      %71 = llvm.getelementptr %23[%70] : (!llvm.ptr, i64) -> !llvm.ptr, f16
      %72 = llvm.load %71 {alignment = 2 : i64} : !llvm.ptr -> vector<4xf16>
      %73 = llvm.fpext %67 : vector<4xf16> to vector<4xf32>
      %74 = llvm.fpext %72 : vector<4xf16> to vector<4xf32>
      %75 = llvm.extractelement %74[%5 : i64] : vector<4xf32>
      %76 = llvm.insertelement %75, %1[%5 : i64] : vector<1xf32>
      %77 = llvm.extractelement %74[%4 : i64] : vector<4xf32>
      %78 = llvm.insertelement %77, %1[%5 : i64] : vector<1xf32>
      %79 = llvm.extractelement %74[%3 : i64] : vector<4xf32>
      %80 = llvm.insertelement %79, %1[%5 : i64] : vector<1xf32>
      %81 = llvm.extractelement %74[%2 : i64] : vector<4xf32>
      %82 = llvm.insertelement %81, %1[%5 : i64] : vector<1xf32>
      %83 = llvm.extractelement %73[%5 : i64] : vector<4xf32>
      %84 = llvm.insertelement %83, %1[%0 : i32] : vector<1xf32>
      %85 = llvm.intr.fmuladd(%76, %84, %60) : (vector<1xf32>, vector<1xf32>, vector<1xf32>) -> vector<1xf32>
      %86 = llvm.extractelement %73[%4 : i64] : vector<4xf32>
      %87 = llvm.insertelement %86, %1[%0 : i32] : vector<1xf32>
      %88 = llvm.intr.fmuladd(%78, %87, %85) : (vector<1xf32>, vector<1xf32>, vector<1xf32>) -> vector<1xf32>
      %89 = llvm.extractelement %73[%3 : i64] : vector<4xf32>
      %90 = llvm.insertelement %89, %1[%0 : i32] : vector<1xf32>
      %91 = llvm.intr.fmuladd(%80, %90, %88) : (vector<1xf32>, vector<1xf32>, vector<1xf32>) -> vector<1xf32>
      %92 = llvm.extractelement %73[%2 : i64] : vector<4xf32>
      %93 = llvm.insertelement %92, %1[%0 : i32] : vector<1xf32>
      %94 = llvm.intr.fmuladd(%82, %93, %91) : (vector<1xf32>, vector<1xf32>, vector<1xf32>) -> vector<1xf32>
      %95 = llvm.add %59, %14 : i64
      llvm.br ^bb7(%95, %94 : i64, vector<1xf32>)
    ^bb9:  // pred: ^bb7
      %96 = llvm.extractelement %60[%5 : i64] : vector<1xf32>
      %97 = llvm.fmul %96, %9 {fastmathFlags = #llvm.fastmath<contract>} : f32
      %98 = llvm.mul %52, %6 overflow<nsw, nuw> : i64
      %99 = llvm.mul %55, %11 overflow<nsw, nuw> : i64
      %100 = llvm.add %98, %99 overflow<nsw, nuw> : i64
      %101 = llvm.add %100, %58 overflow<nsw, nuw> : i64
      %102 = llvm.getelementptr inbounds|nuw %27[%101] : (!llvm.ptr, i64) -> !llvm.ptr, f32
      llvm.store %97, %102 : f32, !llvm.ptr
      %103 = llvm.add %56, %13 : i64
      llvm.br ^bb5(%103 : i64)
    ^bb10:  // pred: ^bb5
      %104 = llvm.add %53, %13 : i64
      llvm.br ^bb3(%104 : i64)
    ^bb11:  // pred: ^bb3
      %105 = llvm.add %50, %13 : i64
      llvm.br ^bb1(%105 : i64)
    ^bb12:  // pred: ^bb1
      llvm.return %0 : i32
    }
  }
}

// -----// IR Dump After TranslateAllExecutablesPass (iree-hal-translate-all-executables) //----- //
hal.executable private @attention_dispatch_0 {
  hal.executable.variant public @embedded_elf_x86_64 target(<"llvm-cpu", "embedded-elf-x86_64", {cpu = "", cpu_features = "", data_layout = "e-m:e-p270:32:32-p271:32:32-p272:64:64-i64:64-i128:128-f80:128-n8:16:32:64-S128", iree.encoding.resolver = #iree_cpu.cpu_encoding_resolver<>, max_stack_allocation_size = 32768 : i64, native_vector_size = 16 : i64, target_triple = "x86_64-unknown-unknown-eabi-elf"}>) {
    hal.executable.export public @attention_dispatch_0_matmul_like_20x4096x4096x64_f16xf16xf32 ordinal(0) layout(#hal.pipeline.layout<bindings = [#hal.pipeline.binding<storage_buffer, "ReadOnly|Indirect">, #hal.pipeline.binding<storage_buffer, "ReadOnly|Indirect">, #hal.pipeline.binding<storage_buffer, Indirect>], flags = Indirect>) count(%arg0: !hal.device) -> (index, index, index) {
      %c20480 = arith.constant 20480 : index
      %c1 = arith.constant 1 : index
      %c1_0 = arith.constant 1 : index
      hal.return %c20480, %c1, %c1_0 : index, index, index
    } attributes {workgroup_size = [1 : index, 1 : index, 1 : index]}
    builtin.module attributes {llvm.data_layout = "e-m:e-p270:32:32-p271:32:32-p272:64:64-i64:64-i128:128-f80:128-n8:16:32:64-S128", llvm.target_triple = "x86_64-unknown-unknown-eabi-elf"} {
      llvm.func @attention_dispatch_0_matmul_like_20x4096x4096x64_f16xf16xf32(%arg0: !llvm.ptr {llvm.align = 16 : i64, llvm.noalias, llvm.nonnull, llvm.noundef}, %arg1: !llvm.ptr {llvm.align = 16 : i64, llvm.noalias, llvm.nonnull, llvm.noundef}, %arg2: !llvm.ptr {llvm.align = 16 : i64, llvm.noalias, llvm.nonnull, llvm.noundef}) -> i32 {
        %0 = llvm.mlir.constant(0 : i32) : i32
        %1 = llvm.mlir.poison : vector<1xf32>
        %2 = llvm.mlir.constant(3 : i64) : i64
        %3 = llvm.mlir.constant(2 : i64) : i64
        %4 = llvm.mlir.constant(1 : i64) : i64
        %5 = llvm.mlir.constant(0 : i64) : i64
        %6 = llvm.mlir.constant(16777216 : index) : i64
        %7 = llvm.mlir.constant(true) : i1
        %8 = llvm.mlir.constant(262144 : index) : i64
        %9 = llvm.mlir.constant(1.250000e-01 : f32) : f32
        %10 = llvm.mlir.constant(-1 : index) : i64
        %11 = llvm.mlir.constant(4096 : index) : i64
        %12 = llvm.mlir.constant(dense<0.000000e+00> : vector<1xf32>) : vector<1xf32>
        %13 = llvm.mlir.constant(1 : index) : i64
        %14 = llvm.mlir.constant(4 : index) : i64
        %15 = llvm.mlir.constant(64 : index) : i64
        %16 = llvm.mlir.constant(0 : index) : i64
        %17 = llvm.load %arg1 : !llvm.ptr -> !llvm.struct<"iree_hal_executable_dispatch_state_v0_t", (i32, i32, i16, i16, i32, i32, i16, i8, i8, ptr, ptr, ptr)>
        %18 = llvm.extractvalue %17[10] : !llvm.struct<"iree_hal_executable_dispatch_state_v0_t", (i32, i32, i16, i16, i32, i32, i16, i8, i8, ptr, ptr, ptr)>
        %19 = llvm.load %18 : !llvm.ptr -> !llvm.ptr
        llvm.intr.assume %7 ["align"(%19, %15 : !llvm.ptr, i64)] : i1
        %20 = llvm.load %arg1 : !llvm.ptr -> !llvm.struct<"iree_hal_executable_dispatch_state_v0_t", (i32, i32, i16, i16, i32, i32, i16, i8, i8, ptr, ptr, ptr)>
        %21 = llvm.extractvalue %20[10] : !llvm.struct<"iree_hal_executable_dispatch_state_v0_t", (i32, i32, i16, i16, i32, i32, i16, i8, i8, ptr, ptr, ptr)>
        %22 = llvm.getelementptr %21[1] : (!llvm.ptr) -> !llvm.ptr, !llvm.ptr
        %23 = llvm.load %22 : !llvm.ptr -> !llvm.ptr
        llvm.intr.assume %7 ["align"(%23, %15 : !llvm.ptr, i64)] : i1
        %24 = llvm.load %arg1 : !llvm.ptr -> !llvm.struct<"iree_hal_executable_dispatch_state_v0_t", (i32, i32, i16, i16, i32, i32, i16, i8, i8, ptr, ptr, ptr)>
        %25 = llvm.extractvalue %24[10] : !llvm.struct<"iree_hal_executable_dispatch_state_v0_t", (i32, i32, i16, i16, i32, i32, i16, i8, i8, ptr, ptr, ptr)>
        %26 = llvm.getelementptr %25[2] : (!llvm.ptr) -> !llvm.ptr, !llvm.ptr
        %27 = llvm.load %26 : !llvm.ptr -> !llvm.ptr
        llvm.intr.assume %7 ["align"(%27, %15 : !llvm.ptr, i64)] : i1
        %28 = llvm.load %arg2 : !llvm.ptr -> !llvm.struct<"iree_hal_executable_workgroup_state_v0_t", (i32, i32, i16, i16, i32, ptr, i32)>
        %29 = llvm.extractvalue %28[0] : !llvm.struct<"iree_hal_executable_workgroup_state_v0_t", (i32, i32, i16, i16, i32, ptr, i32)>
        %30 = llvm.zext %29 : i32 to i64
        %31 = llvm.sdiv %30, %11 : i64
        %32 = llvm.mul %31, %11 : i64
        %33 = llvm.icmp "ne" %30, %32 : i64
        %34 = llvm.icmp "slt" %30, %16 : i64
        %35 = llvm.and %33, %34 : i1
        %36 = llvm.add %31, %10 : i64
        %37 = llvm.select %35, %36, %31 : i1, i64
        %38 = llvm.srem %30, %11 : i64
        %39 = llvm.icmp "slt" %38, %16 : i64
        %40 = llvm.add %38, %11 overflow<nsw> : i64
        %41 = llvm.select %39, %40, %38 : i1, i64
        %42 = llvm.sdiv %41, %15 : i64
        %43 = llvm.srem %30, %15 : i64
        %44 = llvm.icmp "slt" %43, %16 : i64
        %45 = llvm.add %43, %15 overflow<nsw> : i64
        %46 = llvm.select %44, %45, %43 : i1, i64
        %47 = llvm.mul %37, %14 overflow<nsw> : i64
        %48 = llvm.mul %42, %15 overflow<nsw> : i64
        %49 = llvm.mul %46, %15 overflow<nsw> : i64
        llvm.br ^bb1(%16 : i64)
      ^bb1(%50: i64):  // 2 preds: ^bb0, ^bb11
        %51 = llvm.icmp "slt" %50, %14 : i64
        llvm.cond_br %51, ^bb2, ^bb12
      ^bb2:  // pred: ^bb1
        %52 = llvm.add %50, %47 : i64
        llvm.br ^bb3(%16 : i64)
      ^bb3(%53: i64):  // 2 preds: ^bb2, ^bb10
        %54 = llvm.icmp "slt" %53, %15 : i64
        llvm.cond_br %54, ^bb4, ^bb11
      ^bb4:  // pred: ^bb3
        %55 = llvm.add %53, %48 : i64
        llvm.br ^bb5(%16 : i64)
      ^bb5(%56: i64):  // 2 preds: ^bb4, ^bb9
        %57 = llvm.icmp "slt" %56, %15 : i64
        llvm.cond_br %57, ^bb6, ^bb10
      ^bb6:  // pred: ^bb5
        %58 = llvm.add %56, %49 : i64
        llvm.br ^bb7(%16, %12 : i64, vector<1xf32>)
      ^bb7(%59: i64, %60: vector<1xf32>):  // 2 preds: ^bb6, ^bb8
        %61 = llvm.icmp "slt" %59, %15 : i64
        llvm.cond_br %61, ^bb8, ^bb9
      ^bb8:  // pred: ^bb7
        %62 = llvm.mul %52, %8 : i64
        %63 = llvm.mul %55, %15 : i64
        %64 = llvm.add %62, %63 : i64
        %65 = llvm.add %64, %59 : i64
        %66 = llvm.getelementptr %19[%65] : (!llvm.ptr, i64) -> !llvm.ptr, f16
        %67 = llvm.load %66 {alignment = 2 : i64} : !llvm.ptr -> vector<4xf16>
        %68 = llvm.mul %58, %15 : i64
        %69 = llvm.add %62, %68 : i64
        %70 = llvm.add %69, %59 : i64
        %71 = llvm.getelementptr %23[%70] : (!llvm.ptr, i64) -> !llvm.ptr, f16
        %72 = llvm.load %71 {alignment = 2 : i64} : !llvm.ptr -> vector<4xf16>
        %73 = llvm.fpext %67 : vector<4xf16> to vector<4xf32>
        %74 = llvm.fpext %72 : vector<4xf16> to vector<4xf32>
        %75 = llvm.extractelement %74[%5 : i64] : vector<4xf32>
        %76 = llvm.insertelement %75, %1[%5 : i64] : vector<1xf32>
        %77 = llvm.extractelement %74[%4 : i64] : vector<4xf32>
        %78 = llvm.insertelement %77, %1[%5 : i64] : vector<1xf32>
        %79 = llvm.extractelement %74[%3 : i64] : vector<4xf32>
        %80 = llvm.insertelement %79, %1[%5 : i64] : vector<1xf32>
        %81 = llvm.extractelement %74[%2 : i64] : vector<4xf32>
        %82 = llvm.insertelement %81, %1[%5 : i64] : vector<1xf32>
        %83 = llvm.extractelement %73[%5 : i64] : vector<4xf32>
        %84 = llvm.insertelement %83, %1[%0 : i32] : vector<1xf32>
        %85 = llvm.intr.fmuladd(%76, %84, %60) : (vector<1xf32>, vector<1xf32>, vector<1xf32>) -> vector<1xf32>
        %86 = llvm.extractelement %73[%4 : i64] : vector<4xf32>
        %87 = llvm.insertelement %86, %1[%0 : i32] : vector<1xf32>
        %88 = llvm.intr.fmuladd(%78, %87, %85) : (vector<1xf32>, vector<1xf32>, vector<1xf32>) -> vector<1xf32>
        %89 = llvm.extractelement %73[%3 : i64] : vector<4xf32>
        %90 = llvm.insertelement %89, %1[%0 : i32] : vector<1xf32>
        %91 = llvm.intr.fmuladd(%80, %90, %88) : (vector<1xf32>, vector<1xf32>, vector<1xf32>) -> vector<1xf32>
        %92 = llvm.extractelement %73[%2 : i64] : vector<4xf32>
        %93 = llvm.insertelement %92, %1[%0 : i32] : vector<1xf32>
        %94 = llvm.intr.fmuladd(%82, %93, %91) : (vector<1xf32>, vector<1xf32>, vector<1xf32>) -> vector<1xf32>
        %95 = llvm.add %59, %14 : i64
        llvm.br ^bb7(%95, %94 : i64, vector<1xf32>)
      ^bb9:  // pred: ^bb7
        %96 = llvm.extractelement %60[%5 : i64] : vector<1xf32>
        %97 = llvm.fmul %96, %9 {fastmathFlags = #llvm.fastmath<contract>} : f32
        %98 = llvm.mul %52, %6 overflow<nsw, nuw> : i64
        %99 = llvm.mul %55, %11 overflow<nsw, nuw> : i64
        %100 = llvm.add %98, %99 overflow<nsw, nuw> : i64
        %101 = llvm.add %100, %58 overflow<nsw, nuw> : i64
        %102 = llvm.getelementptr inbounds|nuw %27[%101] : (!llvm.ptr, i64) -> !llvm.ptr, f32
        llvm.store %97, %102 : f32, !llvm.ptr
        %103 = llvm.add %56, %13 : i64
        llvm.br ^bb5(%103 : i64)
      ^bb10:  // pred: ^bb5
        %104 = llvm.add %53, %13 : i64
        llvm.br ^bb3(%104 : i64)
      ^bb11:  // pred: ^bb3
        %105 = llvm.add %50, %13 : i64
        llvm.br ^bb1(%105 : i64)
      ^bb12:  // pred: ^bb1
        llvm.return %0 : i32
      }
    }
  }
}

 #0 0x000079f8af39f242 llvm::sys::PrintStackTrace(llvm::raw_ostream&, int) (/workspaces/iree/build/lib/libIREECompiler.so+0x279f242)
 #1 0x000079f8af39bf22 SignalHandler(int, siginfo_t*, void*) Signals.cpp:0:0
 #2 0x000079f8aca33330 (/usr/lib/x86_64-linux-gnu/libc.so.6+0x45330)
 #3 0x000079f8b315be0c mlir::iree_compiler::PartitionableLoopsInterface::getPartitionableLoops(std::optional<unsigned int>) (/workspaces/iree/build/lib/libIREECompiler.so+0x655be0c)
 #4 0x000079f8b176a37f mlir::iree_compiler::getDefaultDistributedLevelTileSizes(mlir::Operation*, mlir::iree_compiler::DistributionHeuristicConfig const&) KernelDispatch.cpp:0:0
 #5 0x000079f8b177be92 mlir::iree_compiler::initCPULaunchConfig(mlir::FunctionOpInterface) (/workspaces/iree/build/lib/libIREECompiler.so+0x4b7be92)
 #6 0x000079f8b1749f90 mlir::iree_compiler::(anonymous namespace)::LLVMCPUSelectLoweringStrategyPass::runOnOperation() LLVMCPUSelectLoweringStrategy.cpp:0:0
 #7 0x000079f8af9d9566 mlir::detail::OpToOpPassAdaptor::run(mlir::Pass*, mlir::Operation*, mlir::AnalysisManager, bool, unsigned int) (/workspaces/iree/build/lib/libIREECompiler.so+0x2dd9566)
 #8 0x000079f8af9d9808 mlir::detail::OpToOpPassAdaptor::runPipeline(mlir::OpPassManager&, mlir::Operation*, mlir::AnalysisManager, bool, unsigned int, mlir::PassInstrumentor*, mlir::PassInstrumentation::PipelineParentInfo const*) (/workspaces/iree/build/lib/libIREECompiler.so+0x2dd9808)
 #9 0x000079f8af9d8a55 mlir::detail::OpToOpPassAdaptor::runOnOperationAsyncImpl(bool) (/workspaces/iree/build/lib/libIREECompiler.so+0x2dd8a55)
#10 0x000079f8af9d9509 mlir::detail::OpToOpPassAdaptor::run(mlir::Pass*, mlir::Operation*, mlir::AnalysisManager, bool, unsigned int) (/workspaces/iree/build/lib/libIREECompiler.so+0x2dd9509)
#11 0x000079f8af9d9808 mlir::detail::OpToOpPassAdaptor::runPipeline(mlir::OpPassManager&, mlir::Operation*, mlir::AnalysisManager, bool, unsigned int, mlir::PassInstrumentor*, mlir::PassInstrumentation::PipelineParentInfo const*) (/workspaces/iree/build/lib/libIREECompiler.so+0x2dd9808)
#12 0x000079f8af9da52c mlir::detail::OpToOpPassAdaptor::run(mlir::Pass*, mlir::Operation*, mlir::AnalysisManager, bool, unsigned int)::'lambda'(mlir::OpPassManager&, mlir::Operation*)::operator()(mlir::OpPassManager&, mlir::Operation*) const Pass.cpp:0:0
#13 0x000079f8b183da2d mlir::iree_compiler::IREE::HAL::(anonymous namespace)::ConfigureTargetExecutableVariantsPass::runOnOperation() ConfigureExecutables.cpp:0:0
#14 0x000079f8af9d9566 mlir::detail::OpToOpPassAdaptor::run(mlir::Pass*, mlir::Operation*, mlir::AnalysisManager, bool, unsigned int) (/workspaces/iree/build/lib/libIREECompiler.so+0x2dd9566)
#15 0x000079f8af9d9808 mlir::detail::OpToOpPassAdaptor::runPipeline(mlir::OpPassManager&, mlir::Operation*, mlir::AnalysisManager, bool, unsigned int, mlir::PassInstrumentor*, mlir::PassInstrumentation::PipelineParentInfo const*) (/workspaces/iree/build/lib/libIREECompiler.so+0x2dd9808)
#16 0x000079f8af9d8a55 mlir::detail::OpToOpPassAdaptor::runOnOperationAsyncImpl(bool) (/workspaces/iree/build/lib/libIREECompiler.so+0x2dd8a55)
#17 0x000079f8af9d9509 mlir::detail::OpToOpPassAdaptor::run(mlir::Pass*, mlir::Operation*, mlir::AnalysisManager, bool, unsigned int) (/workspaces/iree/build/lib/libIREECompiler.so+0x2dd9509)
#18 0x000079f8af9d9808 mlir::detail::OpToOpPassAdaptor::runPipeline(mlir::OpPassManager&, mlir::Operation*, mlir::AnalysisManager, bool, unsigned int, mlir::PassInstrumentor*, mlir::PassInstrumentation::PipelineParentInfo const*) (/workspaces/iree/build/lib/libIREECompiler.so+0x2dd9808)
#19 0x000079f8af9da52c mlir::detail::OpToOpPassAdaptor::run(mlir::Pass*, mlir::Operation*, mlir::AnalysisManager, bool, unsigned int)::'lambda'(mlir::OpPassManager&, mlir::Operation*)::operator()(mlir::OpPassManager&, mlir::Operation*) const Pass.cpp:0:0
#20 0x000079f8b183f35d mlir::iree_compiler::IREE::HAL::(anonymous namespace)::ConfigureExecutablesPass::runOnOperation() ConfigureExecutables.cpp:0:0
#21 0x000079f8af9d9566 mlir::detail::OpToOpPassAdaptor::run(mlir::Pass*, mlir::Operation*, mlir::AnalysisManager, bool, unsigned int) (/workspaces/iree/build/lib/libIREECompiler.so+0x2dd9566)
#22 0x000079f8af9d9808 mlir::detail::OpToOpPassAdaptor::runPipeline(mlir::OpPassManager&, mlir::Operation*, mlir::AnalysisManager, bool, unsigned int, mlir::PassInstrumentor*, mlir::PassInstrumentation::PipelineParentInfo const*) (/workspaces/iree/build/lib/libIREECompiler.so+0x2dd9808)
#23 0x000079f8af9da707 void llvm::detail::UniqueFunctionBase<void>::CallImpl<llvm::LogicalResult mlir::failableParallelForEach<__gnu_cxx::__normal_iterator<mlir::detail::OpToOpPassAdaptor::runOnOperationAsyncImpl(bool)::OpPMInfo*, std::vector<mlir::detail::OpToOpPassAdaptor::runOnOperationAsyncImpl(bool)::OpPMInfo, std::allocator<mlir::detail::OpToOpPassAdaptor::runOnOperationAsyncImpl(bool)::OpPMInfo>>>, void mlir::parallelForEach<__gnu_cxx::__normal_iterator<mlir::detail::OpToOpPassAdaptor::runOnOperationAsyncImpl(bool)::OpPMInfo*, std::vector<mlir::detail::OpToOpPassAdaptor::runOnOperationAsyncImpl(bool)::OpPMInfo, std::allocator<mlir::detail::OpToOpPassAdaptor::runOnOperationAsyncImpl(bool)::OpPMInfo>>>, mlir::detail::OpToOpPassAdaptor::runOnOperationAsyncImpl(bool)::'lambda'(mlir::detail::OpToOpPassAdaptor::runOnOperationAsyncImpl(bool)::OpPMInfo&)>(mlir::MLIRContext*, __gnu_cxx::__normal_iterator<mlir::detail::OpToOpPassAdaptor::runOnOperationAsyncImpl(bool)::OpPMInfo*, std::vector<mlir::detail::OpToOpPassAdaptor::runOnOperationAsyncImpl(bool)::OpPMInfo, std::allocator<mlir::detail::OpToOpPassAdaptor::runOnOperationAsyncImpl(bool)::OpPMInfo>>>, __gnu_cxx::__normal_iterator<mlir::detail::OpToOpPassAdaptor::runOnOperationAsyncImpl(bool)::OpPMInfo*, std::vector<mlir::detail::OpToOpPassAdaptor::runOnOperationAsyncImpl(bool)::OpPMInfo, std::allocator<mlir::detail::OpToOpPassAdaptor::runOnOperationAsyncImpl(bool)::OpPMInfo>>>, mlir::detail::OpToOpPassAdaptor::runOnOperationAsyncImpl(bool)::'lambda'(mlir::detail::OpToOpPassAdaptor::runOnOperationAsyncImpl(bool)::OpPMInfo&)&&)::'lambda'(__gnu_cxx::__normal_iterator<mlir::detail::OpToOpPassAdaptor::runOnOperationAsyncImpl(bool)::OpPMInfo*, std::vector<mlir::detail::OpToOpPassAdaptor::runOnOperationAsyncImpl(bool)::OpPMInfo, std::allocator<mlir::detail::OpToOpPassAdaptor::runOnOperationAsyncImpl(bool)::OpPMInfo>>>&&)>(mlir::MLIRContext*, __gnu_cxx::__normal_iterator<mlir::detail::OpToOpPassAdaptor::runOnOperationAsyncImpl(bool)::OpPMInfo*, std::vector<mlir::detail::OpToOpPassAdaptor::runOnOperationAsyncImpl(bool)::OpPMInfo, std::allocator<mlir::detail::OpToOpPassAdaptor::runOnOperationAsyncImpl(bool)::OpPMInfo>>>, __gnu_cxx::__normal_iterator<mlir::detail::OpToOpPassAdaptor::runOnOperationAsyncImpl(bool)::OpPMInfo*, std::vector<mlir::detail::OpToOpPassAdaptor::runOnOperationAsyncImpl(bool)::OpPMInfo, std::allocator<mlir::detail::OpToOpPassAdaptor::runOnOperationAsyncImpl(bool)::OpPMInfo>>>, mlir::detail::OpToOpPassAdaptor::runOnOperationAsyncImpl(bool)::'lambda'(mlir::detail::OpToOpPassAdaptor::runOnOperationAsyncImpl(bool)::OpPMInfo&)&&)::'lambda'()>(void*) Pass.cpp:0:0
#24 0x000079f8af4f903b std::_Function_handler<std::unique_ptr<std::__future_base::_Result_base, std::__future_base::_Result_base::_Deleter> (), std::__future_base::_Task_setter<std::unique_ptr<std::__future_base::_Result<void>, std::__future_base::_Result_base::_Deleter>, std::thread::_Invoker<std::tuple<llvm::unique_function<void ()>>>, void>>::_M_invoke(std::_Any_data const&) (/workspaces/iree/build/lib/libIREECompiler.so+0x28f903b)
#25 0x000079f8af4f8f2d std::__future_base::_State_baseV2::_M_do_set(std::function<std::unique_ptr<std::__future_base::_Result_base, std::__future_base::_Result_base::_Deleter> ()>*, bool*) (/workspaces/iree/build/lib/libIREECompiler.so+0x28f8f2d)
#26 0x000079f8aca8fed3 __pthread_once_slow ./nptl/pthread_once.c:118:7
#27 0x000079f8af4f8e7e std::__future_base::_Deferred_state<std::thread::_Invoker<std::tuple<llvm::unique_function<void ()>>>, void>::_M_complete_async() (/workspaces/iree/build/lib/libIREECompiler.so+0x28f8e7e)
#28 0x000079f8af4f8a60 void llvm::detail::UniqueFunctionBase<void>::CallImpl<std::shared_future<void> llvm::ThreadPoolInterface::asyncImpl<void>(llvm::unique_function<void ()>, llvm::ThreadPoolTaskGroup*)::'lambda'()>(void*) (/workspaces/iree/build/lib/libIREECompiler.so+0x28f8a60)
#29 0x000079f8af34250a llvm::StdThreadPool::processTasks(llvm::ThreadPoolTaskGroup*) (/workspaces/iree/build/lib/libIREECompiler.so+0x274250a)
#30 0x000079f8af343307 void* llvm::thread::ThreadProxy<std::tuple<llvm::StdThreadPool::grow(int)::'lambda'()>>(void*) ThreadPool.cpp:0:0
#31 0x000079f8aca8aaa4 start_thread ./nptl/pthread_create.c:447:8
#32 0x000079f8acb17c3c clone3 ./misc/../sysdeps/unix/sysv/linux/x86_64/clone3.S:80:0
