test-codegen.mlir:94:21: warning: tiling is not thread safe at axis #3
  %MAX, %SUM, %PV = iree_linalg_ext.exp_reduction {
                    ^
test-codegen.mlir:94:21: note: see current operation:
%15:3 = iree_linalg_ext.exp_reduction{indexing_maps = [affine_map<(d0, d1, d2, d3) -> (d0, d1, d3)>, affine_map<(d0, d1, d2, d3) -> (d0, d3, d2)>, affine_map<(d0, d1, d2, d3) -> (d0, d1)>, affine_map<(d0, d1, d2, d3) -> (d0, d1)>, affine_map<(d0, d1, d2, d3) -> (d0, d1, d2)>], iterator_types = [#iree_linalg_ext.iterator_type<parallel>, #iree_linalg_ext.iterator_type<parallel>, #iree_linalg_ext.iterator_type<parallel>, #iree_linalg_ext.iterator_type<reduction>], exp_reduced_operands = [1, 2]} {lowering_config = #iree_cpu.lowering_config<distribution = [1, 8, 8, 8], vector_common_parallel = [0, 0, 8, 16], vector_reduction = [0, 0, 0, 16]>} ins(%9, %6 : tensor<20x4096x4096xf32>, tensor<20x4096x64xf32>) outs(%12, %13, %14 : tensor<20x4096xf32>, tensor<20x4096xf32>, tensor<20x4096x64xf32>) {
^bb0(%arg0: f32, %arg1: f32, %arg2: f32, %arg3: f32, %arg4: f32):
  %18 = arith.addf %arg0, %arg3 : f32
  %19 = arith.mulf %arg0, %arg1 : f32
  %20 = arith.addf %19, %arg4 : f32
  linalg.yield %arg2, %18, %20 : f32, f32, f32
} -> tensor<20x4096xf32>, tensor<20x4096xf32>, tensor<20x4096x64xf32>
// -----// IR Dump After TileAndDistributeToWorkgroupsUsingForallOpPass (iree-codegen-tile-and-distribute-to-workgroups-using-forall-op) //----- //
func.func @no_peel_static_matmul() attributes {hal.executable.target = #hal.executable.target<"llvm-cpu", "system-elf-x86_64", {native_vector_size = 64 : i64}>, translation_info = #iree_codegen.translation_info<pipeline = CPULinalgExtTileAndVectorize>} {
  %cst = arith.constant -3.40282347E+38 : f32
  %cst_0 = arith.constant 0.000000e+00 : f32
  %0 = hal.interface.binding.subspan layout(<bindings = [#hal.pipeline.binding<storage_buffer>, #hal.pipeline.binding<storage_buffer>, #hal.pipeline.binding<storage_buffer>, #hal.pipeline.binding<storage_buffer>]>) binding(0) : !iree_tensor_ext.dispatch.tensor<readonly:tensor<20x4096x64xf32>>
  %1 = hal.interface.binding.subspan layout(<bindings = [#hal.pipeline.binding<storage_buffer>, #hal.pipeline.binding<storage_buffer>, #hal.pipeline.binding<storage_buffer>, #hal.pipeline.binding<storage_buffer>]>) binding(1) : !iree_tensor_ext.dispatch.tensor<readonly:tensor<20x4096x64xf32>>
  %2 = hal.interface.binding.subspan layout(<bindings = [#hal.pipeline.binding<storage_buffer>, #hal.pipeline.binding<storage_buffer>, #hal.pipeline.binding<storage_buffer>, #hal.pipeline.binding<storage_buffer>]>) binding(2) : !iree_tensor_ext.dispatch.tensor<readonly:tensor<20x4096x64xf32>>
  %3 = hal.interface.binding.subspan layout(<bindings = [#hal.pipeline.binding<storage_buffer>, #hal.pipeline.binding<storage_buffer>, #hal.pipeline.binding<storage_buffer>, #hal.pipeline.binding<storage_buffer>]>) binding(3) : !iree_tensor_ext.dispatch.tensor<writeonly:tensor<20x4096x64xf32>>
  %4 = iree_tensor_ext.dispatch.tensor.load %0, offsets = [0, 0, 0], sizes = [20, 4096, 64], strides = [1, 1, 1] : !iree_tensor_ext.dispatch.tensor<readonly:tensor<20x4096x64xf32>> -> tensor<20x4096x64xf32>
  %5 = iree_tensor_ext.dispatch.tensor.load %1, offsets = [0, 0, 0], sizes = [20, 4096, 64], strides = [1, 1, 1] : !iree_tensor_ext.dispatch.tensor<readonly:tensor<20x4096x64xf32>> -> tensor<20x4096x64xf32>
  %6 = iree_tensor_ext.dispatch.tensor.load %2, offsets = [0, 0, 0], sizes = [20, 4096, 64], strides = [1, 1, 1] : !iree_tensor_ext.dispatch.tensor<readonly:tensor<20x4096x64xf32>> -> tensor<20x4096x64xf32>
  %7 = tensor.empty() : tensor<20x4096x64xf32>
  %8 = scf.forall (%arg0, %arg1, %arg2, %arg3) = (0, 0, 0, 0) to (20, 4096, 64, 4096) step (1, 8, 8, 8) shared_outs(%arg4 = %7) -> (tensor<20x4096x64xf32>) {
    %extracted_slice = tensor.extract_slice %4[%arg0, %arg1, 0] [1, 8, 64] [1, 1, 1] : tensor<20x4096x64xf32> to tensor<1x8x64xf32>
    %extracted_slice_1 = tensor.extract_slice %5[%arg0, %arg3, 0] [1, 8, 64] [1, 1, 1] : tensor<20x4096x64xf32> to tensor<1x8x64xf32>
    %9 = tensor.empty() : tensor<1x8x8xf32>
    %10 = linalg.generic {indexing_maps = [affine_map<(d0, d1, d2, d3) -> (d0, d1, d3)>, affine_map<(d0, d1, d2, d3) -> (d0, d2, d3)>, affine_map<(d0, d1, d2, d3) -> (d0, d1, d2)>], iterator_types = ["parallel", "parallel", "parallel", "reduction"]} ins(%extracted_slice, %extracted_slice_1 : tensor<1x8x64xf32>, tensor<1x8x64xf32>) outs(%9 : tensor<1x8x8xf32>) {
    ^bb0(%in: f32, %in_4: f32, %out: f32):
      %19 = arith.mulf %in, %in_4 : f32
      %20 = arith.addf %19, %out : f32
      linalg.yield %20 : f32
    } -> tensor<1x8x8xf32>
    %extracted_slice_2 = tensor.extract_slice %6[%arg0, %arg3, %arg2] [1, 8, 8] [1, 1, 1] : tensor<20x4096x64xf32> to tensor<1x8x8xf32>
    %11 = tensor.empty() : tensor<1x8xf32>
    %12 = linalg.fill ins(%cst : f32) outs(%11 : tensor<1x8xf32>) -> tensor<1x8xf32>
    %13 = tensor.empty() : tensor<1x8xf32>
    %14 = linalg.fill ins(%cst_0 : f32) outs(%13 : tensor<1x8xf32>) -> tensor<1x8xf32>
    %15 = tensor.empty() : tensor<1x8x8xf32>
    %16 = linalg.fill ins(%cst_0 : f32) outs(%15 : tensor<1x8x8xf32>) -> tensor<1x8x8xf32>
    %17:3 = iree_linalg_ext.exp_reduction{indexing_maps = [affine_map<(d0, d1, d2, d3) -> (d0, d1, d3)>, affine_map<(d0, d1, d2, d3) -> (d0, d3, d2)>, affine_map<(d0, d1, d2, d3) -> (d0, d1)>, affine_map<(d0, d1, d2, d3) -> (d0, d1)>, affine_map<(d0, d1, d2, d3) -> (d0, d1, d2)>], iterator_types = [#iree_linalg_ext.iterator_type<parallel>, #iree_linalg_ext.iterator_type<parallel>, #iree_linalg_ext.iterator_type<parallel>, #iree_linalg_ext.iterator_type<reduction>], exp_reduced_operands = [1, 2]} {lowering_config = #iree_cpu.lowering_config<distribution = [1, 8, 8, 8], vector_common_parallel = [0, 0, 8, 16], vector_reduction = [0, 0, 0, 16]>} ins(%10, %extracted_slice_2 : tensor<1x8x8xf32>, tensor<1x8x8xf32>) outs(%12, %14, %16 : tensor<1x8xf32>, tensor<1x8xf32>, tensor<1x8x8xf32>) {
    ^bb0(%arg5: f32, %arg6: f32, %arg7: f32, %arg8: f32, %arg9: f32):
      %19 = arith.addf %arg5, %arg8 : f32
      %20 = arith.mulf %arg5, %arg6 : f32
      %21 = arith.addf %20, %arg9 : f32
      linalg.yield %arg7, %19, %21 : f32, f32, f32
    } -> tensor<1x8xf32>, tensor<1x8xf32>, tensor<1x8x8xf32>
    %extracted_slice_3 = tensor.extract_slice %arg4[%arg0, %arg1, %arg2] [1, 8, 8] [1, 1, 1] : tensor<20x4096x64xf32> to tensor<1x8x8xf32>
    %18 = linalg.generic {indexing_maps = [affine_map<(d0, d1, d2) -> (d0, d1, d2)>, affine_map<(d0, d1, d2) -> (d0, d1)>, affine_map<(d0, d1, d2) -> (d0, d1, d2)>], iterator_types = ["parallel", "parallel", "parallel"]} ins(%17#2, %17#1 : tensor<1x8x8xf32>, tensor<1x8xf32>) outs(%extracted_slice_3 : tensor<1x8x8xf32>) {
    ^bb0(%in: f32, %in_4: f32, %out: f32):
      %19 = arith.divf %in, %in_4 : f32
      linalg.yield %19 : f32
    } -> tensor<1x8x8xf32>
    scf.forall.in_parallel {
      tensor.parallel_insert_slice %18 into %arg4[%arg0, %arg1, %arg2] [1, 8, 8] [1, 1, 1] : tensor<1x8x8xf32> into tensor<20x4096x64xf32>
    }
  } {mapping = [#iree_codegen.workgroup_mapping<z:1>, #iree_codegen.workgroup_mapping<z>, #iree_codegen.workgroup_mapping<y>, #iree_codegen.workgroup_mapping<x>]}
  iree_tensor_ext.dispatch.tensor.store %8, %3, offsets = [0, 0, 0], sizes = [20, 4096, 64], strides = [1, 1, 1] : tensor<20x4096x64xf32> -> !iree_tensor_ext.dispatch.tensor<writeonly:tensor<20x4096x64xf32>>
  return
}

// -----// IR Dump After BufferizeDispatchTensorLoadStorePass (iree-codegen-bufferize-dispatch-tensor-load-store) //----- //
func.func @no_peel_static_matmul() attributes {hal.executable.target = #hal.executable.target<"llvm-cpu", "system-elf-x86_64", {native_vector_size = 64 : i64}>, translation_info = #iree_codegen.translation_info<pipeline = CPULinalgExtTileAndVectorize>} {
  %cst = arith.constant -3.40282347E+38 : f32
  %cst_0 = arith.constant 0.000000e+00 : f32
  %0 = hal.interface.binding.subspan layout(<bindings = [#hal.pipeline.binding<storage_buffer>, #hal.pipeline.binding<storage_buffer>, #hal.pipeline.binding<storage_buffer>, #hal.pipeline.binding<storage_buffer>]>) binding(0) : memref<20x4096x64xf32, #hal.descriptor_type<storage_buffer>>
  %1 = hal.interface.binding.subspan layout(<bindings = [#hal.pipeline.binding<storage_buffer>, #hal.pipeline.binding<storage_buffer>, #hal.pipeline.binding<storage_buffer>, #hal.pipeline.binding<storage_buffer>]>) binding(0) : !iree_tensor_ext.dispatch.tensor<readonly:tensor<20x4096x64xf32>>
  %2 = hal.interface.binding.subspan layout(<bindings = [#hal.pipeline.binding<storage_buffer>, #hal.pipeline.binding<storage_buffer>, #hal.pipeline.binding<storage_buffer>, #hal.pipeline.binding<storage_buffer>]>) binding(1) : memref<20x4096x64xf32, #hal.descriptor_type<storage_buffer>>
  %3 = hal.interface.binding.subspan layout(<bindings = [#hal.pipeline.binding<storage_buffer>, #hal.pipeline.binding<storage_buffer>, #hal.pipeline.binding<storage_buffer>, #hal.pipeline.binding<storage_buffer>]>) binding(1) : !iree_tensor_ext.dispatch.tensor<readonly:tensor<20x4096x64xf32>>
  %4 = hal.interface.binding.subspan layout(<bindings = [#hal.pipeline.binding<storage_buffer>, #hal.pipeline.binding<storage_buffer>, #hal.pipeline.binding<storage_buffer>, #hal.pipeline.binding<storage_buffer>]>) binding(2) : memref<20x4096x64xf32, #hal.descriptor_type<storage_buffer>>
  %5 = hal.interface.binding.subspan layout(<bindings = [#hal.pipeline.binding<storage_buffer>, #hal.pipeline.binding<storage_buffer>, #hal.pipeline.binding<storage_buffer>, #hal.pipeline.binding<storage_buffer>]>) binding(2) : !iree_tensor_ext.dispatch.tensor<readonly:tensor<20x4096x64xf32>>
  %6 = hal.interface.binding.subspan layout(<bindings = [#hal.pipeline.binding<storage_buffer>, #hal.pipeline.binding<storage_buffer>, #hal.pipeline.binding<storage_buffer>, #hal.pipeline.binding<storage_buffer>]>) binding(3) : memref<20x4096x64xf32, #hal.descriptor_type<storage_buffer>>
  %7 = hal.interface.binding.subspan layout(<bindings = [#hal.pipeline.binding<storage_buffer>, #hal.pipeline.binding<storage_buffer>, #hal.pipeline.binding<storage_buffer>, #hal.pipeline.binding<storage_buffer>]>) binding(3) : !iree_tensor_ext.dispatch.tensor<writeonly:tensor<20x4096x64xf32>>
  %8 = iree_codegen.load_from_buffer %0 : memref<20x4096x64xf32, #hal.descriptor_type<storage_buffer>> -> tensor<20x4096x64xf32>
  %9 = iree_codegen.load_from_buffer %2 : memref<20x4096x64xf32, #hal.descriptor_type<storage_buffer>> -> tensor<20x4096x64xf32>
  %10 = iree_codegen.load_from_buffer %4 : memref<20x4096x64xf32, #hal.descriptor_type<storage_buffer>> -> tensor<20x4096x64xf32>
  %11 = tensor.empty() : tensor<20x4096x64xf32>
  %12 = scf.forall (%arg0, %arg1, %arg2, %arg3) = (0, 0, 0, 0) to (20, 4096, 64, 4096) step (1, 8, 8, 8) shared_outs(%arg4 = %11) -> (tensor<20x4096x64xf32>) {
    %extracted_slice = tensor.extract_slice %8[%arg0, %arg1, 0] [1, 8, 64] [1, 1, 1] : tensor<20x4096x64xf32> to tensor<1x8x64xf32>
    %extracted_slice_1 = tensor.extract_slice %9[%arg0, %arg3, 0] [1, 8, 64] [1, 1, 1] : tensor<20x4096x64xf32> to tensor<1x8x64xf32>
    %13 = tensor.empty() : tensor<1x8x8xf32>
    %14 = linalg.generic {indexing_maps = [affine_map<(d0, d1, d2, d3) -> (d0, d1, d3)>, affine_map<(d0, d1, d2, d3) -> (d0, d2, d3)>, affine_map<(d0, d1, d2, d3) -> (d0, d1, d2)>], iterator_types = ["parallel", "parallel", "parallel", "reduction"]} ins(%extracted_slice, %extracted_slice_1 : tensor<1x8x64xf32>, tensor<1x8x64xf32>) outs(%13 : tensor<1x8x8xf32>) {
    ^bb0(%in: f32, %in_4: f32, %out: f32):
      %23 = arith.mulf %in, %in_4 : f32
      %24 = arith.addf %23, %out : f32
      linalg.yield %24 : f32
    } -> tensor<1x8x8xf32>
    %extracted_slice_2 = tensor.extract_slice %10[%arg0, %arg3, %arg2] [1, 8, 8] [1, 1, 1] : tensor<20x4096x64xf32> to tensor<1x8x8xf32>
    %15 = tensor.empty() : tensor<1x8xf32>
    %16 = linalg.fill ins(%cst : f32) outs(%15 : tensor<1x8xf32>) -> tensor<1x8xf32>
    %17 = tensor.empty() : tensor<1x8xf32>
    %18 = linalg.fill ins(%cst_0 : f32) outs(%17 : tensor<1x8xf32>) -> tensor<1x8xf32>
    %19 = tensor.empty() : tensor<1x8x8xf32>
    %20 = linalg.fill ins(%cst_0 : f32) outs(%19 : tensor<1x8x8xf32>) -> tensor<1x8x8xf32>
    %21:3 = iree_linalg_ext.exp_reduction{indexing_maps = [affine_map<(d0, d1, d2, d3) -> (d0, d1, d3)>, affine_map<(d0, d1, d2, d3) -> (d0, d3, d2)>, affine_map<(d0, d1, d2, d3) -> (d0, d1)>, affine_map<(d0, d1, d2, d3) -> (d0, d1)>, affine_map<(d0, d1, d2, d3) -> (d0, d1, d2)>], iterator_types = [#iree_linalg_ext.iterator_type<parallel>, #iree_linalg_ext.iterator_type<parallel>, #iree_linalg_ext.iterator_type<parallel>, #iree_linalg_ext.iterator_type<reduction>], exp_reduced_operands = [1, 2]} {lowering_config = #iree_cpu.lowering_config<distribution = [1, 8, 8, 8], vector_common_parallel = [0, 0, 8, 16], vector_reduction = [0, 0, 0, 16]>} ins(%14, %extracted_slice_2 : tensor<1x8x8xf32>, tensor<1x8x8xf32>) outs(%16, %18, %20 : tensor<1x8xf32>, tensor<1x8xf32>, tensor<1x8x8xf32>) {
    ^bb0(%arg5: f32, %arg6: f32, %arg7: f32, %arg8: f32, %arg9: f32):
      %23 = arith.addf %arg5, %arg8 : f32
      %24 = arith.mulf %arg5, %arg6 : f32
      %25 = arith.addf %24, %arg9 : f32
      linalg.yield %arg7, %23, %25 : f32, f32, f32
    } -> tensor<1x8xf32>, tensor<1x8xf32>, tensor<1x8x8xf32>
    %extracted_slice_3 = tensor.extract_slice %arg4[%arg0, %arg1, %arg2] [1, 8, 8] [1, 1, 1] : tensor<20x4096x64xf32> to tensor<1x8x8xf32>
    %22 = linalg.generic {indexing_maps = [affine_map<(d0, d1, d2) -> (d0, d1, d2)>, affine_map<(d0, d1, d2) -> (d0, d1)>, affine_map<(d0, d1, d2) -> (d0, d1, d2)>], iterator_types = ["parallel", "parallel", "parallel"]} ins(%21#2, %21#1 : tensor<1x8x8xf32>, tensor<1x8xf32>) outs(%extracted_slice_3 : tensor<1x8x8xf32>) {
    ^bb0(%in: f32, %in_4: f32, %out: f32):
      %23 = arith.divf %in, %in_4 : f32
      linalg.yield %23 : f32
    } -> tensor<1x8x8xf32>
    scf.forall.in_parallel {
      tensor.parallel_insert_slice %22 into %arg4[%arg0, %arg1, %arg2] [1, 8, 8] [1, 1, 1] : tensor<1x8x8xf32> into tensor<20x4096x64xf32>
    }
  } {mapping = [#iree_codegen.workgroup_mapping<z:1>, #iree_codegen.workgroup_mapping<z>, #iree_codegen.workgroup_mapping<y>, #iree_codegen.workgroup_mapping<x>]}
  iree_codegen.store_to_buffer %12, %6 : tensor<20x4096x64xf32> into memref<20x4096x64xf32, #hal.descriptor_type<storage_buffer>>
  return
}

// -----// IR Dump After CombineLayoutTransformationPass (iree-codegen-combine-layout-transformation) //----- //
func.func @no_peel_static_matmul() attributes {hal.executable.target = #hal.executable.target<"llvm-cpu", "system-elf-x86_64", {native_vector_size = 64 : i64}>, translation_info = #iree_codegen.translation_info<pipeline = CPULinalgExtTileAndVectorize>} {
  %cst = arith.constant -3.40282347E+38 : f32
  %cst_0 = arith.constant 0.000000e+00 : f32
  %0 = hal.interface.binding.subspan layout(<bindings = [#hal.pipeline.binding<storage_buffer>, #hal.pipeline.binding<storage_buffer>, #hal.pipeline.binding<storage_buffer>, #hal.pipeline.binding<storage_buffer>]>) binding(0) : memref<20x4096x64xf32, #hal.descriptor_type<storage_buffer>>
  %1 = hal.interface.binding.subspan layout(<bindings = [#hal.pipeline.binding<storage_buffer>, #hal.pipeline.binding<storage_buffer>, #hal.pipeline.binding<storage_buffer>, #hal.pipeline.binding<storage_buffer>]>) binding(1) : memref<20x4096x64xf32, #hal.descriptor_type<storage_buffer>>
  %2 = hal.interface.binding.subspan layout(<bindings = [#hal.pipeline.binding<storage_buffer>, #hal.pipeline.binding<storage_buffer>, #hal.pipeline.binding<storage_buffer>, #hal.pipeline.binding<storage_buffer>]>) binding(2) : memref<20x4096x64xf32, #hal.descriptor_type<storage_buffer>>
  %3 = hal.interface.binding.subspan layout(<bindings = [#hal.pipeline.binding<storage_buffer>, #hal.pipeline.binding<storage_buffer>, #hal.pipeline.binding<storage_buffer>, #hal.pipeline.binding<storage_buffer>]>) binding(3) : memref<20x4096x64xf32, #hal.descriptor_type<storage_buffer>>
  %4 = iree_codegen.load_from_buffer %0 : memref<20x4096x64xf32, #hal.descriptor_type<storage_buffer>> -> tensor<20x4096x64xf32>
  %5 = iree_codegen.load_from_buffer %1 : memref<20x4096x64xf32, #hal.descriptor_type<storage_buffer>> -> tensor<20x4096x64xf32>
  %6 = iree_codegen.load_from_buffer %2 : memref<20x4096x64xf32, #hal.descriptor_type<storage_buffer>> -> tensor<20x4096x64xf32>
  %7 = tensor.empty() : tensor<20x4096x64xf32>
  %8 = scf.forall (%arg0, %arg1, %arg2, %arg3) = (0, 0, 0, 0) to (20, 4096, 64, 4096) step (1, 8, 8, 8) shared_outs(%arg4 = %7) -> (tensor<20x4096x64xf32>) {
    %extracted_slice = tensor.extract_slice %4[%arg0, %arg1, 0] [1, 8, 64] [1, 1, 1] : tensor<20x4096x64xf32> to tensor<1x8x64xf32>
    %extracted_slice_1 = tensor.extract_slice %5[%arg0, %arg3, 0] [1, 8, 64] [1, 1, 1] : tensor<20x4096x64xf32> to tensor<1x8x64xf32>
    %9 = tensor.empty() : tensor<1x8x8xf32>
    %10 = linalg.generic {indexing_maps = [affine_map<(d0, d1, d2, d3) -> (d0, d1, d3)>, affine_map<(d0, d1, d2, d3) -> (d0, d2, d3)>, affine_map<(d0, d1, d2, d3) -> (d0, d1, d2)>], iterator_types = ["parallel", "parallel", "parallel", "reduction"]} ins(%extracted_slice, %extracted_slice_1 : tensor<1x8x64xf32>, tensor<1x8x64xf32>) outs(%9 : tensor<1x8x8xf32>) {
    ^bb0(%in: f32, %in_4: f32, %out: f32):
      %19 = arith.mulf %in, %in_4 : f32
      %20 = arith.addf %19, %out : f32
      linalg.yield %20 : f32
    } -> tensor<1x8x8xf32>
    %extracted_slice_2 = tensor.extract_slice %6[%arg0, %arg3, %arg2] [1, 8, 8] [1, 1, 1] : tensor<20x4096x64xf32> to tensor<1x8x8xf32>
    %11 = tensor.empty() : tensor<1x8xf32>
    %12 = linalg.fill ins(%cst : f32) outs(%11 : tensor<1x8xf32>) -> tensor<1x8xf32>
    %13 = tensor.empty() : tensor<1x8xf32>
    %14 = linalg.fill ins(%cst_0 : f32) outs(%13 : tensor<1x8xf32>) -> tensor<1x8xf32>
    %15 = tensor.empty() : tensor<1x8x8xf32>
    %16 = linalg.fill ins(%cst_0 : f32) outs(%15 : tensor<1x8x8xf32>) -> tensor<1x8x8xf32>
    %17:3 = iree_linalg_ext.exp_reduction{indexing_maps = [affine_map<(d0, d1, d2, d3) -> (d0, d1, d3)>, affine_map<(d0, d1, d2, d3) -> (d0, d3, d2)>, affine_map<(d0, d1, d2, d3) -> (d0, d1)>, affine_map<(d0, d1, d2, d3) -> (d0, d1)>, affine_map<(d0, d1, d2, d3) -> (d0, d1, d2)>], iterator_types = [#iree_linalg_ext.iterator_type<parallel>, #iree_linalg_ext.iterator_type<parallel>, #iree_linalg_ext.iterator_type<parallel>, #iree_linalg_ext.iterator_type<reduction>], exp_reduced_operands = [1, 2]} {lowering_config = #iree_cpu.lowering_config<distribution = [1, 8, 8, 8], vector_common_parallel = [0, 0, 8, 16], vector_reduction = [0, 0, 0, 16]>} ins(%10, %extracted_slice_2 : tensor<1x8x8xf32>, tensor<1x8x8xf32>) outs(%12, %14, %16 : tensor<1x8xf32>, tensor<1x8xf32>, tensor<1x8x8xf32>) {
    ^bb0(%arg5: f32, %arg6: f32, %arg7: f32, %arg8: f32, %arg9: f32):
      %19 = arith.addf %arg5, %arg8 : f32
      %20 = arith.mulf %arg5, %arg6 : f32
      %21 = arith.addf %20, %arg9 : f32
      linalg.yield %arg7, %19, %21 : f32, f32, f32
    } -> tensor<1x8xf32>, tensor<1x8xf32>, tensor<1x8x8xf32>
    %extracted_slice_3 = tensor.extract_slice %arg4[%arg0, %arg1, %arg2] [1, 8, 8] [1, 1, 1] : tensor<20x4096x64xf32> to tensor<1x8x8xf32>
    %18 = linalg.generic {indexing_maps = [affine_map<(d0, d1, d2) -> (d0, d1, d2)>, affine_map<(d0, d1, d2) -> (d0, d1)>, affine_map<(d0, d1, d2) -> (d0, d1, d2)>], iterator_types = ["parallel", "parallel", "parallel"]} ins(%17#2, %17#1 : tensor<1x8x8xf32>, tensor<1x8xf32>) outs(%extracted_slice_3 : tensor<1x8x8xf32>) {
    ^bb0(%in: f32, %in_4: f32, %out: f32):
      %19 = arith.divf %in, %in_4 : f32
      linalg.yield %19 : f32
    } -> tensor<1x8x8xf32>
    scf.forall.in_parallel {
      tensor.parallel_insert_slice %18 into %arg4[%arg0, %arg1, %arg2] [1, 8, 8] [1, 1, 1] : tensor<1x8x8xf32> into tensor<20x4096x64xf32>
    }
  } {mapping = [#iree_codegen.workgroup_mapping<z:1>, #iree_codegen.workgroup_mapping<z>, #iree_codegen.workgroup_mapping<y>, #iree_codegen.workgroup_mapping<x>]}
  iree_codegen.store_to_buffer %8, %3 : tensor<20x4096x64xf32> into memref<20x4096x64xf32, #hal.descriptor_type<storage_buffer>>
  return
}

// -----// IR Dump After ConfigTrackingCanonicalizerPass (iree-codegen-config-tracking-canonicalize) //----- //
func.func @no_peel_static_matmul() attributes {hal.executable.target = #hal.executable.target<"llvm-cpu", "system-elf-x86_64", {native_vector_size = 64 : i64}>, translation_info = #iree_codegen.translation_info<pipeline = CPULinalgExtTileAndVectorize>} {
  %cst = arith.constant -3.40282347E+38 : f32
  %cst_0 = arith.constant 0.000000e+00 : f32
  %0 = hal.interface.binding.subspan layout(<bindings = [#hal.pipeline.binding<storage_buffer>, #hal.pipeline.binding<storage_buffer>, #hal.pipeline.binding<storage_buffer>, #hal.pipeline.binding<storage_buffer>]>) binding(0) : memref<20x4096x64xf32, #hal.descriptor_type<storage_buffer>>
  %1 = hal.interface.binding.subspan layout(<bindings = [#hal.pipeline.binding<storage_buffer>, #hal.pipeline.binding<storage_buffer>, #hal.pipeline.binding<storage_buffer>, #hal.pipeline.binding<storage_buffer>]>) binding(1) : memref<20x4096x64xf32, #hal.descriptor_type<storage_buffer>>
  %2 = hal.interface.binding.subspan layout(<bindings = [#hal.pipeline.binding<storage_buffer>, #hal.pipeline.binding<storage_buffer>, #hal.pipeline.binding<storage_buffer>, #hal.pipeline.binding<storage_buffer>]>) binding(2) : memref<20x4096x64xf32, #hal.descriptor_type<storage_buffer>>
  %3 = hal.interface.binding.subspan layout(<bindings = [#hal.pipeline.binding<storage_buffer>, #hal.pipeline.binding<storage_buffer>, #hal.pipeline.binding<storage_buffer>, #hal.pipeline.binding<storage_buffer>]>) binding(3) : memref<20x4096x64xf32, #hal.descriptor_type<storage_buffer>>
  %4 = iree_codegen.load_from_buffer %0 : memref<20x4096x64xf32, #hal.descriptor_type<storage_buffer>> -> tensor<20x4096x64xf32>
  %5 = iree_codegen.load_from_buffer %1 : memref<20x4096x64xf32, #hal.descriptor_type<storage_buffer>> -> tensor<20x4096x64xf32>
  %6 = iree_codegen.load_from_buffer %2 : memref<20x4096x64xf32, #hal.descriptor_type<storage_buffer>> -> tensor<20x4096x64xf32>
  %7 = tensor.empty() : tensor<20x4096x64xf32>
  %8 = scf.forall (%arg0, %arg1, %arg2, %arg3) = (0, 0, 0, 0) to (20, 4096, 64, 4096) step (1, 8, 8, 8) shared_outs(%arg4 = %7) -> (tensor<20x4096x64xf32>) {
    %extracted_slice = tensor.extract_slice %4[%arg0, %arg1, 0] [1, 8, 64] [1, 1, 1] : tensor<20x4096x64xf32> to tensor<1x8x64xf32>
    %extracted_slice_1 = tensor.extract_slice %5[%arg0, %arg3, 0] [1, 8, 64] [1, 1, 1] : tensor<20x4096x64xf32> to tensor<1x8x64xf32>
    %9 = tensor.empty() : tensor<1x8x8xf32>
    %10 = linalg.generic {indexing_maps = [affine_map<(d0, d1, d2, d3) -> (d0, d1, d3)>, affine_map<(d0, d1, d2, d3) -> (d0, d2, d3)>, affine_map<(d0, d1, d2, d3) -> (d0, d1, d2)>], iterator_types = ["parallel", "parallel", "parallel", "reduction"]} ins(%extracted_slice, %extracted_slice_1 : tensor<1x8x64xf32>, tensor<1x8x64xf32>) outs(%9 : tensor<1x8x8xf32>) {
    ^bb0(%in: f32, %in_4: f32, %out: f32):
      %19 = arith.mulf %in, %in_4 : f32
      %20 = arith.addf %19, %out : f32
      linalg.yield %20 : f32
    } -> tensor<1x8x8xf32>
    %extracted_slice_2 = tensor.extract_slice %6[%arg0, %arg3, %arg2] [1, 8, 8] [1, 1, 1] : tensor<20x4096x64xf32> to tensor<1x8x8xf32>
    %11 = tensor.empty() : tensor<1x8xf32>
    %12 = linalg.fill ins(%cst : f32) outs(%11 : tensor<1x8xf32>) -> tensor<1x8xf32>
    %13 = tensor.empty() : tensor<1x8xf32>
    %14 = linalg.fill ins(%cst_0 : f32) outs(%13 : tensor<1x8xf32>) -> tensor<1x8xf32>
    %15 = tensor.empty() : tensor<1x8x8xf32>
    %16 = linalg.fill ins(%cst_0 : f32) outs(%15 : tensor<1x8x8xf32>) -> tensor<1x8x8xf32>
    %17:3 = iree_linalg_ext.exp_reduction{indexing_maps = [affine_map<(d0, d1, d2, d3) -> (d0, d1, d3)>, affine_map<(d0, d1, d2, d3) -> (d0, d3, d2)>, affine_map<(d0, d1, d2, d3) -> (d0, d1)>, affine_map<(d0, d1, d2, d3) -> (d0, d1)>, affine_map<(d0, d1, d2, d3) -> (d0, d1, d2)>], iterator_types = [#iree_linalg_ext.iterator_type<parallel>, #iree_linalg_ext.iterator_type<parallel>, #iree_linalg_ext.iterator_type<parallel>, #iree_linalg_ext.iterator_type<reduction>], exp_reduced_operands = [1, 2]} {lowering_config = #iree_cpu.lowering_config<distribution = [1, 8, 8, 8], vector_common_parallel = [0, 0, 8, 16], vector_reduction = [0, 0, 0, 16]>} ins(%10, %extracted_slice_2 : tensor<1x8x8xf32>, tensor<1x8x8xf32>) outs(%12, %14, %16 : tensor<1x8xf32>, tensor<1x8xf32>, tensor<1x8x8xf32>) {
    ^bb0(%arg5: f32, %arg6: f32, %arg7: f32, %arg8: f32, %arg9: f32):
      %19 = arith.addf %arg5, %arg8 : f32
      %20 = arith.mulf %arg5, %arg6 : f32
      %21 = arith.addf %20, %arg9 : f32
      linalg.yield %arg7, %19, %21 : f32, f32, f32
    } -> tensor<1x8xf32>, tensor<1x8xf32>, tensor<1x8x8xf32>
    %extracted_slice_3 = tensor.extract_slice %arg4[%arg0, %arg1, %arg2] [1, 8, 8] [1, 1, 1] : tensor<20x4096x64xf32> to tensor<1x8x8xf32>
    %18 = linalg.generic {indexing_maps = [affine_map<(d0, d1, d2) -> (d0, d1, d2)>, affine_map<(d0, d1, d2) -> (d0, d1)>, affine_map<(d0, d1, d2) -> (d0, d1, d2)>], iterator_types = ["parallel", "parallel", "parallel"]} ins(%17#2, %17#1 : tensor<1x8x8xf32>, tensor<1x8xf32>) outs(%extracted_slice_3 : tensor<1x8x8xf32>) {
    ^bb0(%in: f32, %in_4: f32, %out: f32):
      %19 = arith.divf %in, %in_4 : f32
      linalg.yield %19 : f32
    } -> tensor<1x8x8xf32>
    scf.forall.in_parallel {
      tensor.parallel_insert_slice %18 into %arg4[%arg0, %arg1, %arg2] [1, 8, 8] [1, 1, 1] : tensor<1x8x8xf32> into tensor<20x4096x64xf32>
    }
  } {mapping = [#iree_codegen.workgroup_mapping<z:1>, #iree_codegen.workgroup_mapping<z>, #iree_codegen.workgroup_mapping<y>, #iree_codegen.workgroup_mapping<x>]}
  iree_codegen.store_to_buffer %8, %3 : tensor<20x4096x64xf32> into memref<20x4096x64xf32, #hal.descriptor_type<storage_buffer>>
  return
}

// -----// IR Dump After CSE (cse) //----- //
func.func @no_peel_static_matmul() attributes {hal.executable.target = #hal.executable.target<"llvm-cpu", "system-elf-x86_64", {native_vector_size = 64 : i64}>, translation_info = #iree_codegen.translation_info<pipeline = CPULinalgExtTileAndVectorize>} {
  %cst = arith.constant -3.40282347E+38 : f32
  %cst_0 = arith.constant 0.000000e+00 : f32
  %0 = hal.interface.binding.subspan layout(<bindings = [#hal.pipeline.binding<storage_buffer>, #hal.pipeline.binding<storage_buffer>, #hal.pipeline.binding<storage_buffer>, #hal.pipeline.binding<storage_buffer>]>) binding(0) : memref<20x4096x64xf32, #hal.descriptor_type<storage_buffer>>
  %1 = hal.interface.binding.subspan layout(<bindings = [#hal.pipeline.binding<storage_buffer>, #hal.pipeline.binding<storage_buffer>, #hal.pipeline.binding<storage_buffer>, #hal.pipeline.binding<storage_buffer>]>) binding(1) : memref<20x4096x64xf32, #hal.descriptor_type<storage_buffer>>
  %2 = hal.interface.binding.subspan layout(<bindings = [#hal.pipeline.binding<storage_buffer>, #hal.pipeline.binding<storage_buffer>, #hal.pipeline.binding<storage_buffer>, #hal.pipeline.binding<storage_buffer>]>) binding(2) : memref<20x4096x64xf32, #hal.descriptor_type<storage_buffer>>
  %3 = hal.interface.binding.subspan layout(<bindings = [#hal.pipeline.binding<storage_buffer>, #hal.pipeline.binding<storage_buffer>, #hal.pipeline.binding<storage_buffer>, #hal.pipeline.binding<storage_buffer>]>) binding(3) : memref<20x4096x64xf32, #hal.descriptor_type<storage_buffer>>
  %4 = iree_codegen.load_from_buffer %0 : memref<20x4096x64xf32, #hal.descriptor_type<storage_buffer>> -> tensor<20x4096x64xf32>
  %5 = iree_codegen.load_from_buffer %1 : memref<20x4096x64xf32, #hal.descriptor_type<storage_buffer>> -> tensor<20x4096x64xf32>
  %6 = iree_codegen.load_from_buffer %2 : memref<20x4096x64xf32, #hal.descriptor_type<storage_buffer>> -> tensor<20x4096x64xf32>
  %7 = tensor.empty() : tensor<20x4096x64xf32>
  %8 = scf.forall (%arg0, %arg1, %arg2, %arg3) = (0, 0, 0, 0) to (20, 4096, 64, 4096) step (1, 8, 8, 8) shared_outs(%arg4 = %7) -> (tensor<20x4096x64xf32>) {
    %extracted_slice = tensor.extract_slice %4[%arg0, %arg1, 0] [1, 8, 64] [1, 1, 1] : tensor<20x4096x64xf32> to tensor<1x8x64xf32>
    %extracted_slice_1 = tensor.extract_slice %5[%arg0, %arg3, 0] [1, 8, 64] [1, 1, 1] : tensor<20x4096x64xf32> to tensor<1x8x64xf32>
    %9 = tensor.empty() : tensor<1x8x8xf32>
    %10 = linalg.generic {indexing_maps = [affine_map<(d0, d1, d2, d3) -> (d0, d1, d3)>, affine_map<(d0, d1, d2, d3) -> (d0, d2, d3)>, affine_map<(d0, d1, d2, d3) -> (d0, d1, d2)>], iterator_types = ["parallel", "parallel", "parallel", "reduction"]} ins(%extracted_slice, %extracted_slice_1 : tensor<1x8x64xf32>, tensor<1x8x64xf32>) outs(%9 : tensor<1x8x8xf32>) {
    ^bb0(%in: f32, %in_4: f32, %out: f32):
      %17 = arith.mulf %in, %in_4 : f32
      %18 = arith.addf %17, %out : f32
      linalg.yield %18 : f32
    } -> tensor<1x8x8xf32>
    %extracted_slice_2 = tensor.extract_slice %6[%arg0, %arg3, %arg2] [1, 8, 8] [1, 1, 1] : tensor<20x4096x64xf32> to tensor<1x8x8xf32>
    %11 = tensor.empty() : tensor<1x8xf32>
    %12 = linalg.fill ins(%cst : f32) outs(%11 : tensor<1x8xf32>) -> tensor<1x8xf32>
    %13 = linalg.fill ins(%cst_0 : f32) outs(%11 : tensor<1x8xf32>) -> tensor<1x8xf32>
    %14 = linalg.fill ins(%cst_0 : f32) outs(%9 : tensor<1x8x8xf32>) -> tensor<1x8x8xf32>
    %15:3 = iree_linalg_ext.exp_reduction{indexing_maps = [affine_map<(d0, d1, d2, d3) -> (d0, d1, d3)>, affine_map<(d0, d1, d2, d3) -> (d0, d3, d2)>, affine_map<(d0, d1, d2, d3) -> (d0, d1)>, affine_map<(d0, d1, d2, d3) -> (d0, d1)>, affine_map<(d0, d1, d2, d3) -> (d0, d1, d2)>], iterator_types = [#iree_linalg_ext.iterator_type<parallel>, #iree_linalg_ext.iterator_type<parallel>, #iree_linalg_ext.iterator_type<parallel>, #iree_linalg_ext.iterator_type<reduction>], exp_reduced_operands = [1, 2]} {lowering_config = #iree_cpu.lowering_config<distribution = [1, 8, 8, 8], vector_common_parallel = [0, 0, 8, 16], vector_reduction = [0, 0, 0, 16]>} ins(%10, %extracted_slice_2 : tensor<1x8x8xf32>, tensor<1x8x8xf32>) outs(%12, %13, %14 : tensor<1x8xf32>, tensor<1x8xf32>, tensor<1x8x8xf32>) {
    ^bb0(%arg5: f32, %arg6: f32, %arg7: f32, %arg8: f32, %arg9: f32):
      %17 = arith.addf %arg5, %arg8 : f32
      %18 = arith.mulf %arg5, %arg6 : f32
      %19 = arith.addf %18, %arg9 : f32
      linalg.yield %arg7, %17, %19 : f32, f32, f32
    } -> tensor<1x8xf32>, tensor<1x8xf32>, tensor<1x8x8xf32>
    %extracted_slice_3 = tensor.extract_slice %arg4[%arg0, %arg1, %arg2] [1, 8, 8] [1, 1, 1] : tensor<20x4096x64xf32> to tensor<1x8x8xf32>
    %16 = linalg.generic {indexing_maps = [affine_map<(d0, d1, d2) -> (d0, d1, d2)>, affine_map<(d0, d1, d2) -> (d0, d1)>, affine_map<(d0, d1, d2) -> (d0, d1, d2)>], iterator_types = ["parallel", "parallel", "parallel"]} ins(%15#2, %15#1 : tensor<1x8x8xf32>, tensor<1x8xf32>) outs(%extracted_slice_3 : tensor<1x8x8xf32>) {
    ^bb0(%in: f32, %in_4: f32, %out: f32):
      %17 = arith.divf %in, %in_4 : f32
      linalg.yield %17 : f32
    } -> tensor<1x8x8xf32>
    scf.forall.in_parallel {
      tensor.parallel_insert_slice %16 into %arg4[%arg0, %arg1, %arg2] [1, 8, 8] [1, 1, 1] : tensor<1x8x8xf32> into tensor<20x4096x64xf32>
    }
  } {mapping = [#iree_codegen.workgroup_mapping<z:1>, #iree_codegen.workgroup_mapping<z>, #iree_codegen.workgroup_mapping<y>, #iree_codegen.workgroup_mapping<x>]}
  iree_codegen.store_to_buffer %8, %3 : tensor<20x4096x64xf32> into memref<20x4096x64xf32, #hal.descriptor_type<storage_buffer>>
  return
}

// -----// IR Dump After FuseTensorPadWithConsumerPass (iree-codegen-fuse-tensor-pad-with-consumer) //----- //
func.func @no_peel_static_matmul() attributes {hal.executable.target = #hal.executable.target<"llvm-cpu", "system-elf-x86_64", {native_vector_size = 64 : i64}>, translation_info = #iree_codegen.translation_info<pipeline = CPULinalgExtTileAndVectorize>} {
  %cst = arith.constant -3.40282347E+38 : f32
  %cst_0 = arith.constant 0.000000e+00 : f32
  %0 = hal.interface.binding.subspan layout(<bindings = [#hal.pipeline.binding<storage_buffer>, #hal.pipeline.binding<storage_buffer>, #hal.pipeline.binding<storage_buffer>, #hal.pipeline.binding<storage_buffer>]>) binding(0) : memref<20x4096x64xf32, #hal.descriptor_type<storage_buffer>>
  %1 = hal.interface.binding.subspan layout(<bindings = [#hal.pipeline.binding<storage_buffer>, #hal.pipeline.binding<storage_buffer>, #hal.pipeline.binding<storage_buffer>, #hal.pipeline.binding<storage_buffer>]>) binding(1) : memref<20x4096x64xf32, #hal.descriptor_type<storage_buffer>>
  %2 = hal.interface.binding.subspan layout(<bindings = [#hal.pipeline.binding<storage_buffer>, #hal.pipeline.binding<storage_buffer>, #hal.pipeline.binding<storage_buffer>, #hal.pipeline.binding<storage_buffer>]>) binding(2) : memref<20x4096x64xf32, #hal.descriptor_type<storage_buffer>>
  %3 = hal.interface.binding.subspan layout(<bindings = [#hal.pipeline.binding<storage_buffer>, #hal.pipeline.binding<storage_buffer>, #hal.pipeline.binding<storage_buffer>, #hal.pipeline.binding<storage_buffer>]>) binding(3) : memref<20x4096x64xf32, #hal.descriptor_type<storage_buffer>>
  %4 = iree_codegen.load_from_buffer %0 : memref<20x4096x64xf32, #hal.descriptor_type<storage_buffer>> -> tensor<20x4096x64xf32>
  %5 = iree_codegen.load_from_buffer %1 : memref<20x4096x64xf32, #hal.descriptor_type<storage_buffer>> -> tensor<20x4096x64xf32>
  %6 = iree_codegen.load_from_buffer %2 : memref<20x4096x64xf32, #hal.descriptor_type<storage_buffer>> -> tensor<20x4096x64xf32>
  %7 = tensor.empty() : tensor<20x4096x64xf32>
  %8 = scf.forall (%arg0, %arg1, %arg2, %arg3) = (0, 0, 0, 0) to (20, 4096, 64, 4096) step (1, 8, 8, 8) shared_outs(%arg4 = %7) -> (tensor<20x4096x64xf32>) {
    %extracted_slice = tensor.extract_slice %4[%arg0, %arg1, 0] [1, 8, 64] [1, 1, 1] : tensor<20x4096x64xf32> to tensor<1x8x64xf32>
    %extracted_slice_1 = tensor.extract_slice %5[%arg0, %arg3, 0] [1, 8, 64] [1, 1, 1] : tensor<20x4096x64xf32> to tensor<1x8x64xf32>
    %9 = tensor.empty() : tensor<1x8x8xf32>
    %10 = linalg.generic {indexing_maps = [affine_map<(d0, d1, d2, d3) -> (d0, d1, d3)>, affine_map<(d0, d1, d2, d3) -> (d0, d2, d3)>, affine_map<(d0, d1, d2, d3) -> (d0, d1, d2)>], iterator_types = ["parallel", "parallel", "parallel", "reduction"]} ins(%extracted_slice, %extracted_slice_1 : tensor<1x8x64xf32>, tensor<1x8x64xf32>) outs(%9 : tensor<1x8x8xf32>) {
    ^bb0(%in: f32, %in_4: f32, %out: f32):
      %17 = arith.mulf %in, %in_4 : f32
      %18 = arith.addf %17, %out : f32
      linalg.yield %18 : f32
    } -> tensor<1x8x8xf32>
    %extracted_slice_2 = tensor.extract_slice %6[%arg0, %arg3, %arg2] [1, 8, 8] [1, 1, 1] : tensor<20x4096x64xf32> to tensor<1x8x8xf32>
    %11 = tensor.empty() : tensor<1x8xf32>
    %12 = linalg.fill ins(%cst : f32) outs(%11 : tensor<1x8xf32>) -> tensor<1x8xf32>
    %13 = linalg.fill ins(%cst_0 : f32) outs(%11 : tensor<1x8xf32>) -> tensor<1x8xf32>
    %14 = linalg.fill ins(%cst_0 : f32) outs(%9 : tensor<1x8x8xf32>) -> tensor<1x8x8xf32>
    %15:3 = iree_linalg_ext.exp_reduction{indexing_maps = [affine_map<(d0, d1, d2, d3) -> (d0, d1, d3)>, affine_map<(d0, d1, d2, d3) -> (d0, d3, d2)>, affine_map<(d0, d1, d2, d3) -> (d0, d1)>, affine_map<(d0, d1, d2, d3) -> (d0, d1)>, affine_map<(d0, d1, d2, d3) -> (d0, d1, d2)>], iterator_types = [#iree_linalg_ext.iterator_type<parallel>, #iree_linalg_ext.iterator_type<parallel>, #iree_linalg_ext.iterator_type<parallel>, #iree_linalg_ext.iterator_type<reduction>], exp_reduced_operands = [1, 2]} {lowering_config = #iree_cpu.lowering_config<distribution = [1, 8, 8, 8], vector_common_parallel = [0, 0, 8, 16], vector_reduction = [0, 0, 0, 16]>} ins(%10, %extracted_slice_2 : tensor<1x8x8xf32>, tensor<1x8x8xf32>) outs(%12, %13, %14 : tensor<1x8xf32>, tensor<1x8xf32>, tensor<1x8x8xf32>) {
    ^bb0(%arg5: f32, %arg6: f32, %arg7: f32, %arg8: f32, %arg9: f32):
      %17 = arith.addf %arg5, %arg8 : f32
      %18 = arith.mulf %arg5, %arg6 : f32
      %19 = arith.addf %18, %arg9 : f32
      linalg.yield %arg7, %17, %19 : f32, f32, f32
    } -> tensor<1x8xf32>, tensor<1x8xf32>, tensor<1x8x8xf32>
    %extracted_slice_3 = tensor.extract_slice %arg4[%arg0, %arg1, %arg2] [1, 8, 8] [1, 1, 1] : tensor<20x4096x64xf32> to tensor<1x8x8xf32>
    %16 = linalg.generic {indexing_maps = [affine_map<(d0, d1, d2) -> (d0, d1, d2)>, affine_map<(d0, d1, d2) -> (d0, d1)>, affine_map<(d0, d1, d2) -> (d0, d1, d2)>], iterator_types = ["parallel", "parallel", "parallel"]} ins(%15#2, %15#1 : tensor<1x8x8xf32>, tensor<1x8xf32>) outs(%extracted_slice_3 : tensor<1x8x8xf32>) {
    ^bb0(%in: f32, %in_4: f32, %out: f32):
      %17 = arith.divf %in, %in_4 : f32
      linalg.yield %17 : f32
    } -> tensor<1x8x8xf32>
    scf.forall.in_parallel {
      tensor.parallel_insert_slice %16 into %arg4[%arg0, %arg1, %arg2] [1, 8, 8] [1, 1, 1] : tensor<1x8x8xf32> into tensor<20x4096x64xf32>
    }
  } {mapping = [#iree_codegen.workgroup_mapping<z:1>, #iree_codegen.workgroup_mapping<z>, #iree_codegen.workgroup_mapping<y>, #iree_codegen.workgroup_mapping<x>]}
  iree_codegen.store_to_buffer %8, %3 : tensor<20x4096x64xf32> into memref<20x4096x64xf32, #hal.descriptor_type<storage_buffer>>
  return
}

// -----// IR Dump After ConcretizePadResultShapePass (iree-codegen-concretize-pad-result-shape) //----- //
func.func @no_peel_static_matmul() attributes {hal.executable.target = #hal.executable.target<"llvm-cpu", "system-elf-x86_64", {native_vector_size = 64 : i64}>, translation_info = #iree_codegen.translation_info<pipeline = CPULinalgExtTileAndVectorize>} {
  %cst = arith.constant -3.40282347E+38 : f32
  %cst_0 = arith.constant 0.000000e+00 : f32
  %0 = hal.interface.binding.subspan layout(<bindings = [#hal.pipeline.binding<storage_buffer>, #hal.pipeline.binding<storage_buffer>, #hal.pipeline.binding<storage_buffer>, #hal.pipeline.binding<storage_buffer>]>) binding(0) : memref<20x4096x64xf32, #hal.descriptor_type<storage_buffer>>
  %1 = hal.interface.binding.subspan layout(<bindings = [#hal.pipeline.binding<storage_buffer>, #hal.pipeline.binding<storage_buffer>, #hal.pipeline.binding<storage_buffer>, #hal.pipeline.binding<storage_buffer>]>) binding(1) : memref<20x4096x64xf32, #hal.descriptor_type<storage_buffer>>
  %2 = hal.interface.binding.subspan layout(<bindings = [#hal.pipeline.binding<storage_buffer>, #hal.pipeline.binding<storage_buffer>, #hal.pipeline.binding<storage_buffer>, #hal.pipeline.binding<storage_buffer>]>) binding(2) : memref<20x4096x64xf32, #hal.descriptor_type<storage_buffer>>
  %3 = hal.interface.binding.subspan layout(<bindings = [#hal.pipeline.binding<storage_buffer>, #hal.pipeline.binding<storage_buffer>, #hal.pipeline.binding<storage_buffer>, #hal.pipeline.binding<storage_buffer>]>) binding(3) : memref<20x4096x64xf32, #hal.descriptor_type<storage_buffer>>
  %4 = iree_codegen.load_from_buffer %0 : memref<20x4096x64xf32, #hal.descriptor_type<storage_buffer>> -> tensor<20x4096x64xf32>
  %5 = iree_codegen.load_from_buffer %1 : memref<20x4096x64xf32, #hal.descriptor_type<storage_buffer>> -> tensor<20x4096x64xf32>
  %6 = iree_codegen.load_from_buffer %2 : memref<20x4096x64xf32, #hal.descriptor_type<storage_buffer>> -> tensor<20x4096x64xf32>
  %7 = tensor.empty() : tensor<20x4096x64xf32>
  %8 = scf.forall (%arg0, %arg1, %arg2, %arg3) = (0, 0, 0, 0) to (20, 4096, 64, 4096) step (1, 8, 8, 8) shared_outs(%arg4 = %7) -> (tensor<20x4096x64xf32>) {
    %extracted_slice = tensor.extract_slice %4[%arg0, %arg1, 0] [1, 8, 64] [1, 1, 1] : tensor<20x4096x64xf32> to tensor<1x8x64xf32>
    %extracted_slice_1 = tensor.extract_slice %5[%arg0, %arg3, 0] [1, 8, 64] [1, 1, 1] : tensor<20x4096x64xf32> to tensor<1x8x64xf32>
    %9 = tensor.empty() : tensor<1x8x8xf32>
    %10 = linalg.generic {indexing_maps = [affine_map<(d0, d1, d2, d3) -> (d0, d1, d3)>, affine_map<(d0, d1, d2, d3) -> (d0, d2, d3)>, affine_map<(d0, d1, d2, d3) -> (d0, d1, d2)>], iterator_types = ["parallel", "parallel", "parallel", "reduction"]} ins(%extracted_slice, %extracted_slice_1 : tensor<1x8x64xf32>, tensor<1x8x64xf32>) outs(%9 : tensor<1x8x8xf32>) {
    ^bb0(%in: f32, %in_4: f32, %out: f32):
      %17 = arith.mulf %in, %in_4 : f32
      %18 = arith.addf %17, %out : f32
      linalg.yield %18 : f32
    } -> tensor<1x8x8xf32>
    %extracted_slice_2 = tensor.extract_slice %6[%arg0, %arg3, %arg2] [1, 8, 8] [1, 1, 1] : tensor<20x4096x64xf32> to tensor<1x8x8xf32>
    %11 = tensor.empty() : tensor<1x8xf32>
    %12 = linalg.fill ins(%cst : f32) outs(%11 : tensor<1x8xf32>) -> tensor<1x8xf32>
    %13 = linalg.fill ins(%cst_0 : f32) outs(%11 : tensor<1x8xf32>) -> tensor<1x8xf32>
    %14 = linalg.fill ins(%cst_0 : f32) outs(%9 : tensor<1x8x8xf32>) -> tensor<1x8x8xf32>
    %15:3 = iree_linalg_ext.exp_reduction{indexing_maps = [affine_map<(d0, d1, d2, d3) -> (d0, d1, d3)>, affine_map<(d0, d1, d2, d3) -> (d0, d3, d2)>, affine_map<(d0, d1, d2, d3) -> (d0, d1)>, affine_map<(d0, d1, d2, d3) -> (d0, d1)>, affine_map<(d0, d1, d2, d3) -> (d0, d1, d2)>], iterator_types = [#iree_linalg_ext.iterator_type<parallel>, #iree_linalg_ext.iterator_type<parallel>, #iree_linalg_ext.iterator_type<parallel>, #iree_linalg_ext.iterator_type<reduction>], exp_reduced_operands = [1, 2]} {lowering_config = #iree_cpu.lowering_config<distribution = [1, 8, 8, 8], vector_common_parallel = [0, 0, 8, 16], vector_reduction = [0, 0, 0, 16]>} ins(%10, %extracted_slice_2 : tensor<1x8x8xf32>, tensor<1x8x8xf32>) outs(%12, %13, %14 : tensor<1x8xf32>, tensor<1x8xf32>, tensor<1x8x8xf32>) {
    ^bb0(%arg5: f32, %arg6: f32, %arg7: f32, %arg8: f32, %arg9: f32):
      %17 = arith.addf %arg5, %arg8 : f32
      %18 = arith.mulf %arg5, %arg6 : f32
      %19 = arith.addf %18, %arg9 : f32
      linalg.yield %arg7, %17, %19 : f32, f32, f32
    } -> tensor<1x8xf32>, tensor<1x8xf32>, tensor<1x8x8xf32>
    %extracted_slice_3 = tensor.extract_slice %arg4[%arg0, %arg1, %arg2] [1, 8, 8] [1, 1, 1] : tensor<20x4096x64xf32> to tensor<1x8x8xf32>
    %16 = linalg.generic {indexing_maps = [affine_map<(d0, d1, d2) -> (d0, d1, d2)>, affine_map<(d0, d1, d2) -> (d0, d1)>, affine_map<(d0, d1, d2) -> (d0, d1, d2)>], iterator_types = ["parallel", "parallel", "parallel"]} ins(%15#2, %15#1 : tensor<1x8x8xf32>, tensor<1x8xf32>) outs(%extracted_slice_3 : tensor<1x8x8xf32>) {
    ^bb0(%in: f32, %in_4: f32, %out: f32):
      %17 = arith.divf %in, %in_4 : f32
      linalg.yield %17 : f32
    } -> tensor<1x8x8xf32>
    scf.forall.in_parallel {
      tensor.parallel_insert_slice %16 into %arg4[%arg0, %arg1, %arg2] [1, 8, 8] [1, 1, 1] : tensor<1x8x8xf32> into tensor<20x4096x64xf32>
    }
  } {mapping = [#iree_codegen.workgroup_mapping<z:1>, #iree_codegen.workgroup_mapping<z>, #iree_codegen.workgroup_mapping<y>, #iree_codegen.workgroup_mapping<x>]}
  iree_codegen.store_to_buffer %8, %3 : tensor<20x4096x64xf32> into memref<20x4096x64xf32, #hal.descriptor_type<storage_buffer>>
  return
}

// -----// IR Dump After PropagateDispatchSizeBoundsPass (iree-codegen-propagate-dispatch-size-bounds) //----- //
func.func @no_peel_static_matmul() attributes {hal.executable.target = #hal.executable.target<"llvm-cpu", "system-elf-x86_64", {native_vector_size = 64 : i64}>, translation_info = #iree_codegen.translation_info<pipeline = CPULinalgExtTileAndVectorize>} {
  %cst = arith.constant -3.40282347E+38 : f32
  %cst_0 = arith.constant 0.000000e+00 : f32
  %0 = hal.interface.binding.subspan layout(<bindings = [#hal.pipeline.binding<storage_buffer>, #hal.pipeline.binding<storage_buffer>, #hal.pipeline.binding<storage_buffer>, #hal.pipeline.binding<storage_buffer>]>) binding(0) : memref<20x4096x64xf32, #hal.descriptor_type<storage_buffer>>
  %1 = hal.interface.binding.subspan layout(<bindings = [#hal.pipeline.binding<storage_buffer>, #hal.pipeline.binding<storage_buffer>, #hal.pipeline.binding<storage_buffer>, #hal.pipeline.binding<storage_buffer>]>) binding(1) : memref<20x4096x64xf32, #hal.descriptor_type<storage_buffer>>
  %2 = hal.interface.binding.subspan layout(<bindings = [#hal.pipeline.binding<storage_buffer>, #hal.pipeline.binding<storage_buffer>, #hal.pipeline.binding<storage_buffer>, #hal.pipeline.binding<storage_buffer>]>) binding(2) : memref<20x4096x64xf32, #hal.descriptor_type<storage_buffer>>
  %3 = hal.interface.binding.subspan layout(<bindings = [#hal.pipeline.binding<storage_buffer>, #hal.pipeline.binding<storage_buffer>, #hal.pipeline.binding<storage_buffer>, #hal.pipeline.binding<storage_buffer>]>) binding(3) : memref<20x4096x64xf32, #hal.descriptor_type<storage_buffer>>
  %4 = iree_codegen.load_from_buffer %0 : memref<20x4096x64xf32, #hal.descriptor_type<storage_buffer>> -> tensor<20x4096x64xf32>
  %5 = iree_codegen.load_from_buffer %1 : memref<20x4096x64xf32, #hal.descriptor_type<storage_buffer>> -> tensor<20x4096x64xf32>
  %6 = iree_codegen.load_from_buffer %2 : memref<20x4096x64xf32, #hal.descriptor_type<storage_buffer>> -> tensor<20x4096x64xf32>
  %7 = tensor.empty() : tensor<20x4096x64xf32>
  %8 = scf.forall (%arg0, %arg1, %arg2, %arg3) = (0, 0, 0, 0) to (20, 4096, 64, 4096) step (1, 8, 8, 8) shared_outs(%arg4 = %7) -> (tensor<20x4096x64xf32>) {
    %extracted_slice = tensor.extract_slice %4[%arg0, %arg1, 0] [1, 8, 64] [1, 1, 1] : tensor<20x4096x64xf32> to tensor<1x8x64xf32>
    %extracted_slice_1 = tensor.extract_slice %5[%arg0, %arg3, 0] [1, 8, 64] [1, 1, 1] : tensor<20x4096x64xf32> to tensor<1x8x64xf32>
    %9 = tensor.empty() : tensor<1x8x8xf32>
    %10 = linalg.generic {indexing_maps = [affine_map<(d0, d1, d2, d3) -> (d0, d1, d3)>, affine_map<(d0, d1, d2, d3) -> (d0, d2, d3)>, affine_map<(d0, d1, d2, d3) -> (d0, d1, d2)>], iterator_types = ["parallel", "parallel", "parallel", "reduction"]} ins(%extracted_slice, %extracted_slice_1 : tensor<1x8x64xf32>, tensor<1x8x64xf32>) outs(%9 : tensor<1x8x8xf32>) {
    ^bb0(%in: f32, %in_4: f32, %out: f32):
      %17 = arith.mulf %in, %in_4 : f32
      %18 = arith.addf %17, %out : f32
      linalg.yield %18 : f32
    } -> tensor<1x8x8xf32>
    %extracted_slice_2 = tensor.extract_slice %6[%arg0, %arg3, %arg2] [1, 8, 8] [1, 1, 1] : tensor<20x4096x64xf32> to tensor<1x8x8xf32>
    %11 = tensor.empty() : tensor<1x8xf32>
    %12 = linalg.fill ins(%cst : f32) outs(%11 : tensor<1x8xf32>) -> tensor<1x8xf32>
    %13 = linalg.fill ins(%cst_0 : f32) outs(%11 : tensor<1x8xf32>) -> tensor<1x8xf32>
    %14 = linalg.fill ins(%cst_0 : f32) outs(%9 : tensor<1x8x8xf32>) -> tensor<1x8x8xf32>
    %15:3 = iree_linalg_ext.exp_reduction{indexing_maps = [affine_map<(d0, d1, d2, d3) -> (d0, d1, d3)>, affine_map<(d0, d1, d2, d3) -> (d0, d3, d2)>, affine_map<(d0, d1, d2, d3) -> (d0, d1)>, affine_map<(d0, d1, d2, d3) -> (d0, d1)>, affine_map<(d0, d1, d2, d3) -> (d0, d1, d2)>], iterator_types = [#iree_linalg_ext.iterator_type<parallel>, #iree_linalg_ext.iterator_type<parallel>, #iree_linalg_ext.iterator_type<parallel>, #iree_linalg_ext.iterator_type<reduction>], exp_reduced_operands = [1, 2]} {lowering_config = #iree_cpu.lowering_config<distribution = [1, 8, 8, 8], vector_common_parallel = [0, 0, 8, 16], vector_reduction = [0, 0, 0, 16]>} ins(%10, %extracted_slice_2 : tensor<1x8x8xf32>, tensor<1x8x8xf32>) outs(%12, %13, %14 : tensor<1x8xf32>, tensor<1x8xf32>, tensor<1x8x8xf32>) {
    ^bb0(%arg5: f32, %arg6: f32, %arg7: f32, %arg8: f32, %arg9: f32):
      %17 = arith.addf %arg5, %arg8 : f32
      %18 = arith.mulf %arg5, %arg6 : f32
      %19 = arith.addf %18, %arg9 : f32
      linalg.yield %arg7, %17, %19 : f32, f32, f32
    } -> tensor<1x8xf32>, tensor<1x8xf32>, tensor<1x8x8xf32>
    %extracted_slice_3 = tensor.extract_slice %arg4[%arg0, %arg1, %arg2] [1, 8, 8] [1, 1, 1] : tensor<20x4096x64xf32> to tensor<1x8x8xf32>
    %16 = linalg.generic {indexing_maps = [affine_map<(d0, d1, d2) -> (d0, d1, d2)>, affine_map<(d0, d1, d2) -> (d0, d1)>, affine_map<(d0, d1, d2) -> (d0, d1, d2)>], iterator_types = ["parallel", "parallel", "parallel"]} ins(%15#2, %15#1 : tensor<1x8x8xf32>, tensor<1x8xf32>) outs(%extracted_slice_3 : tensor<1x8x8xf32>) {
    ^bb0(%in: f32, %in_4: f32, %out: f32):
      %17 = arith.divf %in, %in_4 : f32
      linalg.yield %17 : f32
    } -> tensor<1x8x8xf32>
    scf.forall.in_parallel {
      tensor.parallel_insert_slice %16 into %arg4[%arg0, %arg1, %arg2] [1, 8, 8] [1, 1, 1] : tensor<1x8x8xf32> into tensor<20x4096x64xf32>
    }
  } {mapping = [#iree_codegen.workgroup_mapping<z:1>, #iree_codegen.workgroup_mapping<z>, #iree_codegen.workgroup_mapping<y>, #iree_codegen.workgroup_mapping<x>]}
  iree_codegen.store_to_buffer %8, %3 : tensor<20x4096x64xf32> into memref<20x4096x64xf32, #hal.descriptor_type<storage_buffer>>
  return
}

// -----// IR Dump After DecomposeExpReductionPass (iree-linalg-ext-decompose-exp-reduction) //----- //
func.func @no_peel_static_matmul() attributes {hal.executable.target = #hal.executable.target<"llvm-cpu", "system-elf-x86_64", {native_vector_size = 64 : i64}>, translation_info = #iree_codegen.translation_info<pipeline = CPULinalgExtTileAndVectorize>} {
  %cst = arith.constant -3.40282347E+38 : f32
  %cst_0 = arith.constant 0.000000e+00 : f32
  %0 = hal.interface.binding.subspan layout(<bindings = [#hal.pipeline.binding<storage_buffer>, #hal.pipeline.binding<storage_buffer>, #hal.pipeline.binding<storage_buffer>, #hal.pipeline.binding<storage_buffer>]>) binding(0) : memref<20x4096x64xf32, #hal.descriptor_type<storage_buffer>>
  %1 = hal.interface.binding.subspan layout(<bindings = [#hal.pipeline.binding<storage_buffer>, #hal.pipeline.binding<storage_buffer>, #hal.pipeline.binding<storage_buffer>, #hal.pipeline.binding<storage_buffer>]>) binding(1) : memref<20x4096x64xf32, #hal.descriptor_type<storage_buffer>>
  %2 = hal.interface.binding.subspan layout(<bindings = [#hal.pipeline.binding<storage_buffer>, #hal.pipeline.binding<storage_buffer>, #hal.pipeline.binding<storage_buffer>, #hal.pipeline.binding<storage_buffer>]>) binding(2) : memref<20x4096x64xf32, #hal.descriptor_type<storage_buffer>>
  %3 = hal.interface.binding.subspan layout(<bindings = [#hal.pipeline.binding<storage_buffer>, #hal.pipeline.binding<storage_buffer>, #hal.pipeline.binding<storage_buffer>, #hal.pipeline.binding<storage_buffer>]>) binding(3) : memref<20x4096x64xf32, #hal.descriptor_type<storage_buffer>>
  %4 = iree_codegen.load_from_buffer %0 : memref<20x4096x64xf32, #hal.descriptor_type<storage_buffer>> -> tensor<20x4096x64xf32>
  %5 = iree_codegen.load_from_buffer %1 : memref<20x4096x64xf32, #hal.descriptor_type<storage_buffer>> -> tensor<20x4096x64xf32>
  %6 = iree_codegen.load_from_buffer %2 : memref<20x4096x64xf32, #hal.descriptor_type<storage_buffer>> -> tensor<20x4096x64xf32>
  %7 = tensor.empty() : tensor<20x4096x64xf32>
  %8 = scf.forall (%arg0, %arg1, %arg2, %arg3) = (0, 0, 0, 0) to (20, 4096, 64, 4096) step (1, 8, 8, 8) shared_outs(%arg4 = %7) -> (tensor<20x4096x64xf32>) {
    %extracted_slice = tensor.extract_slice %4[%arg0, %arg1, 0] [1, 8, 64] [1, 1, 1] : tensor<20x4096x64xf32> to tensor<1x8x64xf32>
    %extracted_slice_1 = tensor.extract_slice %5[%arg0, %arg3, 0] [1, 8, 64] [1, 1, 1] : tensor<20x4096x64xf32> to tensor<1x8x64xf32>
    %9 = tensor.empty() : tensor<1x8x8xf32>
    %10 = linalg.generic {indexing_maps = [affine_map<(d0, d1, d2, d3) -> (d0, d1, d3)>, affine_map<(d0, d1, d2, d3) -> (d0, d2, d3)>, affine_map<(d0, d1, d2, d3) -> (d0, d1, d2)>], iterator_types = ["parallel", "parallel", "parallel", "reduction"]} ins(%extracted_slice, %extracted_slice_1 : tensor<1x8x64xf32>, tensor<1x8x64xf32>) outs(%9 : tensor<1x8x8xf32>) {
    ^bb0(%in: f32, %in_4: f32, %out: f32):
      %23 = arith.mulf %in, %in_4 : f32
      %24 = arith.addf %23, %out : f32
      linalg.yield %24 : f32
    } -> tensor<1x8x8xf32>
    %extracted_slice_2 = tensor.extract_slice %6[%arg0, %arg3, %arg2] [1, 8, 8] [1, 1, 1] : tensor<20x4096x64xf32> to tensor<1x8x8xf32>
    %11 = tensor.empty() : tensor<1x8xf32>
    %12 = linalg.fill ins(%cst : f32) outs(%11 : tensor<1x8xf32>) -> tensor<1x8xf32>
    %13 = linalg.fill ins(%cst_0 : f32) outs(%11 : tensor<1x8xf32>) -> tensor<1x8xf32>
    %14 = linalg.fill ins(%cst_0 : f32) outs(%9 : tensor<1x8x8xf32>) -> tensor<1x8x8xf32>
    %15 = linalg.generic {indexing_maps = [affine_map<(d0, d1, d2) -> (d0, d1, d2)>, affine_map<(d0, d1, d2) -> (d0, d1)>], iterator_types = ["parallel", "parallel", "reduction"]} ins(%10 : tensor<1x8x8xf32>) outs(%12 : tensor<1x8xf32>) {
    ^bb0(%in: f32, %out: f32):
      %23 = arith.maximumf %in, %out : f32
      linalg.yield %23 : f32
    } -> tensor<1x8xf32>
    %16 = linalg.generic {indexing_maps = [affine_map<(d0, d1, d2) -> (d0, d1)>, affine_map<(d0, d1, d2) -> (d0, d1, d2)>], iterator_types = ["parallel", "parallel", "parallel"]} ins(%15 : tensor<1x8xf32>) outs(%10 : tensor<1x8x8xf32>) {
    ^bb0(%in: f32, %out: f32):
      %23 = arith.subf %out, %in : f32
      %24 = math.exp2 %23 : f32
      linalg.yield %24 : f32
    } -> tensor<1x8x8xf32>
    %17 = linalg.generic {indexing_maps = [affine_map<(d0, d1) -> (d0, d1)>, affine_map<(d0, d1) -> (d0, d1)>], iterator_types = ["parallel", "parallel"]} ins(%12 : tensor<1x8xf32>) outs(%15 : tensor<1x8xf32>) {
    ^bb0(%in: f32, %out: f32):
      %23 = arith.subf %out, %in : f32
      %24 = math.exp2 %23 : f32
      linalg.yield %24 : f32
    } -> tensor<1x8xf32>
    %18 = linalg.generic {indexing_maps = [affine_map<(d0, d1) -> (d0, d1)>, affine_map<(d0, d1) -> (d0, d1)>], iterator_types = ["parallel", "parallel"]} ins(%17 : tensor<1x8xf32>) outs(%13 : tensor<1x8xf32>) {
    ^bb0(%in: f32, %out: f32):
      %23 = arith.mulf %in, %out : f32
      linalg.yield %23 : f32
    } -> tensor<1x8xf32>
    %19 = linalg.generic {indexing_maps = [affine_map<(d0, d1, d2) -> (d0, d1)>, affine_map<(d0, d1, d2) -> (d0, d1, d2)>], iterator_types = ["parallel", "parallel", "parallel"]} ins(%17 : tensor<1x8xf32>) outs(%14 : tensor<1x8x8xf32>) {
    ^bb0(%in: f32, %out: f32):
      %23 = arith.mulf %in, %out : f32
      linalg.yield %23 : f32
    } -> tensor<1x8x8xf32>
    %20 = linalg.generic {indexing_maps = [affine_map<(d0, d1, d2) -> (d0, d1, d2)>, affine_map<(d0, d1, d2) -> (d0, d1)>], iterator_types = ["parallel", "parallel", "reduction"]} ins(%16 : tensor<1x8x8xf32>) outs(%18 : tensor<1x8xf32>) {
    ^bb0(%in: f32, %out: f32):
      %23 = arith.addf %in, %out : f32
      linalg.yield %23 : f32
    } -> tensor<1x8xf32>
    %21 = linalg.generic {indexing_maps = [affine_map<(d0, d1, d2, d3) -> (d0, d1, d3)>, affine_map<(d0, d1, d2, d3) -> (d0, d3, d2)>, affine_map<(d0, d1, d2, d3) -> (d0, d1, d2)>], iterator_types = ["parallel", "parallel", "parallel", "reduction"]} ins(%16, %extracted_slice_2 : tensor<1x8x8xf32>, tensor<1x8x8xf32>) outs(%19 : tensor<1x8x8xf32>) attrs =  {lowering_config = #iree_cpu.lowering_config<distribution = [1, 8, 8, 8], vector_common_parallel = [0, 0, 8, 16], vector_reduction = [0, 0, 0, 16]>} {
    ^bb0(%in: f32, %in_4: f32, %out: f32):
      %23 = arith.mulf %in, %in_4 : f32
      %24 = arith.addf %23, %out : f32
      linalg.yield %24 : f32
    } -> tensor<1x8x8xf32>
    %extracted_slice_3 = tensor.extract_slice %arg4[%arg0, %arg1, %arg2] [1, 8, 8] [1, 1, 1] : tensor<20x4096x64xf32> to tensor<1x8x8xf32>
    %22 = linalg.generic {indexing_maps = [affine_map<(d0, d1, d2) -> (d0, d1, d2)>, affine_map<(d0, d1, d2) -> (d0, d1)>, affine_map<(d0, d1, d2) -> (d0, d1, d2)>], iterator_types = ["parallel", "parallel", "parallel"]} ins(%21, %20 : tensor<1x8x8xf32>, tensor<1x8xf32>) outs(%extracted_slice_3 : tensor<1x8x8xf32>) {
    ^bb0(%in: f32, %in_4: f32, %out: f32):
      %23 = arith.divf %in, %in_4 : f32
      linalg.yield %23 : f32
    } -> tensor<1x8x8xf32>
    scf.forall.in_parallel {
      tensor.parallel_insert_slice %22 into %arg4[%arg0, %arg1, %arg2] [1, 8, 8] [1, 1, 1] : tensor<1x8x8xf32> into tensor<20x4096x64xf32>
    }
  } {mapping = [#iree_codegen.workgroup_mapping<z:1>, #iree_codegen.workgroup_mapping<z>, #iree_codegen.workgroup_mapping<y>, #iree_codegen.workgroup_mapping<x>]}
  iree_codegen.store_to_buffer %8, %3 : tensor<20x4096x64xf32> into memref<20x4096x64xf32, #hal.descriptor_type<storage_buffer>>
  return
}

test-codegen.mlir:94:21: warning: tiling is not thread safe at axis #3
  %MAX, %SUM, %PV = iree_linalg_ext.exp_reduction {
                    ^
test-codegen.mlir:94:21: note: see current operation:
%21 = linalg.generic {indexing_maps = [affine_map<(d0, d1, d2, d3) -> (d0, d1, d3)>, affine_map<(d0, d1, d2, d3) -> (d0, d3, d2)>, affine_map<(d0, d1, d2, d3) -> (d0, d1, d2)>], iterator_types = ["parallel", "parallel", "parallel", "reduction"]} ins(%16, %extracted_slice_2 : tensor<1x8x8xf32>, tensor<1x8x8xf32>) outs(%19 : tensor<1x8x8xf32>) attrs =  {lowering_config = #iree_cpu.lowering_config<distribution = [1, 8, 8, 8], vector_common_parallel = [0, 0, 8, 16], vector_reduction = [0, 0, 0, 16]>} {
^bb0(%in: f32, %in_4: f32, %out: f32):
  %23 = arith.mulf %in, %in_4 : f32
  %24 = arith.addf %23, %out : f32
  linalg.yield %24 : f32
} -> tensor<1x8x8xf32>
// -----// IR Dump After LLVMCPUTileRootAndFuseProducerConsumerPass (iree-llvmcpu-tile-root-and-fuse-producer-consumer) //----- //
func.func @no_peel_static_matmul() attributes {hal.executable.target = #hal.executable.target<"llvm-cpu", "system-elf-x86_64", {native_vector_size = 64 : i64}>, translation_info = #iree_codegen.translation_info<pipeline = CPULinalgExtTileAndVectorize>} {
  %cst = arith.constant -3.40282347E+38 : f32
  %cst_0 = arith.constant 0.000000e+00 : f32
  %0 = hal.interface.binding.subspan layout(<bindings = [#hal.pipeline.binding<storage_buffer>, #hal.pipeline.binding<storage_buffer>, #hal.pipeline.binding<storage_buffer>, #hal.pipeline.binding<storage_buffer>]>) binding(0) : memref<20x4096x64xf32, #hal.descriptor_type<storage_buffer>>
  %1 = hal.interface.binding.subspan layout(<bindings = [#hal.pipeline.binding<storage_buffer>, #hal.pipeline.binding<storage_buffer>, #hal.pipeline.binding<storage_buffer>, #hal.pipeline.binding<storage_buffer>]>) binding(1) : memref<20x4096x64xf32, #hal.descriptor_type<storage_buffer>>
  %2 = hal.interface.binding.subspan layout(<bindings = [#hal.pipeline.binding<storage_buffer>, #hal.pipeline.binding<storage_buffer>, #hal.pipeline.binding<storage_buffer>, #hal.pipeline.binding<storage_buffer>]>) binding(2) : memref<20x4096x64xf32, #hal.descriptor_type<storage_buffer>>
  %3 = hal.interface.binding.subspan layout(<bindings = [#hal.pipeline.binding<storage_buffer>, #hal.pipeline.binding<storage_buffer>, #hal.pipeline.binding<storage_buffer>, #hal.pipeline.binding<storage_buffer>]>) binding(3) : memref<20x4096x64xf32, #hal.descriptor_type<storage_buffer>>
  %4 = iree_codegen.load_from_buffer %0 : memref<20x4096x64xf32, #hal.descriptor_type<storage_buffer>> -> tensor<20x4096x64xf32>
  %5 = iree_codegen.load_from_buffer %1 : memref<20x4096x64xf32, #hal.descriptor_type<storage_buffer>> -> tensor<20x4096x64xf32>
  %6 = iree_codegen.load_from_buffer %2 : memref<20x4096x64xf32, #hal.descriptor_type<storage_buffer>> -> tensor<20x4096x64xf32>
  %7 = tensor.empty() : tensor<20x4096x64xf32>
  %8 = scf.forall (%arg0, %arg1, %arg2, %arg3) = (0, 0, 0, 0) to (20, 4096, 64, 4096) step (1, 8, 8, 8) shared_outs(%arg4 = %7) -> (tensor<20x4096x64xf32>) {
    %extracted_slice = tensor.extract_slice %4[%arg0, %arg1, 0] [1, 8, 64] [1, 1, 1] : tensor<20x4096x64xf32> to tensor<1x8x64xf32>
    %extracted_slice_1 = tensor.extract_slice %5[%arg0, %arg3, 0] [1, 8, 64] [1, 1, 1] : tensor<20x4096x64xf32> to tensor<1x8x64xf32>
    %9 = tensor.empty() : tensor<1x8x8xf32>
    %10 = linalg.generic {indexing_maps = [affine_map<(d0, d1, d2, d3) -> (d0, d1, d3)>, affine_map<(d0, d1, d2, d3) -> (d0, d2, d3)>, affine_map<(d0, d1, d2, d3) -> (d0, d1, d2)>], iterator_types = ["parallel", "parallel", "parallel", "reduction"]} ins(%extracted_slice, %extracted_slice_1 : tensor<1x8x64xf32>, tensor<1x8x64xf32>) outs(%9 : tensor<1x8x8xf32>) {
    ^bb0(%in: f32, %in_5: f32, %out: f32):
      %36 = arith.mulf %in, %in_5 : f32
      %37 = arith.addf %36, %out : f32
      linalg.yield %37 : f32
    } -> tensor<1x8x8xf32>
    %11 = tensor.empty() : tensor<1x8xf32>
    %12 = linalg.fill ins(%cst : f32) outs(%11 : tensor<1x8xf32>) -> tensor<1x8xf32>
    %13 = linalg.generic {indexing_maps = [affine_map<(d0, d1, d2) -> (d0, d1, d2)>, affine_map<(d0, d1, d2) -> (d0, d1)>], iterator_types = ["parallel", "parallel", "reduction"]} ins(%10 : tensor<1x8x8xf32>) outs(%12 : tensor<1x8xf32>) {
    ^bb0(%in: f32, %out: f32):
      %36 = arith.maximumf %in, %out : f32
      linalg.yield %36 : f32
    } -> tensor<1x8xf32>
    %14 = linalg.generic {indexing_maps = [affine_map<(d0, d1) -> (d0, d1)>, affine_map<(d0, d1) -> (d0, d1)>], iterator_types = ["parallel", "parallel"]} ins(%12 : tensor<1x8xf32>) outs(%13 : tensor<1x8xf32>) {
    ^bb0(%in: f32, %out: f32):
      %36 = arith.subf %out, %in : f32
      %37 = math.exp2 %36 : f32
      linalg.yield %37 : f32
    } -> tensor<1x8xf32>
    %extracted_slice_2 = tensor.extract_slice %arg4[%arg0, %arg1, %arg2] [1, 8, 8] [1, 1, 1] : tensor<20x4096x64xf32> to tensor<1x8x8xf32>
    %15 = tensor.empty() : tensor<1x8x8xf32>
    %extracted_slice_3 = tensor.extract_slice %5[%arg0, %arg3, 0] [1, 8, 64] [1, 1, 1] : tensor<20x4096x64xf32> to tensor<1x8x64xf32>
    %16 = linalg.generic {indexing_maps = [affine_map<(d0, d1, d2, d3) -> (d0, d1, d3)>, affine_map<(d0, d1, d2, d3) -> (d0, d2, d3)>, affine_map<(d0, d1, d2, d3) -> (d0, d1, d2)>], iterator_types = ["parallel", "parallel", "parallel", "reduction"]} ins(%extracted_slice, %extracted_slice_3 : tensor<1x8x64xf32>, tensor<1x8x64xf32>) outs(%15 : tensor<1x8x8xf32>) {
    ^bb0(%in: f32, %in_5: f32, %out: f32):
      %36 = arith.mulf %in, %in_5 : f32
      %37 = arith.addf %36, %out : f32
      linalg.yield %37 : f32
    } -> tensor<1x8x8xf32>
    %17 = linalg.generic {indexing_maps = [affine_map<(d0, d1, d2) -> (d0, d1)>, affine_map<(d0, d1, d2) -> (d0, d1, d2)>], iterator_types = ["parallel", "parallel", "parallel"]} ins(%13 : tensor<1x8xf32>) outs(%16 : tensor<1x8x8xf32>) {
    ^bb0(%in: f32, %out: f32):
      %36 = arith.subf %out, %in : f32
      %37 = math.exp2 %36 : f32
      linalg.yield %37 : f32
    } -> tensor<1x8x8xf32>
    %extracted_slice_4 = tensor.extract_slice %6[%arg0, %arg3, %arg2] [1, 8, 8] [1, 1, 1] : tensor<20x4096x64xf32> to tensor<1x8x8xf32>
    %18 = tensor.empty() : tensor<1x8x8xf32>
    %19 = linalg.fill ins(%cst_0 : f32) outs(%18 : tensor<1x8x8xf32>) -> tensor<1x8x8xf32>
    %20 = linalg.generic {indexing_maps = [affine_map<(d0, d1, d2) -> (d0, d1)>, affine_map<(d0, d1, d2) -> (d0, d1, d2)>], iterator_types = ["parallel", "parallel", "parallel"]} ins(%14 : tensor<1x8xf32>) outs(%19 : tensor<1x8x8xf32>) {
    ^bb0(%in: f32, %out: f32):
      %36 = arith.mulf %in, %out : f32
      linalg.yield %36 : f32
    } -> tensor<1x8x8xf32>
    %21 = linalg.generic {indexing_maps = [affine_map<(d0, d1, d2, d3) -> (d0, d1, d3)>, affine_map<(d0, d1, d2, d3) -> (d0, d3, d2)>, affine_map<(d0, d1, d2, d3) -> (d0, d1, d2)>], iterator_types = ["parallel", "parallel", "parallel", "reduction"]} ins(%17, %extracted_slice_4 : tensor<1x8x8xf32>, tensor<1x8x8xf32>) outs(%20 : tensor<1x8x8xf32>) attrs =  {lowering_config = #iree_cpu.lowering_config<distribution = [1, 8, 8, 8], vector_common_parallel = [0, 0, 8, 16], vector_reduction = [0, 0, 0, 16]>} {
    ^bb0(%in: f32, %in_5: f32, %out: f32):
      %36 = arith.mulf %in, %in_5 : f32
      %37 = arith.addf %36, %out : f32
      linalg.yield %37 : f32
    } -> tensor<1x8x8xf32>
    %22 = linalg.generic {indexing_maps = [affine_map<(d0, d1, d2, d3) -> (d0, d1, d3)>, affine_map<(d0, d1, d2, d3) -> (d0, d2, d3)>, affine_map<(d0, d1, d2, d3) -> (d0, d1, d2)>], iterator_types = ["parallel", "parallel", "parallel", "reduction"]} ins(%extracted_slice, %extracted_slice_1 : tensor<1x8x64xf32>, tensor<1x8x64xf32>) outs(%9 : tensor<1x8x8xf32>) {
    ^bb0(%in: f32, %in_5: f32, %out: f32):
      %36 = arith.mulf %in, %in_5 : f32
      %37 = arith.addf %36, %out : f32
      linalg.yield %37 : f32
    } -> tensor<1x8x8xf32>
    %23 = linalg.fill ins(%cst : f32) outs(%11 : tensor<1x8xf32>) -> tensor<1x8xf32>
    %24 = linalg.generic {indexing_maps = [affine_map<(d0, d1, d2) -> (d0, d1, d2)>, affine_map<(d0, d1, d2) -> (d0, d1)>], iterator_types = ["parallel", "parallel", "reduction"]} ins(%22 : tensor<1x8x8xf32>) outs(%23 : tensor<1x8xf32>) {
    ^bb0(%in: f32, %out: f32):
      %36 = arith.maximumf %in, %out : f32
      linalg.yield %36 : f32
    } -> tensor<1x8xf32>
    %25 = linalg.generic {indexing_maps = [affine_map<(d0, d1, d2, d3) -> (d0, d1, d3)>, affine_map<(d0, d1, d2, d3) -> (d0, d2, d3)>, affine_map<(d0, d1, d2, d3) -> (d0, d1, d2)>], iterator_types = ["parallel", "parallel", "parallel", "reduction"]} ins(%extracted_slice, %extracted_slice_1 : tensor<1x8x64xf32>, tensor<1x8x64xf32>) outs(%9 : tensor<1x8x8xf32>) {
    ^bb0(%in: f32, %in_5: f32, %out: f32):
      %36 = arith.mulf %in, %in_5 : f32
      %37 = arith.addf %36, %out : f32
      linalg.yield %37 : f32
    } -> tensor<1x8x8xf32>
    %26 = linalg.generic {indexing_maps = [affine_map<(d0, d1, d2) -> (d0, d1)>, affine_map<(d0, d1, d2) -> (d0, d1, d2)>], iterator_types = ["parallel", "parallel", "parallel"]} ins(%24 : tensor<1x8xf32>) outs(%25 : tensor<1x8x8xf32>) {
    ^bb0(%in: f32, %out: f32):
      %36 = arith.subf %out, %in : f32
      %37 = math.exp2 %36 : f32
      linalg.yield %37 : f32
    } -> tensor<1x8x8xf32>
    %27 = linalg.fill ins(%cst : f32) outs(%11 : tensor<1x8xf32>) -> tensor<1x8xf32>
    %28 = linalg.generic {indexing_maps = [affine_map<(d0, d1, d2, d3) -> (d0, d1, d3)>, affine_map<(d0, d1, d2, d3) -> (d0, d2, d3)>, affine_map<(d0, d1, d2, d3) -> (d0, d1, d2)>], iterator_types = ["parallel", "parallel", "parallel", "reduction"]} ins(%extracted_slice, %extracted_slice_1 : tensor<1x8x64xf32>, tensor<1x8x64xf32>) outs(%9 : tensor<1x8x8xf32>) {
    ^bb0(%in: f32, %in_5: f32, %out: f32):
      %36 = arith.mulf %in, %in_5 : f32
      %37 = arith.addf %36, %out : f32
      linalg.yield %37 : f32
    } -> tensor<1x8x8xf32>
    %29 = linalg.fill ins(%cst : f32) outs(%11 : tensor<1x8xf32>) -> tensor<1x8xf32>
    %30 = linalg.generic {indexing_maps = [affine_map<(d0, d1, d2) -> (d0, d1, d2)>, affine_map<(d0, d1, d2) -> (d0, d1)>], iterator_types = ["parallel", "parallel", "reduction"]} ins(%28 : tensor<1x8x8xf32>) outs(%29 : tensor<1x8xf32>) {
    ^bb0(%in: f32, %out: f32):
      %36 = arith.maximumf %in, %out : f32
      linalg.yield %36 : f32
    } -> tensor<1x8xf32>
    %31 = linalg.generic {indexing_maps = [affine_map<(d0, d1) -> (d0, d1)>, affine_map<(d0, d1) -> (d0, d1)>], iterator_types = ["parallel", "parallel"]} ins(%27 : tensor<1x8xf32>) outs(%30 : tensor<1x8xf32>) {
    ^bb0(%in: f32, %out: f32):
      %36 = arith.subf %out, %in : f32
      %37 = math.exp2 %36 : f32
      linalg.yield %37 : f32
    } -> tensor<1x8xf32>
    %32 = linalg.fill ins(%cst_0 : f32) outs(%11 : tensor<1x8xf32>) -> tensor<1x8xf32>
    %33 = linalg.generic {indexing_maps = [affine_map<(d0, d1) -> (d0, d1)>, affine_map<(d0, d1) -> (d0, d1)>], iterator_types = ["parallel", "parallel"]} ins(%31 : tensor<1x8xf32>) outs(%32 : tensor<1x8xf32>) {
    ^bb0(%in: f32, %out: f32):
      %36 = arith.mulf %in, %out : f32
      linalg.yield %36 : f32
    } -> tensor<1x8xf32>
    %34 = linalg.generic {indexing_maps = [affine_map<(d0, d1, d2) -> (d0, d1, d2)>, affine_map<(d0, d1, d2) -> (d0, d1)>], iterator_types = ["parallel", "parallel", "reduction"]} ins(%26 : tensor<1x8x8xf32>) outs(%33 : tensor<1x8xf32>) {
    ^bb0(%in: f32, %out: f32):
      %36 = arith.addf %in, %out : f32
      linalg.yield %36 : f32
    } -> tensor<1x8xf32>
    %35 = linalg.generic {indexing_maps = [affine_map<(d0, d1, d2) -> (d0, d1, d2)>, affine_map<(d0, d1, d2) -> (d0, d1)>, affine_map<(d0, d1, d2) -> (d0, d1, d2)>], iterator_types = ["parallel", "parallel", "parallel"]} ins(%21, %34 : tensor<1x8x8xf32>, tensor<1x8xf32>) outs(%extracted_slice_2 : tensor<1x8x8xf32>) {
    ^bb0(%in: f32, %in_5: f32, %out: f32):
      %36 = arith.divf %in, %in_5 : f32
      linalg.yield %36 : f32
    } -> tensor<1x8x8xf32>
    scf.forall.in_parallel {
      tensor.parallel_insert_slice %35 into %arg4[%arg0, %arg1, %arg2] [1, 8, 8] [1, 1, 1] : tensor<1x8x8xf32> into tensor<20x4096x64xf32>
    }
  } {mapping = [#iree_codegen.workgroup_mapping<z:1>, #iree_codegen.workgroup_mapping<z>, #iree_codegen.workgroup_mapping<y>, #iree_codegen.workgroup_mapping<x>]}
  iree_codegen.store_to_buffer %8, %3 : tensor<20x4096x64xf32> into memref<20x4096x64xf32, #hal.descriptor_type<storage_buffer>>
  return
}

// -----// IR Dump After ConvertAttentionToOnlineAttentionPass (iree-linalg-ext-convert-attention-to-online-attention) //----- //
func.func @no_peel_static_matmul() attributes {hal.executable.target = #hal.executable.target<"llvm-cpu", "system-elf-x86_64", {native_vector_size = 64 : i64}>, translation_info = #iree_codegen.translation_info<pipeline = CPULinalgExtTileAndVectorize>} {
  %cst = arith.constant -3.40282347E+38 : f32
  %cst_0 = arith.constant 0.000000e+00 : f32
  %0 = hal.interface.binding.subspan layout(<bindings = [#hal.pipeline.binding<storage_buffer>, #hal.pipeline.binding<storage_buffer>, #hal.pipeline.binding<storage_buffer>, #hal.pipeline.binding<storage_buffer>]>) binding(0) : memref<20x4096x64xf32, #hal.descriptor_type<storage_buffer>>
  %1 = hal.interface.binding.subspan layout(<bindings = [#hal.pipeline.binding<storage_buffer>, #hal.pipeline.binding<storage_buffer>, #hal.pipeline.binding<storage_buffer>, #hal.pipeline.binding<storage_buffer>]>) binding(1) : memref<20x4096x64xf32, #hal.descriptor_type<storage_buffer>>
  %2 = hal.interface.binding.subspan layout(<bindings = [#hal.pipeline.binding<storage_buffer>, #hal.pipeline.binding<storage_buffer>, #hal.pipeline.binding<storage_buffer>, #hal.pipeline.binding<storage_buffer>]>) binding(2) : memref<20x4096x64xf32, #hal.descriptor_type<storage_buffer>>
  %3 = hal.interface.binding.subspan layout(<bindings = [#hal.pipeline.binding<storage_buffer>, #hal.pipeline.binding<storage_buffer>, #hal.pipeline.binding<storage_buffer>, #hal.pipeline.binding<storage_buffer>]>) binding(3) : memref<20x4096x64xf32, #hal.descriptor_type<storage_buffer>>
  %4 = iree_codegen.load_from_buffer %0 : memref<20x4096x64xf32, #hal.descriptor_type<storage_buffer>> -> tensor<20x4096x64xf32>
  %5 = iree_codegen.load_from_buffer %1 : memref<20x4096x64xf32, #hal.descriptor_type<storage_buffer>> -> tensor<20x4096x64xf32>
  %6 = iree_codegen.load_from_buffer %2 : memref<20x4096x64xf32, #hal.descriptor_type<storage_buffer>> -> tensor<20x4096x64xf32>
  %7 = tensor.empty() : tensor<20x4096x64xf32>
  %8 = scf.forall (%arg0, %arg1, %arg2, %arg3) = (0, 0, 0, 0) to (20, 4096, 64, 4096) step (1, 8, 8, 8) shared_outs(%arg4 = %7) -> (tensor<20x4096x64xf32>) {
    %extracted_slice = tensor.extract_slice %4[%arg0, %arg1, 0] [1, 8, 64] [1, 1, 1] : tensor<20x4096x64xf32> to tensor<1x8x64xf32>
    %extracted_slice_1 = tensor.extract_slice %5[%arg0, %arg3, 0] [1, 8, 64] [1, 1, 1] : tensor<20x4096x64xf32> to tensor<1x8x64xf32>
    %9 = tensor.empty() : tensor<1x8x8xf32>
    %10 = linalg.generic {indexing_maps = [affine_map<(d0, d1, d2, d3) -> (d0, d1, d3)>, affine_map<(d0, d1, d2, d3) -> (d0, d2, d3)>, affine_map<(d0, d1, d2, d3) -> (d0, d1, d2)>], iterator_types = ["parallel", "parallel", "parallel", "reduction"]} ins(%extracted_slice, %extracted_slice_1 : tensor<1x8x64xf32>, tensor<1x8x64xf32>) outs(%9 : tensor<1x8x8xf32>) {
    ^bb0(%in: f32, %in_5: f32, %out: f32):
      %36 = arith.mulf %in, %in_5 : f32
      %37 = arith.addf %36, %out : f32
      linalg.yield %37 : f32
    } -> tensor<1x8x8xf32>
    %11 = tensor.empty() : tensor<1x8xf32>
    %12 = linalg.fill ins(%cst : f32) outs(%11 : tensor<1x8xf32>) -> tensor<1x8xf32>
    %13 = linalg.generic {indexing_maps = [affine_map<(d0, d1, d2) -> (d0, d1, d2)>, affine_map<(d0, d1, d2) -> (d0, d1)>], iterator_types = ["parallel", "parallel", "reduction"]} ins(%10 : tensor<1x8x8xf32>) outs(%12 : tensor<1x8xf32>) {
    ^bb0(%in: f32, %out: f32):
      %36 = arith.maximumf %in, %out : f32
      linalg.yield %36 : f32
    } -> tensor<1x8xf32>
    %14 = linalg.generic {indexing_maps = [affine_map<(d0, d1) -> (d0, d1)>, affine_map<(d0, d1) -> (d0, d1)>], iterator_types = ["parallel", "parallel"]} ins(%12 : tensor<1x8xf32>) outs(%13 : tensor<1x8xf32>) {
    ^bb0(%in: f32, %out: f32):
      %36 = arith.subf %out, %in : f32
      %37 = math.exp2 %36 : f32
      linalg.yield %37 : f32
    } -> tensor<1x8xf32>
    %extracted_slice_2 = tensor.extract_slice %arg4[%arg0, %arg1, %arg2] [1, 8, 8] [1, 1, 1] : tensor<20x4096x64xf32> to tensor<1x8x8xf32>
    %15 = tensor.empty() : tensor<1x8x8xf32>
    %extracted_slice_3 = tensor.extract_slice %5[%arg0, %arg3, 0] [1, 8, 64] [1, 1, 1] : tensor<20x4096x64xf32> to tensor<1x8x64xf32>
    %16 = linalg.generic {indexing_maps = [affine_map<(d0, d1, d2, d3) -> (d0, d1, d3)>, affine_map<(d0, d1, d2, d3) -> (d0, d2, d3)>, affine_map<(d0, d1, d2, d3) -> (d0, d1, d2)>], iterator_types = ["parallel", "parallel", "parallel", "reduction"]} ins(%extracted_slice, %extracted_slice_3 : tensor<1x8x64xf32>, tensor<1x8x64xf32>) outs(%15 : tensor<1x8x8xf32>) {
    ^bb0(%in: f32, %in_5: f32, %out: f32):
      %36 = arith.mulf %in, %in_5 : f32
      %37 = arith.addf %36, %out : f32
      linalg.yield %37 : f32
    } -> tensor<1x8x8xf32>
    %17 = linalg.generic {indexing_maps = [affine_map<(d0, d1, d2) -> (d0, d1)>, affine_map<(d0, d1, d2) -> (d0, d1, d2)>], iterator_types = ["parallel", "parallel", "parallel"]} ins(%13 : tensor<1x8xf32>) outs(%16 : tensor<1x8x8xf32>) {
    ^bb0(%in: f32, %out: f32):
      %36 = arith.subf %out, %in : f32
      %37 = math.exp2 %36 : f32
      linalg.yield %37 : f32
    } -> tensor<1x8x8xf32>
    %extracted_slice_4 = tensor.extract_slice %6[%arg0, %arg3, %arg2] [1, 8, 8] [1, 1, 1] : tensor<20x4096x64xf32> to tensor<1x8x8xf32>
    %18 = tensor.empty() : tensor<1x8x8xf32>
    %19 = linalg.fill ins(%cst_0 : f32) outs(%18 : tensor<1x8x8xf32>) -> tensor<1x8x8xf32>
    %20 = linalg.generic {indexing_maps = [affine_map<(d0, d1, d2) -> (d0, d1)>, affine_map<(d0, d1, d2) -> (d0, d1, d2)>], iterator_types = ["parallel", "parallel", "parallel"]} ins(%14 : tensor<1x8xf32>) outs(%19 : tensor<1x8x8xf32>) {
    ^bb0(%in: f32, %out: f32):
      %36 = arith.mulf %in, %out : f32
      linalg.yield %36 : f32
    } -> tensor<1x8x8xf32>
    %21 = linalg.generic {indexing_maps = [affine_map<(d0, d1, d2, d3) -> (d0, d1, d3)>, affine_map<(d0, d1, d2, d3) -> (d0, d3, d2)>, affine_map<(d0, d1, d2, d3) -> (d0, d1, d2)>], iterator_types = ["parallel", "parallel", "parallel", "reduction"]} ins(%17, %extracted_slice_4 : tensor<1x8x8xf32>, tensor<1x8x8xf32>) outs(%20 : tensor<1x8x8xf32>) attrs =  {lowering_config = #iree_cpu.lowering_config<distribution = [1, 8, 8, 8], vector_common_parallel = [0, 0, 8, 16], vector_reduction = [0, 0, 0, 16]>} {
    ^bb0(%in: f32, %in_5: f32, %out: f32):
      %36 = arith.mulf %in, %in_5 : f32
      %37 = arith.addf %36, %out : f32
      linalg.yield %37 : f32
    } -> tensor<1x8x8xf32>
    %22 = linalg.generic {indexing_maps = [affine_map<(d0, d1, d2, d3) -> (d0, d1, d3)>, affine_map<(d0, d1, d2, d3) -> (d0, d2, d3)>, affine_map<(d0, d1, d2, d3) -> (d0, d1, d2)>], iterator_types = ["parallel", "parallel", "parallel", "reduction"]} ins(%extracted_slice, %extracted_slice_1 : tensor<1x8x64xf32>, tensor<1x8x64xf32>) outs(%9 : tensor<1x8x8xf32>) {
    ^bb0(%in: f32, %in_5: f32, %out: f32):
      %36 = arith.mulf %in, %in_5 : f32
      %37 = arith.addf %36, %out : f32
      linalg.yield %37 : f32
    } -> tensor<1x8x8xf32>
    %23 = linalg.fill ins(%cst : f32) outs(%11 : tensor<1x8xf32>) -> tensor<1x8xf32>
    %24 = linalg.generic {indexing_maps = [affine_map<(d0, d1, d2) -> (d0, d1, d2)>, affine_map<(d0, d1, d2) -> (d0, d1)>], iterator_types = ["parallel", "parallel", "reduction"]} ins(%22 : tensor<1x8x8xf32>) outs(%23 : tensor<1x8xf32>) {
    ^bb0(%in: f32, %out: f32):
      %36 = arith.maximumf %in, %out : f32
      linalg.yield %36 : f32
    } -> tensor<1x8xf32>
    %25 = linalg.generic {indexing_maps = [affine_map<(d0, d1, d2, d3) -> (d0, d1, d3)>, affine_map<(d0, d1, d2, d3) -> (d0, d2, d3)>, affine_map<(d0, d1, d2, d3) -> (d0, d1, d2)>], iterator_types = ["parallel", "parallel", "parallel", "reduction"]} ins(%extracted_slice, %extracted_slice_1 : tensor<1x8x64xf32>, tensor<1x8x64xf32>) outs(%9 : tensor<1x8x8xf32>) {
    ^bb0(%in: f32, %in_5: f32, %out: f32):
      %36 = arith.mulf %in, %in_5 : f32
      %37 = arith.addf %36, %out : f32
      linalg.yield %37 : f32
    } -> tensor<1x8x8xf32>
    %26 = linalg.generic {indexing_maps = [affine_map<(d0, d1, d2) -> (d0, d1)>, affine_map<(d0, d1, d2) -> (d0, d1, d2)>], iterator_types = ["parallel", "parallel", "parallel"]} ins(%24 : tensor<1x8xf32>) outs(%25 : tensor<1x8x8xf32>) {
    ^bb0(%in: f32, %out: f32):
      %36 = arith.subf %out, %in : f32
      %37 = math.exp2 %36 : f32
      linalg.yield %37 : f32
    } -> tensor<1x8x8xf32>
    %27 = linalg.fill ins(%cst : f32) outs(%11 : tensor<1x8xf32>) -> tensor<1x8xf32>
    %28 = linalg.generic {indexing_maps = [affine_map<(d0, d1, d2, d3) -> (d0, d1, d3)>, affine_map<(d0, d1, d2, d3) -> (d0, d2, d3)>, affine_map<(d0, d1, d2, d3) -> (d0, d1, d2)>], iterator_types = ["parallel", "parallel", "parallel", "reduction"]} ins(%extracted_slice, %extracted_slice_1 : tensor<1x8x64xf32>, tensor<1x8x64xf32>) outs(%9 : tensor<1x8x8xf32>) {
    ^bb0(%in: f32, %in_5: f32, %out: f32):
      %36 = arith.mulf %in, %in_5 : f32
      %37 = arith.addf %36, %out : f32
      linalg.yield %37 : f32
    } -> tensor<1x8x8xf32>
    %29 = linalg.fill ins(%cst : f32) outs(%11 : tensor<1x8xf32>) -> tensor<1x8xf32>
    %30 = linalg.generic {indexing_maps = [affine_map<(d0, d1, d2) -> (d0, d1, d2)>, affine_map<(d0, d1, d2) -> (d0, d1)>], iterator_types = ["parallel", "parallel", "reduction"]} ins(%28 : tensor<1x8x8xf32>) outs(%29 : tensor<1x8xf32>) {
    ^bb0(%in: f32, %out: f32):
      %36 = arith.maximumf %in, %out : f32
      linalg.yield %36 : f32
    } -> tensor<1x8xf32>
    %31 = linalg.generic {indexing_maps = [affine_map<(d0, d1) -> (d0, d1)>, affine_map<(d0, d1) -> (d0, d1)>], iterator_types = ["parallel", "parallel"]} ins(%27 : tensor<1x8xf32>) outs(%30 : tensor<1x8xf32>) {
    ^bb0(%in: f32, %out: f32):
      %36 = arith.subf %out, %in : f32
      %37 = math.exp2 %36 : f32
      linalg.yield %37 : f32
    } -> tensor<1x8xf32>
    %32 = linalg.fill ins(%cst_0 : f32) outs(%11 : tensor<1x8xf32>) -> tensor<1x8xf32>
    %33 = linalg.generic {indexing_maps = [affine_map<(d0, d1) -> (d0, d1)>, affine_map<(d0, d1) -> (d0, d1)>], iterator_types = ["parallel", "parallel"]} ins(%31 : tensor<1x8xf32>) outs(%32 : tensor<1x8xf32>) {
    ^bb0(%in: f32, %out: f32):
      %36 = arith.mulf %in, %out : f32
      linalg.yield %36 : f32
    } -> tensor<1x8xf32>
    %34 = linalg.generic {indexing_maps = [affine_map<(d0, d1, d2) -> (d0, d1, d2)>, affine_map<(d0, d1, d2) -> (d0, d1)>], iterator_types = ["parallel", "parallel", "reduction"]} ins(%26 : tensor<1x8x8xf32>) outs(%33 : tensor<1x8xf32>) {
    ^bb0(%in: f32, %out: f32):
      %36 = arith.addf %in, %out : f32
      linalg.yield %36 : f32
    } -> tensor<1x8xf32>
    %35 = linalg.generic {indexing_maps = [affine_map<(d0, d1, d2) -> (d0, d1, d2)>, affine_map<(d0, d1, d2) -> (d0, d1)>, affine_map<(d0, d1, d2) -> (d0, d1, d2)>], iterator_types = ["parallel", "parallel", "parallel"]} ins(%21, %34 : tensor<1x8x8xf32>, tensor<1x8xf32>) outs(%extracted_slice_2 : tensor<1x8x8xf32>) {
    ^bb0(%in: f32, %in_5: f32, %out: f32):
      %36 = arith.divf %in, %in_5 : f32
      linalg.yield %36 : f32
    } -> tensor<1x8x8xf32>
    scf.forall.in_parallel {
      tensor.parallel_insert_slice %35 into %arg4[%arg0, %arg1, %arg2] [1, 8, 8] [1, 1, 1] : tensor<1x8x8xf32> into tensor<20x4096x64xf32>
    }
  } {mapping = [#iree_codegen.workgroup_mapping<z:1>, #iree_codegen.workgroup_mapping<z>, #iree_codegen.workgroup_mapping<y>, #iree_codegen.workgroup_mapping<x>]}
  iree_codegen.store_to_buffer %8, %3 : tensor<20x4096x64xf32> into memref<20x4096x64xf32, #hal.descriptor_type<storage_buffer>>
  return
}

// -----// IR Dump After LLVMCPUTileRootAndFuseProducerConsumerPass (iree-llvmcpu-tile-root-and-fuse-producer-consumer) //----- //
func.func @no_peel_static_matmul() attributes {hal.executable.target = #hal.executable.target<"llvm-cpu", "system-elf-x86_64", {native_vector_size = 64 : i64}>, translation_info = #iree_codegen.translation_info<pipeline = CPULinalgExtTileAndVectorize>} {
  %cst = arith.constant -3.40282347E+38 : f32
  %cst_0 = arith.constant 0.000000e+00 : f32
  %0 = hal.interface.binding.subspan layout(<bindings = [#hal.pipeline.binding<storage_buffer>, #hal.pipeline.binding<storage_buffer>, #hal.pipeline.binding<storage_buffer>, #hal.pipeline.binding<storage_buffer>]>) binding(0) : memref<20x4096x64xf32, #hal.descriptor_type<storage_buffer>>
  %1 = hal.interface.binding.subspan layout(<bindings = [#hal.pipeline.binding<storage_buffer>, #hal.pipeline.binding<storage_buffer>, #hal.pipeline.binding<storage_buffer>, #hal.pipeline.binding<storage_buffer>]>) binding(1) : memref<20x4096x64xf32, #hal.descriptor_type<storage_buffer>>
  %2 = hal.interface.binding.subspan layout(<bindings = [#hal.pipeline.binding<storage_buffer>, #hal.pipeline.binding<storage_buffer>, #hal.pipeline.binding<storage_buffer>, #hal.pipeline.binding<storage_buffer>]>) binding(2) : memref<20x4096x64xf32, #hal.descriptor_type<storage_buffer>>
  %3 = hal.interface.binding.subspan layout(<bindings = [#hal.pipeline.binding<storage_buffer>, #hal.pipeline.binding<storage_buffer>, #hal.pipeline.binding<storage_buffer>, #hal.pipeline.binding<storage_buffer>]>) binding(3) : memref<20x4096x64xf32, #hal.descriptor_type<storage_buffer>>
  %4 = iree_codegen.load_from_buffer %0 : memref<20x4096x64xf32, #hal.descriptor_type<storage_buffer>> -> tensor<20x4096x64xf32>
  %5 = iree_codegen.load_from_buffer %1 : memref<20x4096x64xf32, #hal.descriptor_type<storage_buffer>> -> tensor<20x4096x64xf32>
  %6 = iree_codegen.load_from_buffer %2 : memref<20x4096x64xf32, #hal.descriptor_type<storage_buffer>> -> tensor<20x4096x64xf32>
  %7 = tensor.empty() : tensor<20x4096x64xf32>
  %8 = scf.forall (%arg0, %arg1, %arg2, %arg3) = (0, 0, 0, 0) to (20, 4096, 64, 4096) step (1, 8, 8, 8) shared_outs(%arg4 = %7) -> (tensor<20x4096x64xf32>) {
    %extracted_slice = tensor.extract_slice %4[%arg0, %arg1, 0] [1, 8, 64] [1, 1, 1] : tensor<20x4096x64xf32> to tensor<1x8x64xf32>
    %extracted_slice_1 = tensor.extract_slice %5[%arg0, %arg3, 0] [1, 8, 64] [1, 1, 1] : tensor<20x4096x64xf32> to tensor<1x8x64xf32>
    %9 = tensor.empty() : tensor<1x8x8xf32>
    %10 = linalg.generic {indexing_maps = [affine_map<(d0, d1, d2, d3) -> (d0, d1, d3)>, affine_map<(d0, d1, d2, d3) -> (d0, d2, d3)>, affine_map<(d0, d1, d2, d3) -> (d0, d1, d2)>], iterator_types = ["parallel", "parallel", "parallel", "reduction"]} ins(%extracted_slice, %extracted_slice_1 : tensor<1x8x64xf32>, tensor<1x8x64xf32>) outs(%9 : tensor<1x8x8xf32>) {
    ^bb0(%in: f32, %in_5: f32, %out: f32):
      %36 = arith.mulf %in, %in_5 : f32
      %37 = arith.addf %36, %out : f32
      linalg.yield %37 : f32
    } -> tensor<1x8x8xf32>
    %11 = tensor.empty() : tensor<1x8xf32>
    %12 = linalg.fill ins(%cst : f32) outs(%11 : tensor<1x8xf32>) -> tensor<1x8xf32>
    %13 = linalg.generic {indexing_maps = [affine_map<(d0, d1, d2) -> (d0, d1, d2)>, affine_map<(d0, d1, d2) -> (d0, d1)>], iterator_types = ["parallel", "parallel", "reduction"]} ins(%10 : tensor<1x8x8xf32>) outs(%12 : tensor<1x8xf32>) {
    ^bb0(%in: f32, %out: f32):
      %36 = arith.maximumf %in, %out : f32
      linalg.yield %36 : f32
    } -> tensor<1x8xf32>
    %14 = linalg.generic {indexing_maps = [affine_map<(d0, d1) -> (d0, d1)>, affine_map<(d0, d1) -> (d0, d1)>], iterator_types = ["parallel", "parallel"]} ins(%12 : tensor<1x8xf32>) outs(%13 : tensor<1x8xf32>) {
    ^bb0(%in: f32, %out: f32):
      %36 = arith.subf %out, %in : f32
      %37 = math.exp2 %36 : f32
      linalg.yield %37 : f32
    } -> tensor<1x8xf32>
    %extracted_slice_2 = tensor.extract_slice %arg4[%arg0, %arg1, %arg2] [1, 8, 8] [1, 1, 1] : tensor<20x4096x64xf32> to tensor<1x8x8xf32>
    %15 = tensor.empty() : tensor<1x8x8xf32>
    %16 = linalg.fill ins(%cst_0 : f32) outs(%15 : tensor<1x8x8xf32>) -> tensor<1x8x8xf32>
    %17 = linalg.generic {indexing_maps = [affine_map<(d0, d1, d2) -> (d0, d1)>, affine_map<(d0, d1, d2) -> (d0, d1, d2)>], iterator_types = ["parallel", "parallel", "parallel"]} ins(%14 : tensor<1x8xf32>) outs(%16 : tensor<1x8x8xf32>) {
    ^bb0(%in: f32, %out: f32):
      %36 = arith.mulf %in, %out : f32
      linalg.yield %36 : f32
    } -> tensor<1x8x8xf32>
    %18 = tensor.empty() : tensor<1x8x8xf32>
    %extracted_slice_3 = tensor.extract_slice %5[%arg0, %arg3, 0] [1, 8, 64] [1, 1, 1] : tensor<20x4096x64xf32> to tensor<1x8x64xf32>
    %19 = linalg.generic {indexing_maps = [affine_map<(d0, d1, d2, d3) -> (d0, d1, d3)>, affine_map<(d0, d1, d2, d3) -> (d0, d2, d3)>, affine_map<(d0, d1, d2, d3) -> (d0, d1, d2)>], iterator_types = ["parallel", "parallel", "parallel", "reduction"]} ins(%extracted_slice, %extracted_slice_3 : tensor<1x8x64xf32>, tensor<1x8x64xf32>) outs(%18 : tensor<1x8x8xf32>) {
    ^bb0(%in: f32, %in_5: f32, %out: f32):
      %36 = arith.mulf %in, %in_5 : f32
      %37 = arith.addf %36, %out : f32
      linalg.yield %37 : f32
    } -> tensor<1x8x8xf32>
    %20 = linalg.generic {indexing_maps = [affine_map<(d0, d1, d2) -> (d0, d1)>, affine_map<(d0, d1, d2) -> (d0, d1, d2)>], iterator_types = ["parallel", "parallel", "parallel"]} ins(%13 : tensor<1x8xf32>) outs(%19 : tensor<1x8x8xf32>) {
    ^bb0(%in: f32, %out: f32):
      %36 = arith.subf %out, %in : f32
      %37 = math.exp2 %36 : f32
      linalg.yield %37 : f32
    } -> tensor<1x8x8xf32>
    %extracted_slice_4 = tensor.extract_slice %6[%arg0, %arg3, %arg2] [1, 8, 8] [1, 1, 1] : tensor<20x4096x64xf32> to tensor<1x8x8xf32>
    %21 = linalg.generic {indexing_maps = [affine_map<(d0, d1, d2, d3) -> (d0, d1, d3)>, affine_map<(d0, d1, d2, d3) -> (d0, d3, d2)>, affine_map<(d0, d1, d2, d3) -> (d0, d1, d2)>], iterator_types = ["parallel", "parallel", "parallel", "reduction"]} ins(%20, %extracted_slice_4 : tensor<1x8x8xf32>, tensor<1x8x8xf32>) outs(%17 : tensor<1x8x8xf32>) attrs =  {lowering_config = #iree_cpu.lowering_config<distribution = [1, 8, 8, 8], vector_common_parallel = [0, 0, 8, 16], vector_reduction = [0, 0, 0, 16]>} {
    ^bb0(%in: f32, %in_5: f32, %out: f32):
      %36 = arith.mulf %in, %in_5 : f32
      %37 = arith.addf %36, %out : f32
      linalg.yield %37 : f32
    } -> tensor<1x8x8xf32>
    %22 = linalg.generic {indexing_maps = [affine_map<(d0, d1, d2, d3) -> (d0, d1, d3)>, affine_map<(d0, d1, d2, d3) -> (d0, d2, d3)>, affine_map<(d0, d1, d2, d3) -> (d0, d1, d2)>], iterator_types = ["parallel", "parallel", "parallel", "reduction"]} ins(%extracted_slice, %extracted_slice_1 : tensor<1x8x64xf32>, tensor<1x8x64xf32>) outs(%9 : tensor<1x8x8xf32>) {
    ^bb0(%in: f32, %in_5: f32, %out: f32):
      %36 = arith.mulf %in, %in_5 : f32
      %37 = arith.addf %36, %out : f32
      linalg.yield %37 : f32
    } -> tensor<1x8x8xf32>
    %23 = linalg.fill ins(%cst : f32) outs(%11 : tensor<1x8xf32>) -> tensor<1x8xf32>
    %24 = linalg.generic {indexing_maps = [affine_map<(d0, d1, d2) -> (d0, d1, d2)>, affine_map<(d0, d1, d2) -> (d0, d1)>], iterator_types = ["parallel", "parallel", "reduction"]} ins(%22 : tensor<1x8x8xf32>) outs(%23 : tensor<1x8xf32>) {
    ^bb0(%in: f32, %out: f32):
      %36 = arith.maximumf %in, %out : f32
      linalg.yield %36 : f32
    } -> tensor<1x8xf32>
    %25 = linalg.generic {indexing_maps = [affine_map<(d0, d1, d2, d3) -> (d0, d1, d3)>, affine_map<(d0, d1, d2, d3) -> (d0, d2, d3)>, affine_map<(d0, d1, d2, d3) -> (d0, d1, d2)>], iterator_types = ["parallel", "parallel", "parallel", "reduction"]} ins(%extracted_slice, %extracted_slice_1 : tensor<1x8x64xf32>, tensor<1x8x64xf32>) outs(%9 : tensor<1x8x8xf32>) {
    ^bb0(%in: f32, %in_5: f32, %out: f32):
      %36 = arith.mulf %in, %in_5 : f32
      %37 = arith.addf %36, %out : f32
      linalg.yield %37 : f32
    } -> tensor<1x8x8xf32>
    %26 = linalg.generic {indexing_maps = [affine_map<(d0, d1, d2) -> (d0, d1)>, affine_map<(d0, d1, d2) -> (d0, d1, d2)>], iterator_types = ["parallel", "parallel", "parallel"]} ins(%24 : tensor<1x8xf32>) outs(%25 : tensor<1x8x8xf32>) {
    ^bb0(%in: f32, %out: f32):
      %36 = arith.subf %out, %in : f32
      %37 = math.exp2 %36 : f32
      linalg.yield %37 : f32
    } -> tensor<1x8x8xf32>
    %27 = linalg.fill ins(%cst : f32) outs(%11 : tensor<1x8xf32>) -> tensor<1x8xf32>
    %28 = linalg.generic {indexing_maps = [affine_map<(d0, d1, d2, d3) -> (d0, d1, d3)>, affine_map<(d0, d1, d2, d3) -> (d0, d2, d3)>, affine_map<(d0, d1, d2, d3) -> (d0, d1, d2)>], iterator_types = ["parallel", "parallel", "parallel", "reduction"]} ins(%extracted_slice, %extracted_slice_1 : tensor<1x8x64xf32>, tensor<1x8x64xf32>) outs(%9 : tensor<1x8x8xf32>) {
    ^bb0(%in: f32, %in_5: f32, %out: f32):
      %36 = arith.mulf %in, %in_5 : f32
      %37 = arith.addf %36, %out : f32
      linalg.yield %37 : f32
    } -> tensor<1x8x8xf32>
    %29 = linalg.fill ins(%cst : f32) outs(%11 : tensor<1x8xf32>) -> tensor<1x8xf32>
    %30 = linalg.generic {indexing_maps = [affine_map<(d0, d1, d2) -> (d0, d1, d2)>, affine_map<(d0, d1, d2) -> (d0, d1)>], iterator_types = ["parallel", "parallel", "reduction"]} ins(%28 : tensor<1x8x8xf32>) outs(%29 : tensor<1x8xf32>) {
    ^bb0(%in: f32, %out: f32):
      %36 = arith.maximumf %in, %out : f32
      linalg.yield %36 : f32
    } -> tensor<1x8xf32>
    %31 = linalg.generic {indexing_maps = [affine_map<(d0, d1) -> (d0, d1)>, affine_map<(d0, d1) -> (d0, d1)>], iterator_types = ["parallel", "parallel"]} ins(%27 : tensor<1x8xf32>) outs(%30 : tensor<1x8xf32>) {
    ^bb0(%in: f32, %out: f32):
      %36 = arith.subf %out, %in : f32
      %37 = math.exp2 %36 : f32
      linalg.yield %37 : f32
    } -> tensor<1x8xf32>
    %32 = linalg.fill ins(%cst_0 : f32) outs(%11 : tensor<1x8xf32>) -> tensor<1x8xf32>
    %33 = linalg.generic {indexing_maps = [affine_map<(d0, d1) -> (d0, d1)>, affine_map<(d0, d1) -> (d0, d1)>], iterator_types = ["parallel", "parallel"]} ins(%31 : tensor<1x8xf32>) outs(%32 : tensor<1x8xf32>) {
    ^bb0(%in: f32, %out: f32):
      %36 = arith.mulf %in, %out : f32
      linalg.yield %36 : f32
    } -> tensor<1x8xf32>
    %34 = linalg.generic {indexing_maps = [affine_map<(d0, d1, d2) -> (d0, d1, d2)>, affine_map<(d0, d1, d2) -> (d0, d1)>], iterator_types = ["parallel", "parallel", "reduction"]} ins(%26 : tensor<1x8x8xf32>) outs(%33 : tensor<1x8xf32>) {
    ^bb0(%in: f32, %out: f32):
      %36 = arith.addf %in, %out : f32
      linalg.yield %36 : f32
    } -> tensor<1x8xf32>
    %35 = linalg.generic {indexing_maps = [affine_map<(d0, d1, d2) -> (d0, d1, d2)>, affine_map<(d0, d1, d2) -> (d0, d1)>, affine_map<(d0, d1, d2) -> (d0, d1, d2)>], iterator_types = ["parallel", "parallel", "parallel"]} ins(%21, %34 : tensor<1x8x8xf32>, tensor<1x8xf32>) outs(%extracted_slice_2 : tensor<1x8x8xf32>) {
    ^bb0(%in: f32, %in_5: f32, %out: f32):
      %36 = arith.divf %in, %in_5 : f32
      linalg.yield %36 : f32
    } -> tensor<1x8x8xf32>
    scf.forall.in_parallel {
      tensor.parallel_insert_slice %35 into %arg4[%arg0, %arg1, %arg2] [1, 8, 8] [1, 1, 1] : tensor<1x8x8xf32> into tensor<20x4096x64xf32>
    }
  } {mapping = [#iree_codegen.workgroup_mapping<z:1>, #iree_codegen.workgroup_mapping<z>, #iree_codegen.workgroup_mapping<y>, #iree_codegen.workgroup_mapping<x>]}
  iree_codegen.store_to_buffer %8, %3 : tensor<20x4096x64xf32> into memref<20x4096x64xf32, #hal.descriptor_type<storage_buffer>>
  return
}

// -----// IR Dump After DecomposeWinogradTransformPass (iree-linalg-ext-decompose-winograd) //----- //
func.func @no_peel_static_matmul() attributes {hal.executable.target = #hal.executable.target<"llvm-cpu", "system-elf-x86_64", {native_vector_size = 64 : i64}>, translation_info = #iree_codegen.translation_info<pipeline = CPULinalgExtTileAndVectorize>} {
  %cst = arith.constant -3.40282347E+38 : f32
  %cst_0 = arith.constant 0.000000e+00 : f32
  %0 = hal.interface.binding.subspan layout(<bindings = [#hal.pipeline.binding<storage_buffer>, #hal.pipeline.binding<storage_buffer>, #hal.pipeline.binding<storage_buffer>, #hal.pipeline.binding<storage_buffer>]>) binding(0) : memref<20x4096x64xf32, #hal.descriptor_type<storage_buffer>>
  %1 = hal.interface.binding.subspan layout(<bindings = [#hal.pipeline.binding<storage_buffer>, #hal.pipeline.binding<storage_buffer>, #hal.pipeline.binding<storage_buffer>, #hal.pipeline.binding<storage_buffer>]>) binding(1) : memref<20x4096x64xf32, #hal.descriptor_type<storage_buffer>>
  %2 = hal.interface.binding.subspan layout(<bindings = [#hal.pipeline.binding<storage_buffer>, #hal.pipeline.binding<storage_buffer>, #hal.pipeline.binding<storage_buffer>, #hal.pipeline.binding<storage_buffer>]>) binding(2) : memref<20x4096x64xf32, #hal.descriptor_type<storage_buffer>>
  %3 = hal.interface.binding.subspan layout(<bindings = [#hal.pipeline.binding<storage_buffer>, #hal.pipeline.binding<storage_buffer>, #hal.pipeline.binding<storage_buffer>, #hal.pipeline.binding<storage_buffer>]>) binding(3) : memref<20x4096x64xf32, #hal.descriptor_type<storage_buffer>>
  %4 = iree_codegen.load_from_buffer %0 : memref<20x4096x64xf32, #hal.descriptor_type<storage_buffer>> -> tensor<20x4096x64xf32>
  %5 = iree_codegen.load_from_buffer %1 : memref<20x4096x64xf32, #hal.descriptor_type<storage_buffer>> -> tensor<20x4096x64xf32>
  %6 = iree_codegen.load_from_buffer %2 : memref<20x4096x64xf32, #hal.descriptor_type<storage_buffer>> -> tensor<20x4096x64xf32>
  %7 = tensor.empty() : tensor<20x4096x64xf32>
  %8 = scf.forall (%arg0, %arg1, %arg2, %arg3) = (0, 0, 0, 0) to (20, 4096, 64, 4096) step (1, 8, 8, 8) shared_outs(%arg4 = %7) -> (tensor<20x4096x64xf32>) {
    %extracted_slice = tensor.extract_slice %4[%arg0, %arg1, 0] [1, 8, 64] [1, 1, 1] : tensor<20x4096x64xf32> to tensor<1x8x64xf32>
    %extracted_slice_1 = tensor.extract_slice %5[%arg0, %arg3, 0] [1, 8, 64] [1, 1, 1] : tensor<20x4096x64xf32> to tensor<1x8x64xf32>
    %9 = tensor.empty() : tensor<1x8x8xf32>
    %10 = linalg.generic {indexing_maps = [affine_map<(d0, d1, d2, d3) -> (d0, d1, d3)>, affine_map<(d0, d1, d2, d3) -> (d0, d2, d3)>, affine_map<(d0, d1, d2, d3) -> (d0, d1, d2)>], iterator_types = ["parallel", "parallel", "parallel", "reduction"]} ins(%extracted_slice, %extracted_slice_1 : tensor<1x8x64xf32>, tensor<1x8x64xf32>) outs(%9 : tensor<1x8x8xf32>) {
    ^bb0(%in: f32, %in_5: f32, %out: f32):
      %36 = arith.mulf %in, %in_5 : f32
      %37 = arith.addf %36, %out : f32
      linalg.yield %37 : f32
    } -> tensor<1x8x8xf32>
    %11 = tensor.empty() : tensor<1x8xf32>
    %12 = linalg.fill ins(%cst : f32) outs(%11 : tensor<1x8xf32>) -> tensor<1x8xf32>
    %13 = linalg.generic {indexing_maps = [affine_map<(d0, d1, d2) -> (d0, d1, d2)>, affine_map<(d0, d1, d2) -> (d0, d1)>], iterator_types = ["parallel", "parallel", "reduction"]} ins(%10 : tensor<1x8x8xf32>) outs(%12 : tensor<1x8xf32>) {
    ^bb0(%in: f32, %out: f32):
      %36 = arith.maximumf %in, %out : f32
      linalg.yield %36 : f32
    } -> tensor<1x8xf32>
    %14 = linalg.generic {indexing_maps = [affine_map<(d0, d1) -> (d0, d1)>, affine_map<(d0, d1) -> (d0, d1)>], iterator_types = ["parallel", "parallel"]} ins(%12 : tensor<1x8xf32>) outs(%13 : tensor<1x8xf32>) {
    ^bb0(%in: f32, %out: f32):
      %36 = arith.subf %out, %in : f32
      %37 = math.exp2 %36 : f32
      linalg.yield %37 : f32
    } -> tensor<1x8xf32>
    %extracted_slice_2 = tensor.extract_slice %arg4[%arg0, %arg1, %arg2] [1, 8, 8] [1, 1, 1] : tensor<20x4096x64xf32> to tensor<1x8x8xf32>
    %15 = tensor.empty() : tensor<1x8x8xf32>
    %16 = linalg.fill ins(%cst_0 : f32) outs(%15 : tensor<1x8x8xf32>) -> tensor<1x8x8xf32>
    %17 = linalg.generic {indexing_maps = [affine_map<(d0, d1, d2) -> (d0, d1)>, affine_map<(d0, d1, d2) -> (d0, d1, d2)>], iterator_types = ["parallel", "parallel", "parallel"]} ins(%14 : tensor<1x8xf32>) outs(%16 : tensor<1x8x8xf32>) {
    ^bb0(%in: f32, %out: f32):
      %36 = arith.mulf %in, %out : f32
      linalg.yield %36 : f32
    } -> tensor<1x8x8xf32>
    %18 = tensor.empty() : tensor<1x8x8xf32>
    %extracted_slice_3 = tensor.extract_slice %5[%arg0, %arg3, 0] [1, 8, 64] [1, 1, 1] : tensor<20x4096x64xf32> to tensor<1x8x64xf32>
    %19 = linalg.generic {indexing_maps = [affine_map<(d0, d1, d2, d3) -> (d0, d1, d3)>, affine_map<(d0, d1, d2, d3) -> (d0, d2, d3)>, affine_map<(d0, d1, d2, d3) -> (d0, d1, d2)>], iterator_types = ["parallel", "parallel", "parallel", "reduction"]} ins(%extracted_slice, %extracted_slice_3 : tensor<1x8x64xf32>, tensor<1x8x64xf32>) outs(%18 : tensor<1x8x8xf32>) {
    ^bb0(%in: f32, %in_5: f32, %out: f32):
      %36 = arith.mulf %in, %in_5 : f32
      %37 = arith.addf %36, %out : f32
      linalg.yield %37 : f32
    } -> tensor<1x8x8xf32>
    %20 = linalg.generic {indexing_maps = [affine_map<(d0, d1, d2) -> (d0, d1)>, affine_map<(d0, d1, d2) -> (d0, d1, d2)>], iterator_types = ["parallel", "parallel", "parallel"]} ins(%13 : tensor<1x8xf32>) outs(%19 : tensor<1x8x8xf32>) {
    ^bb0(%in: f32, %out: f32):
      %36 = arith.subf %out, %in : f32
      %37 = math.exp2 %36 : f32
      linalg.yield %37 : f32
    } -> tensor<1x8x8xf32>
    %extracted_slice_4 = tensor.extract_slice %6[%arg0, %arg3, %arg2] [1, 8, 8] [1, 1, 1] : tensor<20x4096x64xf32> to tensor<1x8x8xf32>
    %21 = linalg.generic {indexing_maps = [affine_map<(d0, d1, d2, d3) -> (d0, d1, d3)>, affine_map<(d0, d1, d2, d3) -> (d0, d3, d2)>, affine_map<(d0, d1, d2, d3) -> (d0, d1, d2)>], iterator_types = ["parallel", "parallel", "parallel", "reduction"]} ins(%20, %extracted_slice_4 : tensor<1x8x8xf32>, tensor<1x8x8xf32>) outs(%17 : tensor<1x8x8xf32>) attrs =  {lowering_config = #iree_cpu.lowering_config<distribution = [1, 8, 8, 8], vector_common_parallel = [0, 0, 8, 16], vector_reduction = [0, 0, 0, 16]>} {
    ^bb0(%in: f32, %in_5: f32, %out: f32):
      %36 = arith.mulf %in, %in_5 : f32
      %37 = arith.addf %36, %out : f32
      linalg.yield %37 : f32
    } -> tensor<1x8x8xf32>
    %22 = linalg.generic {indexing_maps = [affine_map<(d0, d1, d2, d3) -> (d0, d1, d3)>, affine_map<(d0, d1, d2, d3) -> (d0, d2, d3)>, affine_map<(d0, d1, d2, d3) -> (d0, d1, d2)>], iterator_types = ["parallel", "parallel", "parallel", "reduction"]} ins(%extracted_slice, %extracted_slice_1 : tensor<1x8x64xf32>, tensor<1x8x64xf32>) outs(%9 : tensor<1x8x8xf32>) {
    ^bb0(%in: f32, %in_5: f32, %out: f32):
      %36 = arith.mulf %in, %in_5 : f32
      %37 = arith.addf %36, %out : f32
      linalg.yield %37 : f32
    } -> tensor<1x8x8xf32>
    %23 = linalg.fill ins(%cst : f32) outs(%11 : tensor<1x8xf32>) -> tensor<1x8xf32>
    %24 = linalg.generic {indexing_maps = [affine_map<(d0, d1, d2) -> (d0, d1, d2)>, affine_map<(d0, d1, d2) -> (d0, d1)>], iterator_types = ["parallel", "parallel", "reduction"]} ins(%22 : tensor<1x8x8xf32>) outs(%23 : tensor<1x8xf32>) {
    ^bb0(%in: f32, %out: f32):
      %36 = arith.maximumf %in, %out : f32
      linalg.yield %36 : f32
    } -> tensor<1x8xf32>
    %25 = linalg.generic {indexing_maps = [affine_map<(d0, d1, d2, d3) -> (d0, d1, d3)>, affine_map<(d0, d1, d2, d3) -> (d0, d2, d3)>, affine_map<(d0, d1, d2, d3) -> (d0, d1, d2)>], iterator_types = ["parallel", "parallel", "parallel", "reduction"]} ins(%extracted_slice, %extracted_slice_1 : tensor<1x8x64xf32>, tensor<1x8x64xf32>) outs(%9 : tensor<1x8x8xf32>) {
    ^bb0(%in: f32, %in_5: f32, %out: f32):
      %36 = arith.mulf %in, %in_5 : f32
      %37 = arith.addf %36, %out : f32
      linalg.yield %37 : f32
    } -> tensor<1x8x8xf32>
    %26 = linalg.generic {indexing_maps = [affine_map<(d0, d1, d2) -> (d0, d1)>, affine_map<(d0, d1, d2) -> (d0, d1, d2)>], iterator_types = ["parallel", "parallel", "parallel"]} ins(%24 : tensor<1x8xf32>) outs(%25 : tensor<1x8x8xf32>) {
    ^bb0(%in: f32, %out: f32):
      %36 = arith.subf %out, %in : f32
      %37 = math.exp2 %36 : f32
      linalg.yield %37 : f32
    } -> tensor<1x8x8xf32>
    %27 = linalg.fill ins(%cst : f32) outs(%11 : tensor<1x8xf32>) -> tensor<1x8xf32>
    %28 = linalg.generic {indexing_maps = [affine_map<(d0, d1, d2, d3) -> (d0, d1, d3)>, affine_map<(d0, d1, d2, d3) -> (d0, d2, d3)>, affine_map<(d0, d1, d2, d3) -> (d0, d1, d2)>], iterator_types = ["parallel", "parallel", "parallel", "reduction"]} ins(%extracted_slice, %extracted_slice_1 : tensor<1x8x64xf32>, tensor<1x8x64xf32>) outs(%9 : tensor<1x8x8xf32>) {
    ^bb0(%in: f32, %in_5: f32, %out: f32):
      %36 = arith.mulf %in, %in_5 : f32
      %37 = arith.addf %36, %out : f32
      linalg.yield %37 : f32
    } -> tensor<1x8x8xf32>
    %29 = linalg.fill ins(%cst : f32) outs(%11 : tensor<1x8xf32>) -> tensor<1x8xf32>
    %30 = linalg.generic {indexing_maps = [affine_map<(d0, d1, d2) -> (d0, d1, d2)>, affine_map<(d0, d1, d2) -> (d0, d1)>], iterator_types = ["parallel", "parallel", "reduction"]} ins(%28 : tensor<1x8x8xf32>) outs(%29 : tensor<1x8xf32>) {
    ^bb0(%in: f32, %out: f32):
      %36 = arith.maximumf %in, %out : f32
      linalg.yield %36 : f32
    } -> tensor<1x8xf32>
    %31 = linalg.generic {indexing_maps = [affine_map<(d0, d1) -> (d0, d1)>, affine_map<(d0, d1) -> (d0, d1)>], iterator_types = ["parallel", "parallel"]} ins(%27 : tensor<1x8xf32>) outs(%30 : tensor<1x8xf32>) {
    ^bb0(%in: f32, %out: f32):
      %36 = arith.subf %out, %in : f32
      %37 = math.exp2 %36 : f32
      linalg.yield %37 : f32
    } -> tensor<1x8xf32>
    %32 = linalg.fill ins(%cst_0 : f32) outs(%11 : tensor<1x8xf32>) -> tensor<1x8xf32>
    %33 = linalg.generic {indexing_maps = [affine_map<(d0, d1) -> (d0, d1)>, affine_map<(d0, d1) -> (d0, d1)>], iterator_types = ["parallel", "parallel"]} ins(%31 : tensor<1x8xf32>) outs(%32 : tensor<1x8xf32>) {
    ^bb0(%in: f32, %out: f32):
      %36 = arith.mulf %in, %out : f32
      linalg.yield %36 : f32
    } -> tensor<1x8xf32>
    %34 = linalg.generic {indexing_maps = [affine_map<(d0, d1, d2) -> (d0, d1, d2)>, affine_map<(d0, d1, d2) -> (d0, d1)>], iterator_types = ["parallel", "parallel", "reduction"]} ins(%26 : tensor<1x8x8xf32>) outs(%33 : tensor<1x8xf32>) {
    ^bb0(%in: f32, %out: f32):
      %36 = arith.addf %in, %out : f32
      linalg.yield %36 : f32
    } -> tensor<1x8xf32>
    %35 = linalg.generic {indexing_maps = [affine_map<(d0, d1, d2) -> (d0, d1, d2)>, affine_map<(d0, d1, d2) -> (d0, d1)>, affine_map<(d0, d1, d2) -> (d0, d1, d2)>], iterator_types = ["parallel", "parallel", "parallel"]} ins(%21, %34 : tensor<1x8x8xf32>, tensor<1x8xf32>) outs(%extracted_slice_2 : tensor<1x8x8xf32>) {
    ^bb0(%in: f32, %in_5: f32, %out: f32):
      %36 = arith.divf %in, %in_5 : f32
      linalg.yield %36 : f32
    } -> tensor<1x8x8xf32>
    scf.forall.in_parallel {
      tensor.parallel_insert_slice %35 into %arg4[%arg0, %arg1, %arg2] [1, 8, 8] [1, 1, 1] : tensor<1x8x8xf32> into tensor<20x4096x64xf32>
    }
  } {mapping = [#iree_codegen.workgroup_mapping<z:1>, #iree_codegen.workgroup_mapping<z>, #iree_codegen.workgroup_mapping<y>, #iree_codegen.workgroup_mapping<x>]}
  iree_codegen.store_to_buffer %8, %3 : tensor<20x4096x64xf32> into memref<20x4096x64xf32, #hal.descriptor_type<storage_buffer>>
  return
}

// -----// IR Dump After DecomposeAttentionPass (iree-linalg-ext-decompose-attention) //----- //
func.func @no_peel_static_matmul() attributes {hal.executable.target = #hal.executable.target<"llvm-cpu", "system-elf-x86_64", {native_vector_size = 64 : i64}>, translation_info = #iree_codegen.translation_info<pipeline = CPULinalgExtTileAndVectorize>} {
  %cst = arith.constant -3.40282347E+38 : f32
  %cst_0 = arith.constant 0.000000e+00 : f32
  %0 = hal.interface.binding.subspan layout(<bindings = [#hal.pipeline.binding<storage_buffer>, #hal.pipeline.binding<storage_buffer>, #hal.pipeline.binding<storage_buffer>, #hal.pipeline.binding<storage_buffer>]>) binding(0) : memref<20x4096x64xf32, #hal.descriptor_type<storage_buffer>>
  %1 = hal.interface.binding.subspan layout(<bindings = [#hal.pipeline.binding<storage_buffer>, #hal.pipeline.binding<storage_buffer>, #hal.pipeline.binding<storage_buffer>, #hal.pipeline.binding<storage_buffer>]>) binding(1) : memref<20x4096x64xf32, #hal.descriptor_type<storage_buffer>>
  %2 = hal.interface.binding.subspan layout(<bindings = [#hal.pipeline.binding<storage_buffer>, #hal.pipeline.binding<storage_buffer>, #hal.pipeline.binding<storage_buffer>, #hal.pipeline.binding<storage_buffer>]>) binding(2) : memref<20x4096x64xf32, #hal.descriptor_type<storage_buffer>>
  %3 = hal.interface.binding.subspan layout(<bindings = [#hal.pipeline.binding<storage_buffer>, #hal.pipeline.binding<storage_buffer>, #hal.pipeline.binding<storage_buffer>, #hal.pipeline.binding<storage_buffer>]>) binding(3) : memref<20x4096x64xf32, #hal.descriptor_type<storage_buffer>>
  %4 = iree_codegen.load_from_buffer %0 : memref<20x4096x64xf32, #hal.descriptor_type<storage_buffer>> -> tensor<20x4096x64xf32>
  %5 = iree_codegen.load_from_buffer %1 : memref<20x4096x64xf32, #hal.descriptor_type<storage_buffer>> -> tensor<20x4096x64xf32>
  %6 = iree_codegen.load_from_buffer %2 : memref<20x4096x64xf32, #hal.descriptor_type<storage_buffer>> -> tensor<20x4096x64xf32>
  %7 = tensor.empty() : tensor<20x4096x64xf32>
  %8 = scf.forall (%arg0, %arg1, %arg2, %arg3) = (0, 0, 0, 0) to (20, 4096, 64, 4096) step (1, 8, 8, 8) shared_outs(%arg4 = %7) -> (tensor<20x4096x64xf32>) {
    %extracted_slice = tensor.extract_slice %4[%arg0, %arg1, 0] [1, 8, 64] [1, 1, 1] : tensor<20x4096x64xf32> to tensor<1x8x64xf32>
    %extracted_slice_1 = tensor.extract_slice %5[%arg0, %arg3, 0] [1, 8, 64] [1, 1, 1] : tensor<20x4096x64xf32> to tensor<1x8x64xf32>
    %9 = tensor.empty() : tensor<1x8x8xf32>
    %10 = linalg.generic {indexing_maps = [affine_map<(d0, d1, d2, d3) -> (d0, d1, d3)>, affine_map<(d0, d1, d2, d3) -> (d0, d2, d3)>, affine_map<(d0, d1, d2, d3) -> (d0, d1, d2)>], iterator_types = ["parallel", "parallel", "parallel", "reduction"]} ins(%extracted_slice, %extracted_slice_1 : tensor<1x8x64xf32>, tensor<1x8x64xf32>) outs(%9 : tensor<1x8x8xf32>) {
    ^bb0(%in: f32, %in_5: f32, %out: f32):
      %36 = arith.mulf %in, %in_5 : f32
      %37 = arith.addf %36, %out : f32
      linalg.yield %37 : f32
    } -> tensor<1x8x8xf32>
    %11 = tensor.empty() : tensor<1x8xf32>
    %12 = linalg.fill ins(%cst : f32) outs(%11 : tensor<1x8xf32>) -> tensor<1x8xf32>
    %13 = linalg.generic {indexing_maps = [affine_map<(d0, d1, d2) -> (d0, d1, d2)>, affine_map<(d0, d1, d2) -> (d0, d1)>], iterator_types = ["parallel", "parallel", "reduction"]} ins(%10 : tensor<1x8x8xf32>) outs(%12 : tensor<1x8xf32>) {
    ^bb0(%in: f32, %out: f32):
      %36 = arith.maximumf %in, %out : f32
      linalg.yield %36 : f32
    } -> tensor<1x8xf32>
    %14 = linalg.generic {indexing_maps = [affine_map<(d0, d1) -> (d0, d1)>, affine_map<(d0, d1) -> (d0, d1)>], iterator_types = ["parallel", "parallel"]} ins(%12 : tensor<1x8xf32>) outs(%13 : tensor<1x8xf32>) {
    ^bb0(%in: f32, %out: f32):
      %36 = arith.subf %out, %in : f32
      %37 = math.exp2 %36 : f32
      linalg.yield %37 : f32
    } -> tensor<1x8xf32>
    %extracted_slice_2 = tensor.extract_slice %arg4[%arg0, %arg1, %arg2] [1, 8, 8] [1, 1, 1] : tensor<20x4096x64xf32> to tensor<1x8x8xf32>
    %15 = tensor.empty() : tensor<1x8x8xf32>
    %16 = linalg.fill ins(%cst_0 : f32) outs(%15 : tensor<1x8x8xf32>) -> tensor<1x8x8xf32>
    %17 = linalg.generic {indexing_maps = [affine_map<(d0, d1, d2) -> (d0, d1)>, affine_map<(d0, d1, d2) -> (d0, d1, d2)>], iterator_types = ["parallel", "parallel", "parallel"]} ins(%14 : tensor<1x8xf32>) outs(%16 : tensor<1x8x8xf32>) {
    ^bb0(%in: f32, %out: f32):
      %36 = arith.mulf %in, %out : f32
      linalg.yield %36 : f32
    } -> tensor<1x8x8xf32>
    %18 = tensor.empty() : tensor<1x8x8xf32>
    %extracted_slice_3 = tensor.extract_slice %5[%arg0, %arg3, 0] [1, 8, 64] [1, 1, 1] : tensor<20x4096x64xf32> to tensor<1x8x64xf32>
    %19 = linalg.generic {indexing_maps = [affine_map<(d0, d1, d2, d3) -> (d0, d1, d3)>, affine_map<(d0, d1, d2, d3) -> (d0, d2, d3)>, affine_map<(d0, d1, d2, d3) -> (d0, d1, d2)>], iterator_types = ["parallel", "parallel", "parallel", "reduction"]} ins(%extracted_slice, %extracted_slice_3 : tensor<1x8x64xf32>, tensor<1x8x64xf32>) outs(%18 : tensor<1x8x8xf32>) {
    ^bb0(%in: f32, %in_5: f32, %out: f32):
      %36 = arith.mulf %in, %in_5 : f32
      %37 = arith.addf %36, %out : f32
      linalg.yield %37 : f32
    } -> tensor<1x8x8xf32>
    %20 = linalg.generic {indexing_maps = [affine_map<(d0, d1, d2) -> (d0, d1)>, affine_map<(d0, d1, d2) -> (d0, d1, d2)>], iterator_types = ["parallel", "parallel", "parallel"]} ins(%13 : tensor<1x8xf32>) outs(%19 : tensor<1x8x8xf32>) {
    ^bb0(%in: f32, %out: f32):
      %36 = arith.subf %out, %in : f32
      %37 = math.exp2 %36 : f32
      linalg.yield %37 : f32
    } -> tensor<1x8x8xf32>
    %extracted_slice_4 = tensor.extract_slice %6[%arg0, %arg3, %arg2] [1, 8, 8] [1, 1, 1] : tensor<20x4096x64xf32> to tensor<1x8x8xf32>
    %21 = linalg.generic {indexing_maps = [affine_map<(d0, d1, d2, d3) -> (d0, d1, d3)>, affine_map<(d0, d1, d2, d3) -> (d0, d3, d2)>, affine_map<(d0, d1, d2, d3) -> (d0, d1, d2)>], iterator_types = ["parallel", "parallel", "parallel", "reduction"]} ins(%20, %extracted_slice_4 : tensor<1x8x8xf32>, tensor<1x8x8xf32>) outs(%17 : tensor<1x8x8xf32>) attrs =  {lowering_config = #iree_cpu.lowering_config<distribution = [1, 8, 8, 8], vector_common_parallel = [0, 0, 8, 16], vector_reduction = [0, 0, 0, 16]>} {
    ^bb0(%in: f32, %in_5: f32, %out: f32):
      %36 = arith.mulf %in, %in_5 : f32
      %37 = arith.addf %36, %out : f32
      linalg.yield %37 : f32
    } -> tensor<1x8x8xf32>
    %22 = linalg.generic {indexing_maps = [affine_map<(d0, d1, d2, d3) -> (d0, d1, d3)>, affine_map<(d0, d1, d2, d3) -> (d0, d2, d3)>, affine_map<(d0, d1, d2, d3) -> (d0, d1, d2)>], iterator_types = ["parallel", "parallel", "parallel", "reduction"]} ins(%extracted_slice, %extracted_slice_1 : tensor<1x8x64xf32>, tensor<1x8x64xf32>) outs(%9 : tensor<1x8x8xf32>) {
    ^bb0(%in: f32, %in_5: f32, %out: f32):
      %36 = arith.mulf %in, %in_5 : f32
      %37 = arith.addf %36, %out : f32
      linalg.yield %37 : f32
    } -> tensor<1x8x8xf32>
    %23 = linalg.fill ins(%cst : f32) outs(%11 : tensor<1x8xf32>) -> tensor<1x8xf32>
    %24 = linalg.generic {indexing_maps = [affine_map<(d0, d1, d2) -> (d0, d1, d2)>, affine_map<(d0, d1, d2) -> (d0, d1)>], iterator_types = ["parallel", "parallel", "reduction"]} ins(%22 : tensor<1x8x8xf32>) outs(%23 : tensor<1x8xf32>) {
    ^bb0(%in: f32, %out: f32):
      %36 = arith.maximumf %in, %out : f32
      linalg.yield %36 : f32
    } -> tensor<1x8xf32>
    %25 = linalg.generic {indexing_maps = [affine_map<(d0, d1, d2, d3) -> (d0, d1, d3)>, affine_map<(d0, d1, d2, d3) -> (d0, d2, d3)>, affine_map<(d0, d1, d2, d3) -> (d0, d1, d2)>], iterator_types = ["parallel", "parallel", "parallel", "reduction"]} ins(%extracted_slice, %extracted_slice_1 : tensor<1x8x64xf32>, tensor<1x8x64xf32>) outs(%9 : tensor<1x8x8xf32>) {
    ^bb0(%in: f32, %in_5: f32, %out: f32):
      %36 = arith.mulf %in, %in_5 : f32
      %37 = arith.addf %36, %out : f32
      linalg.yield %37 : f32
    } -> tensor<1x8x8xf32>
    %26 = linalg.generic {indexing_maps = [affine_map<(d0, d1, d2) -> (d0, d1)>, affine_map<(d0, d1, d2) -> (d0, d1, d2)>], iterator_types = ["parallel", "parallel", "parallel"]} ins(%24 : tensor<1x8xf32>) outs(%25 : tensor<1x8x8xf32>) {
    ^bb0(%in: f32, %out: f32):
      %36 = arith.subf %out, %in : f32
      %37 = math.exp2 %36 : f32
      linalg.yield %37 : f32
    } -> tensor<1x8x8xf32>
    %27 = linalg.fill ins(%cst : f32) outs(%11 : tensor<1x8xf32>) -> tensor<1x8xf32>
    %28 = linalg.generic {indexing_maps = [affine_map<(d0, d1, d2, d3) -> (d0, d1, d3)>, affine_map<(d0, d1, d2, d3) -> (d0, d2, d3)>, affine_map<(d0, d1, d2, d3) -> (d0, d1, d2)>], iterator_types = ["parallel", "parallel", "parallel", "reduction"]} ins(%extracted_slice, %extracted_slice_1 : tensor<1x8x64xf32>, tensor<1x8x64xf32>) outs(%9 : tensor<1x8x8xf32>) {
    ^bb0(%in: f32, %in_5: f32, %out: f32):
      %36 = arith.mulf %in, %in_5 : f32
      %37 = arith.addf %36, %out : f32
      linalg.yield %37 : f32
    } -> tensor<1x8x8xf32>
    %29 = linalg.fill ins(%cst : f32) outs(%11 : tensor<1x8xf32>) -> tensor<1x8xf32>
    %30 = linalg.generic {indexing_maps = [affine_map<(d0, d1, d2) -> (d0, d1, d2)>, affine_map<(d0, d1, d2) -> (d0, d1)>], iterator_types = ["parallel", "parallel", "reduction"]} ins(%28 : tensor<1x8x8xf32>) outs(%29 : tensor<1x8xf32>) {
    ^bb0(%in: f32, %out: f32):
      %36 = arith.maximumf %in, %out : f32
      linalg.yield %36 : f32
    } -> tensor<1x8xf32>
    %31 = linalg.generic {indexing_maps = [affine_map<(d0, d1) -> (d0, d1)>, affine_map<(d0, d1) -> (d0, d1)>], iterator_types = ["parallel", "parallel"]} ins(%27 : tensor<1x8xf32>) outs(%30 : tensor<1x8xf32>) {
    ^bb0(%in: f32, %out: f32):
      %36 = arith.subf %out, %in : f32
      %37 = math.exp2 %36 : f32
      linalg.yield %37 : f32
    } -> tensor<1x8xf32>
    %32 = linalg.fill ins(%cst_0 : f32) outs(%11 : tensor<1x8xf32>) -> tensor<1x8xf32>
    %33 = linalg.generic {indexing_maps = [affine_map<(d0, d1) -> (d0, d1)>, affine_map<(d0, d1) -> (d0, d1)>], iterator_types = ["parallel", "parallel"]} ins(%31 : tensor<1x8xf32>) outs(%32 : tensor<1x8xf32>) {
    ^bb0(%in: f32, %out: f32):
      %36 = arith.mulf %in, %out : f32
      linalg.yield %36 : f32
    } -> tensor<1x8xf32>
    %34 = linalg.generic {indexing_maps = [affine_map<(d0, d1, d2) -> (d0, d1, d2)>, affine_map<(d0, d1, d2) -> (d0, d1)>], iterator_types = ["parallel", "parallel", "reduction"]} ins(%26 : tensor<1x8x8xf32>) outs(%33 : tensor<1x8xf32>) {
    ^bb0(%in: f32, %out: f32):
      %36 = arith.addf %in, %out : f32
      linalg.yield %36 : f32
    } -> tensor<1x8xf32>
    %35 = linalg.generic {indexing_maps = [affine_map<(d0, d1, d2) -> (d0, d1, d2)>, affine_map<(d0, d1, d2) -> (d0, d1)>, affine_map<(d0, d1, d2) -> (d0, d1, d2)>], iterator_types = ["parallel", "parallel", "parallel"]} ins(%21, %34 : tensor<1x8x8xf32>, tensor<1x8xf32>) outs(%extracted_slice_2 : tensor<1x8x8xf32>) {
    ^bb0(%in: f32, %in_5: f32, %out: f32):
      %36 = arith.divf %in, %in_5 : f32
      linalg.yield %36 : f32
    } -> tensor<1x8x8xf32>
    scf.forall.in_parallel {
      tensor.parallel_insert_slice %35 into %arg4[%arg0, %arg1, %arg2] [1, 8, 8] [1, 1, 1] : tensor<1x8x8xf32> into tensor<20x4096x64xf32>
    }
  } {mapping = [#iree_codegen.workgroup_mapping<z:1>, #iree_codegen.workgroup_mapping<z>, #iree_codegen.workgroup_mapping<y>, #iree_codegen.workgroup_mapping<x>]}
  iree_codegen.store_to_buffer %8, %3 : tensor<20x4096x64xf32> into memref<20x4096x64xf32, #hal.descriptor_type<storage_buffer>>
  return
}

// -----// IR Dump After ForallToForPass (iree-codegen-forall-to-for) //----- //
func.func @no_peel_static_matmul() attributes {hal.executable.target = #hal.executable.target<"llvm-cpu", "system-elf-x86_64", {native_vector_size = 64 : i64}>, translation_info = #iree_codegen.translation_info<pipeline = CPULinalgExtTileAndVectorize>} {
  %cst = arith.constant -3.40282347E+38 : f32
  %cst_0 = arith.constant 0.000000e+00 : f32
  %0 = hal.interface.binding.subspan layout(<bindings = [#hal.pipeline.binding<storage_buffer>, #hal.pipeline.binding<storage_buffer>, #hal.pipeline.binding<storage_buffer>, #hal.pipeline.binding<storage_buffer>]>) binding(0) : memref<20x4096x64xf32, #hal.descriptor_type<storage_buffer>>
  %1 = hal.interface.binding.subspan layout(<bindings = [#hal.pipeline.binding<storage_buffer>, #hal.pipeline.binding<storage_buffer>, #hal.pipeline.binding<storage_buffer>, #hal.pipeline.binding<storage_buffer>]>) binding(1) : memref<20x4096x64xf32, #hal.descriptor_type<storage_buffer>>
  %2 = hal.interface.binding.subspan layout(<bindings = [#hal.pipeline.binding<storage_buffer>, #hal.pipeline.binding<storage_buffer>, #hal.pipeline.binding<storage_buffer>, #hal.pipeline.binding<storage_buffer>]>) binding(2) : memref<20x4096x64xf32, #hal.descriptor_type<storage_buffer>>
  %3 = hal.interface.binding.subspan layout(<bindings = [#hal.pipeline.binding<storage_buffer>, #hal.pipeline.binding<storage_buffer>, #hal.pipeline.binding<storage_buffer>, #hal.pipeline.binding<storage_buffer>]>) binding(3) : memref<20x4096x64xf32, #hal.descriptor_type<storage_buffer>>
  %4 = iree_codegen.load_from_buffer %0 : memref<20x4096x64xf32, #hal.descriptor_type<storage_buffer>> -> tensor<20x4096x64xf32>
  %5 = iree_codegen.load_from_buffer %1 : memref<20x4096x64xf32, #hal.descriptor_type<storage_buffer>> -> tensor<20x4096x64xf32>
  %6 = iree_codegen.load_from_buffer %2 : memref<20x4096x64xf32, #hal.descriptor_type<storage_buffer>> -> tensor<20x4096x64xf32>
  %7 = tensor.empty() : tensor<20x4096x64xf32>
  %8 = scf.forall (%arg0, %arg1, %arg2, %arg3) = (0, 0, 0, 0) to (20, 4096, 64, 4096) step (1, 8, 8, 8) shared_outs(%arg4 = %7) -> (tensor<20x4096x64xf32>) {
    %extracted_slice = tensor.extract_slice %4[%arg0, %arg1, 0] [1, 8, 64] [1, 1, 1] : tensor<20x4096x64xf32> to tensor<1x8x64xf32>
    %extracted_slice_1 = tensor.extract_slice %5[%arg0, %arg3, 0] [1, 8, 64] [1, 1, 1] : tensor<20x4096x64xf32> to tensor<1x8x64xf32>
    %9 = tensor.empty() : tensor<1x8x8xf32>
    %10 = linalg.generic {indexing_maps = [affine_map<(d0, d1, d2, d3) -> (d0, d1, d3)>, affine_map<(d0, d1, d2, d3) -> (d0, d2, d3)>, affine_map<(d0, d1, d2, d3) -> (d0, d1, d2)>], iterator_types = ["parallel", "parallel", "parallel", "reduction"]} ins(%extracted_slice, %extracted_slice_1 : tensor<1x8x64xf32>, tensor<1x8x64xf32>) outs(%9 : tensor<1x8x8xf32>) {
    ^bb0(%in: f32, %in_5: f32, %out: f32):
      %36 = arith.mulf %in, %in_5 : f32
      %37 = arith.addf %36, %out : f32
      linalg.yield %37 : f32
    } -> tensor<1x8x8xf32>
    %11 = tensor.empty() : tensor<1x8xf32>
    %12 = linalg.fill ins(%cst : f32) outs(%11 : tensor<1x8xf32>) -> tensor<1x8xf32>
    %13 = linalg.generic {indexing_maps = [affine_map<(d0, d1, d2) -> (d0, d1, d2)>, affine_map<(d0, d1, d2) -> (d0, d1)>], iterator_types = ["parallel", "parallel", "reduction"]} ins(%10 : tensor<1x8x8xf32>) outs(%12 : tensor<1x8xf32>) {
    ^bb0(%in: f32, %out: f32):
      %36 = arith.maximumf %in, %out : f32
      linalg.yield %36 : f32
    } -> tensor<1x8xf32>
    %14 = linalg.generic {indexing_maps = [affine_map<(d0, d1) -> (d0, d1)>, affine_map<(d0, d1) -> (d0, d1)>], iterator_types = ["parallel", "parallel"]} ins(%12 : tensor<1x8xf32>) outs(%13 : tensor<1x8xf32>) {
    ^bb0(%in: f32, %out: f32):
      %36 = arith.subf %out, %in : f32
      %37 = math.exp2 %36 : f32
      linalg.yield %37 : f32
    } -> tensor<1x8xf32>
    %extracted_slice_2 = tensor.extract_slice %arg4[%arg0, %arg1, %arg2] [1, 8, 8] [1, 1, 1] : tensor<20x4096x64xf32> to tensor<1x8x8xf32>
    %15 = tensor.empty() : tensor<1x8x8xf32>
    %16 = linalg.fill ins(%cst_0 : f32) outs(%15 : tensor<1x8x8xf32>) -> tensor<1x8x8xf32>
    %17 = linalg.generic {indexing_maps = [affine_map<(d0, d1, d2) -> (d0, d1)>, affine_map<(d0, d1, d2) -> (d0, d1, d2)>], iterator_types = ["parallel", "parallel", "parallel"]} ins(%14 : tensor<1x8xf32>) outs(%16 : tensor<1x8x8xf32>) {
    ^bb0(%in: f32, %out: f32):
      %36 = arith.mulf %in, %out : f32
      linalg.yield %36 : f32
    } -> tensor<1x8x8xf32>
    %18 = tensor.empty() : tensor<1x8x8xf32>
    %extracted_slice_3 = tensor.extract_slice %5[%arg0, %arg3, 0] [1, 8, 64] [1, 1, 1] : tensor<20x4096x64xf32> to tensor<1x8x64xf32>
    %19 = linalg.generic {indexing_maps = [affine_map<(d0, d1, d2, d3) -> (d0, d1, d3)>, affine_map<(d0, d1, d2, d3) -> (d0, d2, d3)>, affine_map<(d0, d1, d2, d3) -> (d0, d1, d2)>], iterator_types = ["parallel", "parallel", "parallel", "reduction"]} ins(%extracted_slice, %extracted_slice_3 : tensor<1x8x64xf32>, tensor<1x8x64xf32>) outs(%18 : tensor<1x8x8xf32>) {
    ^bb0(%in: f32, %in_5: f32, %out: f32):
      %36 = arith.mulf %in, %in_5 : f32
      %37 = arith.addf %36, %out : f32
      linalg.yield %37 : f32
    } -> tensor<1x8x8xf32>
    %20 = linalg.generic {indexing_maps = [affine_map<(d0, d1, d2) -> (d0, d1)>, affine_map<(d0, d1, d2) -> (d0, d1, d2)>], iterator_types = ["parallel", "parallel", "parallel"]} ins(%13 : tensor<1x8xf32>) outs(%19 : tensor<1x8x8xf32>) {
    ^bb0(%in: f32, %out: f32):
      %36 = arith.subf %out, %in : f32
      %37 = math.exp2 %36 : f32
      linalg.yield %37 : f32
    } -> tensor<1x8x8xf32>
    %extracted_slice_4 = tensor.extract_slice %6[%arg0, %arg3, %arg2] [1, 8, 8] [1, 1, 1] : tensor<20x4096x64xf32> to tensor<1x8x8xf32>
    %21 = linalg.generic {indexing_maps = [affine_map<(d0, d1, d2, d3) -> (d0, d1, d3)>, affine_map<(d0, d1, d2, d3) -> (d0, d3, d2)>, affine_map<(d0, d1, d2, d3) -> (d0, d1, d2)>], iterator_types = ["parallel", "parallel", "parallel", "reduction"]} ins(%20, %extracted_slice_4 : tensor<1x8x8xf32>, tensor<1x8x8xf32>) outs(%17 : tensor<1x8x8xf32>) attrs =  {lowering_config = #iree_cpu.lowering_config<distribution = [1, 8, 8, 8], vector_common_parallel = [0, 0, 8, 16], vector_reduction = [0, 0, 0, 16]>} {
    ^bb0(%in: f32, %in_5: f32, %out: f32):
      %36 = arith.mulf %in, %in_5 : f32
      %37 = arith.addf %36, %out : f32
      linalg.yield %37 : f32
    } -> tensor<1x8x8xf32>
    %22 = linalg.generic {indexing_maps = [affine_map<(d0, d1, d2, d3) -> (d0, d1, d3)>, affine_map<(d0, d1, d2, d3) -> (d0, d2, d3)>, affine_map<(d0, d1, d2, d3) -> (d0, d1, d2)>], iterator_types = ["parallel", "parallel", "parallel", "reduction"]} ins(%extracted_slice, %extracted_slice_1 : tensor<1x8x64xf32>, tensor<1x8x64xf32>) outs(%9 : tensor<1x8x8xf32>) {
    ^bb0(%in: f32, %in_5: f32, %out: f32):
      %36 = arith.mulf %in, %in_5 : f32
      %37 = arith.addf %36, %out : f32
      linalg.yield %37 : f32
    } -> tensor<1x8x8xf32>
    %23 = linalg.fill ins(%cst : f32) outs(%11 : tensor<1x8xf32>) -> tensor<1x8xf32>
    %24 = linalg.generic {indexing_maps = [affine_map<(d0, d1, d2) -> (d0, d1, d2)>, affine_map<(d0, d1, d2) -> (d0, d1)>], iterator_types = ["parallel", "parallel", "reduction"]} ins(%22 : tensor<1x8x8xf32>) outs(%23 : tensor<1x8xf32>) {
    ^bb0(%in: f32, %out: f32):
      %36 = arith.maximumf %in, %out : f32
      linalg.yield %36 : f32
    } -> tensor<1x8xf32>
    %25 = linalg.generic {indexing_maps = [affine_map<(d0, d1, d2, d3) -> (d0, d1, d3)>, affine_map<(d0, d1, d2, d3) -> (d0, d2, d3)>, affine_map<(d0, d1, d2, d3) -> (d0, d1, d2)>], iterator_types = ["parallel", "parallel", "parallel", "reduction"]} ins(%extracted_slice, %extracted_slice_1 : tensor<1x8x64xf32>, tensor<1x8x64xf32>) outs(%9 : tensor<1x8x8xf32>) {
    ^bb0(%in: f32, %in_5: f32, %out: f32):
      %36 = arith.mulf %in, %in_5 : f32
      %37 = arith.addf %36, %out : f32
      linalg.yield %37 : f32
    } -> tensor<1x8x8xf32>
    %26 = linalg.generic {indexing_maps = [affine_map<(d0, d1, d2) -> (d0, d1)>, affine_map<(d0, d1, d2) -> (d0, d1, d2)>], iterator_types = ["parallel", "parallel", "parallel"]} ins(%24 : tensor<1x8xf32>) outs(%25 : tensor<1x8x8xf32>) {
    ^bb0(%in: f32, %out: f32):
      %36 = arith.subf %out, %in : f32
      %37 = math.exp2 %36 : f32
      linalg.yield %37 : f32
    } -> tensor<1x8x8xf32>
    %27 = linalg.fill ins(%cst : f32) outs(%11 : tensor<1x8xf32>) -> tensor<1x8xf32>
    %28 = linalg.generic {indexing_maps = [affine_map<(d0, d1, d2, d3) -> (d0, d1, d3)>, affine_map<(d0, d1, d2, d3) -> (d0, d2, d3)>, affine_map<(d0, d1, d2, d3) -> (d0, d1, d2)>], iterator_types = ["parallel", "parallel", "parallel", "reduction"]} ins(%extracted_slice, %extracted_slice_1 : tensor<1x8x64xf32>, tensor<1x8x64xf32>) outs(%9 : tensor<1x8x8xf32>) {
    ^bb0(%in: f32, %in_5: f32, %out: f32):
      %36 = arith.mulf %in, %in_5 : f32
      %37 = arith.addf %36, %out : f32
      linalg.yield %37 : f32
    } -> tensor<1x8x8xf32>
    %29 = linalg.fill ins(%cst : f32) outs(%11 : tensor<1x8xf32>) -> tensor<1x8xf32>
    %30 = linalg.generic {indexing_maps = [affine_map<(d0, d1, d2) -> (d0, d1, d2)>, affine_map<(d0, d1, d2) -> (d0, d1)>], iterator_types = ["parallel", "parallel", "reduction"]} ins(%28 : tensor<1x8x8xf32>) outs(%29 : tensor<1x8xf32>) {
    ^bb0(%in: f32, %out: f32):
      %36 = arith.maximumf %in, %out : f32
      linalg.yield %36 : f32
    } -> tensor<1x8xf32>
    %31 = linalg.generic {indexing_maps = [affine_map<(d0, d1) -> (d0, d1)>, affine_map<(d0, d1) -> (d0, d1)>], iterator_types = ["parallel", "parallel"]} ins(%27 : tensor<1x8xf32>) outs(%30 : tensor<1x8xf32>) {
    ^bb0(%in: f32, %out: f32):
      %36 = arith.subf %out, %in : f32
      %37 = math.exp2 %36 : f32
      linalg.yield %37 : f32
    } -> tensor<1x8xf32>
    %32 = linalg.fill ins(%cst_0 : f32) outs(%11 : tensor<1x8xf32>) -> tensor<1x8xf32>
    %33 = linalg.generic {indexing_maps = [affine_map<(d0, d1) -> (d0, d1)>, affine_map<(d0, d1) -> (d0, d1)>], iterator_types = ["parallel", "parallel"]} ins(%31 : tensor<1x8xf32>) outs(%32 : tensor<1x8xf32>) {
    ^bb0(%in: f32, %out: f32):
      %36 = arith.mulf %in, %out : f32
      linalg.yield %36 : f32
    } -> tensor<1x8xf32>
    %34 = linalg.generic {indexing_maps = [affine_map<(d0, d1, d2) -> (d0, d1, d2)>, affine_map<(d0, d1, d2) -> (d0, d1)>], iterator_types = ["parallel", "parallel", "reduction"]} ins(%26 : tensor<1x8x8xf32>) outs(%33 : tensor<1x8xf32>) {
    ^bb0(%in: f32, %out: f32):
      %36 = arith.addf %in, %out : f32
      linalg.yield %36 : f32
    } -> tensor<1x8xf32>
    %35 = linalg.generic {indexing_maps = [affine_map<(d0, d1, d2) -> (d0, d1, d2)>, affine_map<(d0, d1, d2) -> (d0, d1)>, affine_map<(d0, d1, d2) -> (d0, d1, d2)>], iterator_types = ["parallel", "parallel", "parallel"]} ins(%21, %34 : tensor<1x8x8xf32>, tensor<1x8xf32>) outs(%extracted_slice_2 : tensor<1x8x8xf32>) {
    ^bb0(%in: f32, %in_5: f32, %out: f32):
      %36 = arith.divf %in, %in_5 : f32
      linalg.yield %36 : f32
    } -> tensor<1x8x8xf32>
    scf.forall.in_parallel {
      tensor.parallel_insert_slice %35 into %arg4[%arg0, %arg1, %arg2] [1, 8, 8] [1, 1, 1] : tensor<1x8x8xf32> into tensor<20x4096x64xf32>
    }
  } {mapping = [#iree_codegen.workgroup_mapping<z:1>, #iree_codegen.workgroup_mapping<z>, #iree_codegen.workgroup_mapping<y>, #iree_codegen.workgroup_mapping<x>]}
  iree_codegen.store_to_buffer %8, %3 : tensor<20x4096x64xf32> into memref<20x4096x64xf32, #hal.descriptor_type<storage_buffer>>
  return
}

// -----// IR Dump After GenericVectorizationPass (iree-codegen-generic-vectorization) //----- //
func.func @no_peel_static_matmul() attributes {hal.executable.target = #hal.executable.target<"llvm-cpu", "system-elf-x86_64", {native_vector_size = 64 : i64}>, translation_info = #iree_codegen.translation_info<pipeline = CPULinalgExtTileAndVectorize>} {
  %cst = arith.constant dense<0.000000e+00> : vector<8x1x8xf32>
  %cst_0 = arith.constant dense<0.000000e+00> : vector<1x8xf32>
  %cst_1 = arith.constant dense<-3.40282347E+38> : vector<1x8xf32>
  %0 = ub.poison : f32
  %c0 = arith.constant 0 : index
  %1 = hal.interface.binding.subspan layout(<bindings = [#hal.pipeline.binding<storage_buffer>, #hal.pipeline.binding<storage_buffer>, #hal.pipeline.binding<storage_buffer>, #hal.pipeline.binding<storage_buffer>]>) binding(0) : memref<20x4096x64xf32, #hal.descriptor_type<storage_buffer>>
  %2 = hal.interface.binding.subspan layout(<bindings = [#hal.pipeline.binding<storage_buffer>, #hal.pipeline.binding<storage_buffer>, #hal.pipeline.binding<storage_buffer>, #hal.pipeline.binding<storage_buffer>]>) binding(1) : memref<20x4096x64xf32, #hal.descriptor_type<storage_buffer>>
  %3 = hal.interface.binding.subspan layout(<bindings = [#hal.pipeline.binding<storage_buffer>, #hal.pipeline.binding<storage_buffer>, #hal.pipeline.binding<storage_buffer>, #hal.pipeline.binding<storage_buffer>]>) binding(2) : memref<20x4096x64xf32, #hal.descriptor_type<storage_buffer>>
  %4 = hal.interface.binding.subspan layout(<bindings = [#hal.pipeline.binding<storage_buffer>, #hal.pipeline.binding<storage_buffer>, #hal.pipeline.binding<storage_buffer>, #hal.pipeline.binding<storage_buffer>]>) binding(3) : memref<20x4096x64xf32, #hal.descriptor_type<storage_buffer>>
  %5 = iree_codegen.load_from_buffer %1 : memref<20x4096x64xf32, #hal.descriptor_type<storage_buffer>> -> tensor<20x4096x64xf32>
  %6 = iree_codegen.load_from_buffer %2 : memref<20x4096x64xf32, #hal.descriptor_type<storage_buffer>> -> tensor<20x4096x64xf32>
  %7 = iree_codegen.load_from_buffer %3 : memref<20x4096x64xf32, #hal.descriptor_type<storage_buffer>> -> tensor<20x4096x64xf32>
  %8 = tensor.empty() : tensor<20x4096x64xf32>
  %9 = scf.forall (%arg0, %arg1, %arg2, %arg3) = (0, 0, 0, 0) to (20, 4096, 64, 4096) step (1, 8, 8, 8) shared_outs(%arg4 = %8) -> (tensor<20x4096x64xf32>) {
    %extracted_slice = tensor.extract_slice %5[%arg0, %arg1, 0] [1, 8, 64] [1, 1, 1] : tensor<20x4096x64xf32> to tensor<1x8x64xf32>
    %extracted_slice_2 = tensor.extract_slice %6[%arg0, %arg3, 0] [1, 8, 64] [1, 1, 1] : tensor<20x4096x64xf32> to tensor<1x8x64xf32>
    %10 = tensor.empty() : tensor<1x8x8xf32>
    %11 = vector.transfer_read %extracted_slice[%c0, %c0, %c0], %0 {in_bounds = [true, true, true]} : tensor<1x8x64xf32>, vector<1x8x64xf32>
    %12 = vector.transfer_read %extracted_slice_2[%c0, %c0, %c0], %0 {in_bounds = [true, true, true]} : tensor<1x8x64xf32>, vector<1x8x64xf32>
    %13 = vector.transfer_read %10[%c0, %c0, %c0], %0 {in_bounds = [true, true, true]} : tensor<1x8x8xf32>, vector<1x8x8xf32>
    %14 = vector.contract {indexing_maps = [affine_map<(d0, d1, d2, d3) -> (d0, d1, d3)>, affine_map<(d0, d1, d2, d3) -> (d0, d2, d3)>, affine_map<(d0, d1, d2, d3) -> (d0, d1, d2)>], iterator_types = ["parallel", "parallel", "parallel", "reduction"], kind = #vector.kind<add>} %11, %12, %13 : vector<1x8x64xf32>, vector<1x8x64xf32> into vector<1x8x8xf32>
    %15 = vector.multi_reduction <maximumf>, %14, %cst_1 [2] : vector<1x8x8xf32> to vector<1x8xf32>
    %16 = arith.subf %15, %cst_1 : vector<1x8xf32>
    %17 = math.exp2 %16 : vector<1x8xf32>
    %extracted_slice_3 = tensor.extract_slice %arg4[%arg0, %arg1, %arg2] [1, 8, 8] [1, 1, 1] : tensor<20x4096x64xf32> to tensor<1x8x8xf32>
    %18 = vector.broadcast %17 : vector<1x8xf32> to vector<8x1x8xf32>
    %19 = arith.mulf %18, %cst : vector<8x1x8xf32>
    %20 = vector.transpose %19, [1, 2, 0] : vector<8x1x8xf32> to vector<1x8x8xf32>
    %21 = tensor.empty() : tensor<1x8x8xf32>
    %extracted_slice_4 = tensor.extract_slice %6[%arg0, %arg3, 0] [1, 8, 64] [1, 1, 1] : tensor<20x4096x64xf32> to tensor<1x8x64xf32>
    %22 = vector.transfer_read %extracted_slice[%c0, %c0, %c0], %0 {in_bounds = [true, true, true]} : tensor<1x8x64xf32>, vector<1x8x64xf32>
    %23 = vector.transfer_read %extracted_slice_4[%c0, %c0, %c0], %0 {in_bounds = [true, true, true]} : tensor<1x8x64xf32>, vector<1x8x64xf32>
    %24 = vector.transfer_read %21[%c0, %c0, %c0], %0 {in_bounds = [true, true, true]} : tensor<1x8x8xf32>, vector<1x8x8xf32>
    %25 = vector.contract {indexing_maps = [affine_map<(d0, d1, d2, d3) -> (d0, d1, d3)>, affine_map<(d0, d1, d2, d3) -> (d0, d2, d3)>, affine_map<(d0, d1, d2, d3) -> (d0, d1, d2)>], iterator_types = ["parallel", "parallel", "parallel", "reduction"], kind = #vector.kind<add>} %22, %23, %24 : vector<1x8x64xf32>, vector<1x8x64xf32> into vector<1x8x8xf32>
    %26 = vector.broadcast %15 : vector<1x8xf32> to vector<8x1x8xf32>
    %27 = vector.transpose %26, [1, 2, 0] : vector<8x1x8xf32> to vector<1x8x8xf32>
    %28 = arith.subf %25, %27 : vector<1x8x8xf32>
    %29 = math.exp2 %28 : vector<1x8x8xf32>
    %extracted_slice_5 = tensor.extract_slice %7[%arg0, %arg3, %arg2] [1, 8, 8] [1, 1, 1] : tensor<20x4096x64xf32> to tensor<1x8x8xf32>
    %30 = vector.transfer_read %extracted_slice_5[%c0, %c0, %c0], %0 {in_bounds = [true, true, true]} : tensor<1x8x8xf32>, vector<1x8x8xf32>
    %31 = vector.contract {indexing_maps = [affine_map<(d0, d1, d2, d3) -> (d0, d1, d3)>, affine_map<(d0, d1, d2, d3) -> (d0, d3, d2)>, affine_map<(d0, d1, d2, d3) -> (d0, d1, d2)>], iterator_types = ["parallel", "parallel", "parallel", "reduction"], kind = #vector.kind<add>} %29, %30, %20 : vector<1x8x8xf32>, vector<1x8x8xf32> into vector<1x8x8xf32>
    %32 = vector.transfer_read %extracted_slice[%c0, %c0, %c0], %0 {in_bounds = [true, true, true]} : tensor<1x8x64xf32>, vector<1x8x64xf32>
    %33 = vector.transfer_read %extracted_slice_2[%c0, %c0, %c0], %0 {in_bounds = [true, true, true]} : tensor<1x8x64xf32>, vector<1x8x64xf32>
    %34 = vector.transfer_read %10[%c0, %c0, %c0], %0 {in_bounds = [true, true, true]} : tensor<1x8x8xf32>, vector<1x8x8xf32>
    %35 = vector.contract {indexing_maps = [affine_map<(d0, d1, d2, d3) -> (d0, d1, d3)>, affine_map<(d0, d1, d2, d3) -> (d0, d2, d3)>, affine_map<(d0, d1, d2, d3) -> (d0, d1, d2)>], iterator_types = ["parallel", "parallel", "parallel", "reduction"], kind = #vector.kind<add>} %32, %33, %34 : vector<1x8x64xf32>, vector<1x8x64xf32> into vector<1x8x8xf32>
    %36 = vector.multi_reduction <maximumf>, %35, %cst_1 [2] : vector<1x8x8xf32> to vector<1x8xf32>
    %37 = vector.transfer_read %extracted_slice[%c0, %c0, %c0], %0 {in_bounds = [true, true, true]} : tensor<1x8x64xf32>, vector<1x8x64xf32>
    %38 = vector.transfer_read %extracted_slice_2[%c0, %c0, %c0], %0 {in_bounds = [true, true, true]} : tensor<1x8x64xf32>, vector<1x8x64xf32>
    %39 = vector.transfer_read %10[%c0, %c0, %c0], %0 {in_bounds = [true, true, true]} : tensor<1x8x8xf32>, vector<1x8x8xf32>
    %40 = vector.contract {indexing_maps = [affine_map<(d0, d1, d2, d3) -> (d0, d1, d3)>, affine_map<(d0, d1, d2, d3) -> (d0, d2, d3)>, affine_map<(d0, d1, d2, d3) -> (d0, d1, d2)>], iterator_types = ["parallel", "parallel", "parallel", "reduction"], kind = #vector.kind<add>} %37, %38, %39 : vector<1x8x64xf32>, vector<1x8x64xf32> into vector<1x8x8xf32>
    %41 = vector.broadcast %36 : vector<1x8xf32> to vector<8x1x8xf32>
    %42 = vector.transpose %41, [1, 2, 0] : vector<8x1x8xf32> to vector<1x8x8xf32>
    %43 = arith.subf %40, %42 : vector<1x8x8xf32>
    %44 = math.exp2 %43 : vector<1x8x8xf32>
    %45 = vector.transfer_read %extracted_slice[%c0, %c0, %c0], %0 {in_bounds = [true, true, true]} : tensor<1x8x64xf32>, vector<1x8x64xf32>
    %46 = vector.transfer_read %extracted_slice_2[%c0, %c0, %c0], %0 {in_bounds = [true, true, true]} : tensor<1x8x64xf32>, vector<1x8x64xf32>
    %47 = vector.transfer_read %10[%c0, %c0, %c0], %0 {in_bounds = [true, true, true]} : tensor<1x8x8xf32>, vector<1x8x8xf32>
    %48 = vector.contract {indexing_maps = [affine_map<(d0, d1, d2, d3) -> (d0, d1, d3)>, affine_map<(d0, d1, d2, d3) -> (d0, d2, d3)>, affine_map<(d0, d1, d2, d3) -> (d0, d1, d2)>], iterator_types = ["parallel", "parallel", "parallel", "reduction"], kind = #vector.kind<add>} %45, %46, %47 : vector<1x8x64xf32>, vector<1x8x64xf32> into vector<1x8x8xf32>
    %49 = vector.multi_reduction <maximumf>, %48, %cst_1 [2] : vector<1x8x8xf32> to vector<1x8xf32>
    %50 = arith.subf %49, %cst_1 : vector<1x8xf32>
    %51 = math.exp2 %50 : vector<1x8xf32>
    %52 = arith.mulf %51, %cst_0 : vector<1x8xf32>
    %53 = vector.multi_reduction <add>, %44, %52 [2] : vector<1x8x8xf32> to vector<1x8xf32>
    %54 = vector.broadcast %53 : vector<1x8xf32> to vector<8x1x8xf32>
    %55 = vector.transpose %54, [1, 2, 0] : vector<8x1x8xf32> to vector<1x8x8xf32>
    %56 = arith.divf %31, %55 : vector<1x8x8xf32>
    %57 = vector.transfer_write %56, %extracted_slice_3[%c0, %c0, %c0] {in_bounds = [true, true, true]} : vector<1x8x8xf32>, tensor<1x8x8xf32>
    scf.forall.in_parallel {
      tensor.parallel_insert_slice %57 into %arg4[%arg0, %arg1, %arg2] [1, 8, 8] [1, 1, 1] : tensor<1x8x8xf32> into tensor<20x4096x64xf32>
    }
  } {mapping = [#iree_codegen.workgroup_mapping<z:1>, #iree_codegen.workgroup_mapping<z>, #iree_codegen.workgroup_mapping<y>, #iree_codegen.workgroup_mapping<x>]}
  iree_codegen.store_to_buffer %9, %4 : tensor<20x4096x64xf32> into memref<20x4096x64xf32, #hal.descriptor_type<storage_buffer>>
  return
}

// -----// IR Dump After Canonicalizer (canonicalize) //----- //
func.func @no_peel_static_matmul() attributes {hal.executable.target = #hal.executable.target<"llvm-cpu", "system-elf-x86_64", {native_vector_size = 64 : i64}>, translation_info = #iree_codegen.translation_info<pipeline = CPULinalgExtTileAndVectorize>} {
  %cst = arith.constant dense<0.000000e+00> : vector<8x1x8xf32>
  %cst_0 = arith.constant dense<0.000000e+00> : vector<1x8xf32>
  %cst_1 = arith.constant dense<-3.40282347E+38> : vector<1x8xf32>
  %0 = ub.poison : f32
  %c0 = arith.constant 0 : index
  %1 = hal.interface.binding.subspan layout(<bindings = [#hal.pipeline.binding<storage_buffer>, #hal.pipeline.binding<storage_buffer>, #hal.pipeline.binding<storage_buffer>, #hal.pipeline.binding<storage_buffer>]>) binding(0) : memref<20x4096x64xf32, #hal.descriptor_type<storage_buffer>>
  %2 = hal.interface.binding.subspan layout(<bindings = [#hal.pipeline.binding<storage_buffer>, #hal.pipeline.binding<storage_buffer>, #hal.pipeline.binding<storage_buffer>, #hal.pipeline.binding<storage_buffer>]>) binding(1) : memref<20x4096x64xf32, #hal.descriptor_type<storage_buffer>>
  %3 = hal.interface.binding.subspan layout(<bindings = [#hal.pipeline.binding<storage_buffer>, #hal.pipeline.binding<storage_buffer>, #hal.pipeline.binding<storage_buffer>, #hal.pipeline.binding<storage_buffer>]>) binding(2) : memref<20x4096x64xf32, #hal.descriptor_type<storage_buffer>>
  %4 = hal.interface.binding.subspan layout(<bindings = [#hal.pipeline.binding<storage_buffer>, #hal.pipeline.binding<storage_buffer>, #hal.pipeline.binding<storage_buffer>, #hal.pipeline.binding<storage_buffer>]>) binding(3) : memref<20x4096x64xf32, #hal.descriptor_type<storage_buffer>>
  %5 = iree_codegen.load_from_buffer %1 : memref<20x4096x64xf32, #hal.descriptor_type<storage_buffer>> -> tensor<20x4096x64xf32>
  %6 = iree_codegen.load_from_buffer %2 : memref<20x4096x64xf32, #hal.descriptor_type<storage_buffer>> -> tensor<20x4096x64xf32>
  %7 = iree_codegen.load_from_buffer %3 : memref<20x4096x64xf32, #hal.descriptor_type<storage_buffer>> -> tensor<20x4096x64xf32>
  %8 = tensor.empty() : tensor<20x4096x64xf32>
  %9 = scf.forall (%arg0, %arg1, %arg2, %arg3) = (0, 0, 0, 0) to (20, 4096, 64, 4096) step (1, 8, 8, 8) shared_outs(%arg4 = %8) -> (tensor<20x4096x64xf32>) {
    %extracted_slice = tensor.extract_slice %5[%arg0, %arg1, 0] [1, 8, 64] [1, 1, 1] : tensor<20x4096x64xf32> to tensor<1x8x64xf32>
    %extracted_slice_2 = tensor.extract_slice %6[%arg0, %arg3, 0] [1, 8, 64] [1, 1, 1] : tensor<20x4096x64xf32> to tensor<1x8x64xf32>
    %10 = tensor.empty() : tensor<1x8x8xf32>
    %11 = vector.transfer_read %extracted_slice[%c0, %c0, %c0], %0 {in_bounds = [true, true, true]} : tensor<1x8x64xf32>, vector<1x8x64xf32>
    %12 = vector.transfer_read %extracted_slice_2[%c0, %c0, %c0], %0 {in_bounds = [true, true, true]} : tensor<1x8x64xf32>, vector<1x8x64xf32>
    %13 = vector.transfer_read %10[%c0, %c0, %c0], %0 {in_bounds = [true, true, true]} : tensor<1x8x8xf32>, vector<1x8x8xf32>
    %14 = vector.contract {indexing_maps = [affine_map<(d0, d1, d2, d3) -> (d0, d1, d3)>, affine_map<(d0, d1, d2, d3) -> (d0, d2, d3)>, affine_map<(d0, d1, d2, d3) -> (d0, d1, d2)>], iterator_types = ["parallel", "parallel", "parallel", "reduction"], kind = #vector.kind<add>} %11, %12, %13 : vector<1x8x64xf32>, vector<1x8x64xf32> into vector<1x8x8xf32>
    %15 = vector.multi_reduction <maximumf>, %14, %cst_1 [2] : vector<1x8x8xf32> to vector<1x8xf32>
    %16 = arith.subf %15, %cst_1 : vector<1x8xf32>
    %17 = math.exp2 %16 : vector<1x8xf32>
    %extracted_slice_3 = tensor.extract_slice %arg4[%arg0, %arg1, %arg2] [1, 8, 8] [1, 1, 1] : tensor<20x4096x64xf32> to tensor<1x8x8xf32>
    %18 = vector.broadcast %17 : vector<1x8xf32> to vector<8x1x8xf32>
    %19 = arith.mulf %18, %cst : vector<8x1x8xf32>
    %20 = vector.transpose %19, [1, 2, 0] : vector<8x1x8xf32> to vector<1x8x8xf32>
    %21 = tensor.empty() : tensor<1x8x8xf32>
    %extracted_slice_4 = tensor.extract_slice %6[%arg0, %arg3, 0] [1, 8, 64] [1, 1, 1] : tensor<20x4096x64xf32> to tensor<1x8x64xf32>
    %22 = vector.transfer_read %extracted_slice[%c0, %c0, %c0], %0 {in_bounds = [true, true, true]} : tensor<1x8x64xf32>, vector<1x8x64xf32>
    %23 = vector.transfer_read %extracted_slice_4[%c0, %c0, %c0], %0 {in_bounds = [true, true, true]} : tensor<1x8x64xf32>, vector<1x8x64xf32>
    %24 = vector.transfer_read %21[%c0, %c0, %c0], %0 {in_bounds = [true, true, true]} : tensor<1x8x8xf32>, vector<1x8x8xf32>
    %25 = vector.contract {indexing_maps = [affine_map<(d0, d1, d2, d3) -> (d0, d1, d3)>, affine_map<(d0, d1, d2, d3) -> (d0, d2, d3)>, affine_map<(d0, d1, d2, d3) -> (d0, d1, d2)>], iterator_types = ["parallel", "parallel", "parallel", "reduction"], kind = #vector.kind<add>} %22, %23, %24 : vector<1x8x64xf32>, vector<1x8x64xf32> into vector<1x8x8xf32>
    %26 = vector.broadcast %15 : vector<1x8xf32> to vector<8x1x8xf32>
    %27 = vector.transpose %26, [1, 2, 0] : vector<8x1x8xf32> to vector<1x8x8xf32>
    %28 = arith.subf %25, %27 : vector<1x8x8xf32>
    %29 = math.exp2 %28 : vector<1x8x8xf32>
    %extracted_slice_5 = tensor.extract_slice %7[%arg0, %arg3, %arg2] [1, 8, 8] [1, 1, 1] : tensor<20x4096x64xf32> to tensor<1x8x8xf32>
    %30 = vector.transfer_read %extracted_slice_5[%c0, %c0, %c0], %0 {in_bounds = [true, true, true]} : tensor<1x8x8xf32>, vector<1x8x8xf32>
    %31 = vector.contract {indexing_maps = [affine_map<(d0, d1, d2, d3) -> (d0, d1, d3)>, affine_map<(d0, d1, d2, d3) -> (d0, d3, d2)>, affine_map<(d0, d1, d2, d3) -> (d0, d1, d2)>], iterator_types = ["parallel", "parallel", "parallel", "reduction"], kind = #vector.kind<add>} %29, %30, %20 : vector<1x8x8xf32>, vector<1x8x8xf32> into vector<1x8x8xf32>
    %32 = vector.transfer_read %extracted_slice[%c0, %c0, %c0], %0 {in_bounds = [true, true, true]} : tensor<1x8x64xf32>, vector<1x8x64xf32>
    %33 = vector.transfer_read %extracted_slice_2[%c0, %c0, %c0], %0 {in_bounds = [true, true, true]} : tensor<1x8x64xf32>, vector<1x8x64xf32>
    %34 = vector.transfer_read %10[%c0, %c0, %c0], %0 {in_bounds = [true, true, true]} : tensor<1x8x8xf32>, vector<1x8x8xf32>
    %35 = vector.contract {indexing_maps = [affine_map<(d0, d1, d2, d3) -> (d0, d1, d3)>, affine_map<(d0, d1, d2, d3) -> (d0, d2, d3)>, affine_map<(d0, d1, d2, d3) -> (d0, d1, d2)>], iterator_types = ["parallel", "parallel", "parallel", "reduction"], kind = #vector.kind<add>} %32, %33, %34 : vector<1x8x64xf32>, vector<1x8x64xf32> into vector<1x8x8xf32>
    %36 = vector.multi_reduction <maximumf>, %35, %cst_1 [2] : vector<1x8x8xf32> to vector<1x8xf32>
    %37 = vector.transfer_read %extracted_slice[%c0, %c0, %c0], %0 {in_bounds = [true, true, true]} : tensor<1x8x64xf32>, vector<1x8x64xf32>
    %38 = vector.transfer_read %extracted_slice_2[%c0, %c0, %c0], %0 {in_bounds = [true, true, true]} : tensor<1x8x64xf32>, vector<1x8x64xf32>
    %39 = vector.transfer_read %10[%c0, %c0, %c0], %0 {in_bounds = [true, true, true]} : tensor<1x8x8xf32>, vector<1x8x8xf32>
    %40 = vector.contract {indexing_maps = [affine_map<(d0, d1, d2, d3) -> (d0, d1, d3)>, affine_map<(d0, d1, d2, d3) -> (d0, d2, d3)>, affine_map<(d0, d1, d2, d3) -> (d0, d1, d2)>], iterator_types = ["parallel", "parallel", "parallel", "reduction"], kind = #vector.kind<add>} %37, %38, %39 : vector<1x8x64xf32>, vector<1x8x64xf32> into vector<1x8x8xf32>
    %41 = vector.broadcast %36 : vector<1x8xf32> to vector<8x1x8xf32>
    %42 = vector.transpose %41, [1, 2, 0] : vector<8x1x8xf32> to vector<1x8x8xf32>
    %43 = arith.subf %40, %42 : vector<1x8x8xf32>
    %44 = math.exp2 %43 : vector<1x8x8xf32>
    %45 = vector.transfer_read %extracted_slice[%c0, %c0, %c0], %0 {in_bounds = [true, true, true]} : tensor<1x8x64xf32>, vector<1x8x64xf32>
    %46 = vector.transfer_read %extracted_slice_2[%c0, %c0, %c0], %0 {in_bounds = [true, true, true]} : tensor<1x8x64xf32>, vector<1x8x64xf32>
    %47 = vector.transfer_read %10[%c0, %c0, %c0], %0 {in_bounds = [true, true, true]} : tensor<1x8x8xf32>, vector<1x8x8xf32>
    %48 = vector.contract {indexing_maps = [affine_map<(d0, d1, d2, d3) -> (d0, d1, d3)>, affine_map<(d0, d1, d2, d3) -> (d0, d2, d3)>, affine_map<(d0, d1, d2, d3) -> (d0, d1, d2)>], iterator_types = ["parallel", "parallel", "parallel", "reduction"], kind = #vector.kind<add>} %45, %46, %47 : vector<1x8x64xf32>, vector<1x8x64xf32> into vector<1x8x8xf32>
    %49 = vector.multi_reduction <maximumf>, %48, %cst_1 [2] : vector<1x8x8xf32> to vector<1x8xf32>
    %50 = arith.subf %49, %cst_1 : vector<1x8xf32>
    %51 = math.exp2 %50 : vector<1x8xf32>
    %52 = arith.mulf %51, %cst_0 : vector<1x8xf32>
    %53 = vector.multi_reduction <add>, %44, %52 [2] : vector<1x8x8xf32> to vector<1x8xf32>
    %54 = vector.broadcast %53 : vector<1x8xf32> to vector<8x1x8xf32>
    %55 = vector.transpose %54, [1, 2, 0] : vector<8x1x8xf32> to vector<1x8x8xf32>
    %56 = arith.divf %31, %55 : vector<1x8x8xf32>
    %57 = vector.transfer_write %56, %extracted_slice_3[%c0, %c0, %c0] {in_bounds = [true, true, true]} : vector<1x8x8xf32>, tensor<1x8x8xf32>
    scf.forall.in_parallel {
      tensor.parallel_insert_slice %57 into %arg4[%arg0, %arg1, %arg2] [1, 8, 8] [1, 1, 1] : tensor<1x8x8xf32> into tensor<20x4096x64xf32>
    }
  } {mapping = [#iree_codegen.workgroup_mapping<z:1>, #iree_codegen.workgroup_mapping<z>, #iree_codegen.workgroup_mapping<y>, #iree_codegen.workgroup_mapping<x>]}
  iree_codegen.store_to_buffer %9, %4 : tensor<20x4096x64xf32> into memref<20x4096x64xf32, #hal.descriptor_type<storage_buffer>>
  return
}

// -----// IR Dump After CSE (cse) //----- //
func.func @no_peel_static_matmul() attributes {hal.executable.target = #hal.executable.target<"llvm-cpu", "system-elf-x86_64", {native_vector_size = 64 : i64}>, translation_info = #iree_codegen.translation_info<pipeline = CPULinalgExtTileAndVectorize>} {
  %cst = arith.constant dense<0.000000e+00> : vector<8x1x8xf32>
  %cst_0 = arith.constant dense<0.000000e+00> : vector<1x8xf32>
  %cst_1 = arith.constant dense<-3.40282347E+38> : vector<1x8xf32>
  %0 = ub.poison : f32
  %c0 = arith.constant 0 : index
  %1 = hal.interface.binding.subspan layout(<bindings = [#hal.pipeline.binding<storage_buffer>, #hal.pipeline.binding<storage_buffer>, #hal.pipeline.binding<storage_buffer>, #hal.pipeline.binding<storage_buffer>]>) binding(0) : memref<20x4096x64xf32, #hal.descriptor_type<storage_buffer>>
  %2 = hal.interface.binding.subspan layout(<bindings = [#hal.pipeline.binding<storage_buffer>, #hal.pipeline.binding<storage_buffer>, #hal.pipeline.binding<storage_buffer>, #hal.pipeline.binding<storage_buffer>]>) binding(1) : memref<20x4096x64xf32, #hal.descriptor_type<storage_buffer>>
  %3 = hal.interface.binding.subspan layout(<bindings = [#hal.pipeline.binding<storage_buffer>, #hal.pipeline.binding<storage_buffer>, #hal.pipeline.binding<storage_buffer>, #hal.pipeline.binding<storage_buffer>]>) binding(2) : memref<20x4096x64xf32, #hal.descriptor_type<storage_buffer>>
  %4 = hal.interface.binding.subspan layout(<bindings = [#hal.pipeline.binding<storage_buffer>, #hal.pipeline.binding<storage_buffer>, #hal.pipeline.binding<storage_buffer>, #hal.pipeline.binding<storage_buffer>]>) binding(3) : memref<20x4096x64xf32, #hal.descriptor_type<storage_buffer>>
  %5 = iree_codegen.load_from_buffer %1 : memref<20x4096x64xf32, #hal.descriptor_type<storage_buffer>> -> tensor<20x4096x64xf32>
  %6 = iree_codegen.load_from_buffer %2 : memref<20x4096x64xf32, #hal.descriptor_type<storage_buffer>> -> tensor<20x4096x64xf32>
  %7 = iree_codegen.load_from_buffer %3 : memref<20x4096x64xf32, #hal.descriptor_type<storage_buffer>> -> tensor<20x4096x64xf32>
  %8 = tensor.empty() : tensor<20x4096x64xf32>
  %9 = scf.forall (%arg0, %arg1, %arg2, %arg3) = (0, 0, 0, 0) to (20, 4096, 64, 4096) step (1, 8, 8, 8) shared_outs(%arg4 = %8) -> (tensor<20x4096x64xf32>) {
    %extracted_slice = tensor.extract_slice %5[%arg0, %arg1, 0] [1, 8, 64] [1, 1, 1] : tensor<20x4096x64xf32> to tensor<1x8x64xf32>
    %extracted_slice_2 = tensor.extract_slice %6[%arg0, %arg3, 0] [1, 8, 64] [1, 1, 1] : tensor<20x4096x64xf32> to tensor<1x8x64xf32>
    %10 = tensor.empty() : tensor<1x8x8xf32>
    %11 = vector.transfer_read %extracted_slice[%c0, %c0, %c0], %0 {in_bounds = [true, true, true]} : tensor<1x8x64xf32>, vector<1x8x64xf32>
    %12 = vector.transfer_read %extracted_slice_2[%c0, %c0, %c0], %0 {in_bounds = [true, true, true]} : tensor<1x8x64xf32>, vector<1x8x64xf32>
    %13 = vector.transfer_read %10[%c0, %c0, %c0], %0 {in_bounds = [true, true, true]} : tensor<1x8x8xf32>, vector<1x8x8xf32>
    %14 = vector.contract {indexing_maps = [affine_map<(d0, d1, d2, d3) -> (d0, d1, d3)>, affine_map<(d0, d1, d2, d3) -> (d0, d2, d3)>, affine_map<(d0, d1, d2, d3) -> (d0, d1, d2)>], iterator_types = ["parallel", "parallel", "parallel", "reduction"], kind = #vector.kind<add>} %11, %12, %13 : vector<1x8x64xf32>, vector<1x8x64xf32> into vector<1x8x8xf32>
    %15 = vector.multi_reduction <maximumf>, %14, %cst_1 [2] : vector<1x8x8xf32> to vector<1x8xf32>
    %16 = arith.subf %15, %cst_1 : vector<1x8xf32>
    %17 = math.exp2 %16 : vector<1x8xf32>
    %extracted_slice_3 = tensor.extract_slice %arg4[%arg0, %arg1, %arg2] [1, 8, 8] [1, 1, 1] : tensor<20x4096x64xf32> to tensor<1x8x8xf32>
    %18 = vector.broadcast %17 : vector<1x8xf32> to vector<8x1x8xf32>
    %19 = arith.mulf %18, %cst : vector<8x1x8xf32>
    %20 = vector.transpose %19, [1, 2, 0] : vector<8x1x8xf32> to vector<1x8x8xf32>
    %21 = vector.broadcast %15 : vector<1x8xf32> to vector<8x1x8xf32>
    %22 = vector.transpose %21, [1, 2, 0] : vector<8x1x8xf32> to vector<1x8x8xf32>
    %23 = arith.subf %14, %22 : vector<1x8x8xf32>
    %24 = math.exp2 %23 : vector<1x8x8xf32>
    %extracted_slice_4 = tensor.extract_slice %7[%arg0, %arg3, %arg2] [1, 8, 8] [1, 1, 1] : tensor<20x4096x64xf32> to tensor<1x8x8xf32>
…
      %1806 = memref.load %assume_align[%arg0, %1805, %c54] : memref<20x4096x64xf32, #hal.descriptor_type<storage_buffer>>
      %1807 = vector.broadcast %1806 : f32 to vector<8xf32>
      %1808 = vector.fma %1807, %94, %1777 : vector<8xf32>
      %1809 = memref.load %assume_align[%arg0, %arg1, %c55] : memref<20x4096x64xf32, #hal.descriptor_type<storage_buffer>>
      %1810 = vector.broadcast %1809 : f32 to vector<8xf32>
      %1811 = vector.fma %1810, %95, %1780 : vector<8xf32>
      %1812 = affine.apply #map7()[%arg1]
      %1813 = memref.load %assume_align[%arg0, %1812, %c55] : memref<20x4096x64xf32, #hal.descriptor_type<storage_buffer>>
      %1814 = vector.broadcast %1813 : f32 to vector<8xf32>
      %1815 = vector.fma %1814, %95, %1784 : vector<8xf32>
      %1816 = affine.apply #map8()[%arg1]
      %1817 = memref.load %assume_align[%arg0, %1816, %c55] : memref<20x4096x64xf32, #hal.descriptor_type<storage_buffer>>
      %1818 = vector.broadcast %1817 : f32 to vector<8xf32>
      %1819 = vector.fma %1818, %95, %1788 : vector<8xf32>
      %1820 = affine.apply #map9()[%arg1]
      %1821 = memref.load %assume_align[%arg0, %1820, %c55] : memref<20x4096x64xf32, #hal.descriptor_type<storage_buffer>>
      %1822 = vector.broadcast %1821 : f32 to vector<8xf32>
      %1823 = vector.fma %1822, %95, %1792 : vector<8xf32>
      %1824 = affine.apply #map10()[%arg1]
      %1825 = memref.load %assume_align[%arg0, %1824, %c55] : memref<20x4096x64xf32, #hal.descriptor_type<storage_buffer>>
      %1826 = vector.broadcast %1825 : f32 to vector<8xf32>
      %1827 = vector.fma %1826, %95, %1796 : vector<8xf32>
      %1828 = affine.apply #map11()[%arg1]
      %1829 = memref.load %assume_align[%arg0, %1828, %c55] : memref<20x4096x64xf32, #hal.descriptor_type<storage_buffer>>
      %1830 = vector.broadcast %1829 : f32 to vector<8xf32>
      %1831 = vector.fma %1830, %95, %1800 : vector<8xf32>
      %1832 = affine.apply #map12()[%arg1]
      %1833 = memref.load %assume_align[%arg0, %1832, %c55] : memref<20x4096x64xf32, #hal.descriptor_type<storage_buffer>>
      %1834 = vector.broadcast %1833 : f32 to vector<8xf32>
      %1835 = vector.fma %1834, %95, %1804 : vector<8xf32>
      %1836 = affine.apply #map13()[%arg1]
      %1837 = memref.load %assume_align[%arg0, %1836, %c55] : memref<20x4096x64xf32, #hal.descriptor_type<storage_buffer>>
      %1838 = vector.broadcast %1837 : f32 to vector<8xf32>
      %1839 = vector.fma %1838, %95, %1808 : vector<8xf32>
      %1840 = memref.load %assume_align[%arg0, %arg1, %c56] : memref<20x4096x64xf32, #hal.descriptor_type<storage_buffer>>
      %1841 = vector.broadcast %1840 : f32 to vector<8xf32>
      %1842 = vector.fma %1841, %96, %1811 : vector<8xf32>
      %1843 = affine.apply #map7()[%arg1]
      %1844 = memref.load %assume_align[%arg0, %1843, %c56] : memref<20x4096x64xf32, #hal.descriptor_type<storage_buffer>>
      %1845 = vector.broadcast %1844 : f32 to vector<8xf32>
      %1846 = vector.fma %1845, %96, %1815 : vector<8xf32>
      %1847 = affine.apply #map8()[%arg1]
      %1848 = memref.load %assume_align[%arg0, %1847, %c56] : memref<20x4096x64xf32, #hal.descriptor_type<storage_buffer>>
      %1849 = vector.broadcast %1848 : f32 to vector<8xf32>
      %1850 = vector.fma %1849, %96, %1819 : vector<8xf32>
      %1851 = affine.apply #map9()[%arg1]
      %1852 = memref.load %assume_align[%arg0, %1851, %c56] : memref<20x4096x64xf32, #hal.descriptor_type<storage_buffer>>
      %1853 = vector.broadcast %1852 : f32 to vector<8xf32>
      %1854 = vector.fma %1853, %96, %1823 : vector<8xf32>
      %1855 = affine.apply #map10()[%arg1]
      %1856 = memref.load %assume_align[%arg0, %1855, %c56] : memref<20x4096x64xf32, #hal.descriptor_type<storage_buffer>>
      %1857 = vector.broadcast %1856 : f32 to vector<8xf32>
      %1858 = vector.fma %1857, %96, %1827 : vector<8xf32>
      %1859 = affine.apply #map11()[%arg1]
      %1860 = memref.load %assume_align[%arg0, %1859, %c56] : memref<20x4096x64xf32, #hal.descriptor_type<storage_buffer>>
      %1861 = vector.broadcast %1860 : f32 to vector<8xf32>
      %1862 = vector.fma %1861, %96, %1831 : vector<8xf32>
      %1863 = affine.apply #map12()[%arg1]
      %1864 = memref.load %assume_align[%arg0, %1863, %c56] : memref<20x4096x64xf32, #hal.descriptor_type<storage_buffer>>
      %1865 = vector.broadcast %1864 : f32 to vector<8xf32>
      %1866 = vector.fma %1865, %96, %1835 : vector<8xf32>
      %1867 = affine.apply #map13()[%arg1]
      %1868 = memref.load %assume_align[%arg0, %1867, %c56] : memref<20x4096x64xf32, #hal.descriptor_type<storage_buffer>>
      %1869 = vector.broadcast %1868 : f32 to vector<8xf32>
      %1870 = vector.fma %1869, %96, %1839 : vector<8xf32>
      %1871 = memref.load %assume_align[%arg0, %arg1, %c57] : memref<20x4096x64xf32, #hal.descriptor_type<storage_buffer>>
      %1872 = vector.broadcast %1871 : f32 to vector<8xf32>
      %1873 = vector.fma %1872, %97, %1842 : vector<8xf32>
      %1874 = affine.apply #map7()[%arg1]
      %1875 = memref.load %assume_align[%arg0, %1874, %c57] : memref<20x4096x64xf32, #hal.descriptor_type<storage_buffer>>
      %1876 = vector.broadcast %1875 : f32 to vector<8xf32>
      %1877 = vector.fma %1876, %97, %1846 : vector<8xf32>
      %1878 = affine.apply #map8()[%arg1]
      %1879 = memref.load %assume_align[%arg0, %1878, %c57] : memref<20x4096x64xf32, #hal.descriptor_type<storage_buffer>>
      %1880 = vector.broadcast %1879 : f32 to vector<8xf32>
      %1881 = vector.fma %1880, %97, %1850 : vector<8xf32>
      %1882 = affine.apply #map9()[%arg1]
      %1883 = memref.load %assume_align[%arg0, %1882, %c57] : memref<20x4096x64xf32, #hal.descriptor_type<storage_buffer>>
      %1884 = vector.broadcast %1883 : f32 to vector<8xf32>
      %1885 = vector.fma %1884, %97, %1854 : vector<8xf32>
      %1886 = affine.apply #map10()[%arg1]
      %1887 = memref.load %assume_align[%arg0, %1886, %c57] : memref<20x4096x64xf32, #hal.descriptor_type<storage_buffer>>
      %1888 = vector.broadcast %1887 : f32 to vector<8xf32>
      %1889 = vector.fma %1888, %97, %1858 : vector<8xf32>
      %1890 = affine.apply #map11()[%arg1]
      %1891 = memref.load %assume_align[%arg0, %1890, %c57] : memref<20x4096x64xf32, #hal.descriptor_type<storage_buffer>>
      %1892 = vector.broadcast %1891 : f32 to vector<8xf32>
      %1893 = vector.fma %1892, %97, %1862 : vector<8xf32>
      %1894 = affine.apply #map12()[%arg1]
      %1895 = memref.load %assume_align[%arg0, %1894, %c57] : memref<20x4096x64xf32, #hal.descriptor_type<storage_buffer>>
      %1896 = vector.broadcast %1895 : f32 to vector<8xf32>
      %1897 = vector.fma %1896, %97, %1866 : vector<8xf32>
      %1898 = affine.apply #map13()[%arg1]
      %1899 = memref.load %assume_align[%arg0, %1898, %c57] : memref<20x4096x64xf32, #hal.descriptor_type<storage_buffer>>
      %1900 = vector.broadcast %1899 : f32 to vector<8xf32>
      %1901 = vector.fma %1900, %97, %1870 : vector<8xf32>
      %1902 = memref.load %assume_align[%arg0, %arg1, %c58] : memref<20x4096x64xf32, #hal.descriptor_type<storage_buffer>>
      %1903 = vector.broadcast %1902 : f32 to vector<8xf32>
      %1904 = vector.fma %1903, %98, %1873 : vector<8xf32>
      %1905 = affine.apply #map7()[%arg1]
      %1906 = memref.load %assume_align[%arg0, %1905, %c58] : memref<20x4096x64xf32, #hal.descriptor_type<storage_buffer>>
      %1907 = vector.broadcast %1906 : f32 to vector<8xf32>
      %1908 = vector.fma %1907, %98, %1877 : vector<8xf32>
      %1909 = affine.apply #map8()[%arg1]
      %1910 = memref.load %assume_align[%arg0, %1909, %c58] : memref<20x4096x64xf32, #hal.descriptor_type<storage_buffer>>
      %1911 = vector.broadcast %1910 : f32 to vector<8xf32>
      %1912 = vector.fma %1911, %98, %1881 : vector<8xf32>
      %1913 = affine.apply #map9()[%arg1]
      %1914 = memref.load %assume_align[%arg0, %1913, %c58] : memref<20x4096x64xf32, #hal.descriptor_type<storage_buffer>>
      %1915 = vector.broadcast %1914 : f32 to vector<8xf32>
      %1916 = vector.fma %1915, %98, %1885 : vector<8xf32>
      %1917 = affine.apply #map10()[%arg1]
      %1918 = memref.load %assume_align[%arg0, %1917, %c58] : memref<20x4096x64xf32, #hal.descriptor_type<storage_buffer>>
      %1919 = vector.broadcast %1918 : f32 to vector<8xf32>
      %1920 = vector.fma %1919, %98, %1889 : vector<8xf32>
      %1921 = affine.apply #map11()[%arg1]
      %1922 = memref.load %assume_align[%arg0, %1921, %c58] : memref<20x4096x64xf32, #hal.descriptor_type<storage_buffer>>
      %1923 = vector.broadcast %1922 : f32 to vector<8xf32>
      %1924 = vector.fma %1923, %98, %1893 : vector<8xf32>
      %1925 = affine.apply #map12()[%arg1]
      %1926 = memref.load %assume_align[%arg0, %1925, %c58] : memref<20x4096x64xf32, #hal.descriptor_type<storage_buffer>>
      %1927 = vector.broadcast %1926 : f32 to vector<8xf32>
      %1928 = vector.fma %1927, %98, %1897 : vector<8xf32>
      %1929 = affine.apply #map13()[%arg1]
      %1930 = memref.load %assume_align[%arg0, %1929, %c58] : memref<20x4096x64xf32, #hal.descriptor_type<storage_buffer>>
      %1931 = vector.broadcast %1930 : f32 to vector<8xf32>
      %1932 = vector.fma %1931, %98, %1901 : vector<8xf32>
      %1933 = memref.load %assume_align[%arg0, %arg1, %c59] : memref<20x4096x64xf32, #hal.descriptor_type<storage_buffer>>
      %1934 = vector.broadcast %1933 : f32 to vector<8xf32>
      %1935 = vector.fma %1934, %99, %1904 : vector<8xf32>
      %1936 = affine.apply #map7()[%arg1]
      %1937 = memref.load %assume_align[%arg0, %1936, %c59] : memref<20x4096x64xf32, #hal.descriptor_type<storage_buffer>>
      %1938 = vector.broadcast %1937 : f32 to vector<8xf32>
      %1939 = vector.fma %1938, %99, %1908 : vector<8xf32>
      %1940 = affine.apply #map8()[%arg1]
      %1941 = memref.load %assume_align[%arg0, %1940, %c59] : memref<20x4096x64xf32, #hal.descriptor_type<storage_buffer>>
      %1942 = vector.broadcast %1941 : f32 to vector<8xf32>
      %1943 = vector.fma %1942, %99, %1912 : vector<8xf32>
      %1944 = affine.apply #map9()[%arg1]
      %1945 = memref.load %assume_align[%arg0, %1944, %c59] : memref<20x4096x64xf32, #hal.descriptor_type<storage_buffer>>
      %1946 = vector.broadcast %1945 : f32 to vector<8xf32>
      %1947 = vector.fma %1946, %99, %1916 : vector<8xf32>
      %1948 = affine.apply #map10()[%arg1]
      %1949 = memref.load %assume_align[%arg0, %1948, %c59] : memref<20x4096x64xf32, #hal.descriptor_type<storage_buffer>>
      %1950 = vector.broadcast %1949 : f32 to vector<8xf32>
      %1951 = vector.fma %1950, %99, %1920 : vector<8xf32>
      %1952 = affine.apply #map11()[%arg1]
      %1953 = memref.load %assume_align[%arg0, %1952, %c59] : memref<20x4096x64xf32, #hal.descriptor_type<storage_buffer>>
      %1954 = vector.broadcast %1953 : f32 to vector<8xf32>
      %1955 = vector.fma %1954, %99, %1924 : vector<8xf32>
      %1956 = affine.apply #map12()[%arg1]
      %1957 = memref.load %assume_align[%arg0, %1956, %c59] : memref<20x4096x64xf32, #hal.descriptor_type<storage_buffer>>
      %1958 = vector.broadcast %1957 : f32 to vector<8xf32>
      %1959 = vector.fma %1958, %99, %1928 : vector<8xf32>
      %1960 = affine.apply #map13()[%arg1]
      %1961 = memref.load %assume_align[%arg0, %1960, %c59] : memref<20x4096x64xf32, #hal.descriptor_type<storage_buffer>>
      %1962 = vector.broadcast %1961 : f32 to vector<8xf32>
      %1963 = vector.fma %1962, %99, %1932 : vector<8xf32>
      %1964 = memref.load %assume_align[%arg0, %arg1, %c60] : memref<20x4096x64xf32, #hal.descriptor_type<storage_buffer>>
      %1965 = vector.broadcast %1964 : f32 to vector<8xf32>
      %1966 = vector.fma %1965, %100, %1935 : vector<8xf32>
      %1967 = affine.apply #map7()[%arg1]
      %1968 = memref.load %assume_align[%arg0, %1967, %c60] : memref<20x4096x64xf32, #hal.descriptor_type<storage_buffer>>
      %1969 = vector.broadcast %1968 : f32 to vector<8xf32>
      %1970 = vector.fma %1969, %100, %1939 : vector<8xf32>
      %1971 = affine.apply #map8()[%arg1]
      %1972 = memref.load %assume_align[%arg0, %1971, %c60] : memref<20x4096x64xf32, #hal.descriptor_type<storage_buffer>>
      %1973 = vector.broadcast %1972 : f32 to vector<8xf32>
      %1974 = vector.fma %1973, %100, %1943 : vector<8xf32>
      %1975 = affine.apply #map9()[%arg1]
      %1976 = memref.load %assume_align[%arg0, %1975, %c60] : memref<20x4096x64xf32, #hal.descriptor_type<storage_buffer>>
      %1977 = vector.broadcast %1976 : f32 to vector<8xf32>
      %1978 = vector.fma %1977, %100, %1947 : vector<8xf32>
      %1979 = affine.apply #map10()[%arg1]
      %1980 = memref.load %assume_align[%arg0, %1979, %c60] : memref<20x4096x64xf32, #hal.descriptor_type<storage_buffer>>
      %1981 = vector.broadcast %1980 : f32 to vector<8xf32>
      %1982 = vector.fma %1981, %100, %1951 : vector<8xf32>
      %1983 = affine.apply #map11()[%arg1]
      %1984 = memref.load %assume_align[%arg0, %1983, %c60] : memref<20x4096x64xf32, #hal.descriptor_type<storage_buffer>>
      %1985 = vector.broadcast %1984 : f32 to vector<8xf32>
      %1986 = vector.fma %1985, %100, %1955 : vector<8xf32>
      %1987 = affine.apply #map12()[%arg1]
      %1988 = memref.load %assume_align[%arg0, %1987, %c60] : memref<20x4096x64xf32, #hal.descriptor_type<storage_buffer>>
      %1989 = vector.broadcast %1988 : f32 to vector<8xf32>
      %1990 = vector.fma %1989, %100, %1959 : vector<8xf32>
      %1991 = affine.apply #map13()[%arg1]
      %1992 = memref.load %assume_align[%arg0, %1991, %c60] : memref<20x4096x64xf32, #hal.descriptor_type<storage_buffer>>
      %1993 = vector.broadcast %1992 : f32 to vector<8xf32>
      %1994 = vector.fma %1993, %100, %1963 : vector<8xf32>
      %1995 = memref.load %assume_align[%arg0, %arg1, %c61] : memref<20x4096x64xf32, #hal.descriptor_type<storage_buffer>>
      %1996 = vector.broadcast %1995 : f32 to vector<8xf32>
      %1997 = vector.fma %1996, %101, %1966 : vector<8xf32>
      %1998 = affine.apply #map7()[%arg1]
      %1999 = memref.load %assume_align[%arg0, %1998, %c61] : memref<20x4096x64xf32, #hal.descriptor_type<storage_buffer>>
      %2000 = vector.broadcast %1999 : f32 to vector<8xf32>
      %2001 = vector.fma %2000, %101, %1970 : vector<8xf32>
      %2002 = affine.apply #map8()[%arg1]
      %2003 = memref.load %assume_align[%arg0, %2002, %c61] : memref<20x4096x64xf32, #hal.descriptor_type<storage_buffer>>
      %2004 = vector.broadcast %2003 : f32 to vector<8xf32>
      %2005 = vector.fma %2004, %101, %1974 : vector<8xf32>
      %2006 = affine.apply #map9()[%arg1]
      %2007 = memref.load %assume_align[%arg0, %2006, %c61] : memref<20x4096x64xf32, #hal.descriptor_type<storage_buffer>>
      %2008 = vector.broadcast %2007 : f32 to vector<8xf32>
      %2009 = vector.fma %2008, %101, %1978 : vector<8xf32>
      %2010 = affine.apply #map10()[%arg1]
      %2011 = memref.load %assume_align[%arg0, %2010, %c61] : memref<20x4096x64xf32, #hal.descriptor_type<storage_buffer>>
      %2012 = vector.broadcast %2011 : f32 to vector<8xf32>
      %2013 = vector.fma %2012, %101, %1982 : vector<8xf32>
      %2014 = affine.apply #map11()[%arg1]
      %2015 = memref.load %assume_align[%arg0, %2014, %c61] : memref<20x4096x64xf32, #hal.descriptor_type<storage_buffer>>
      %2016 = vector.broadcast %2015 : f32 to vector<8xf32>
      %2017 = vector.fma %2016, %101, %1986 : vector<8xf32>
      %2018 = affine.apply #map12()[%arg1]
      %2019 = memref.load %assume_align[%arg0, %2018, %c61] : memref<20x4096x64xf32, #hal.descriptor_type<storage_buffer>>
      %2020 = vector.broadcast %2019 : f32 to vector<8xf32>
      %2021 = vector.fma %2020, %101, %1990 : vector<8xf32>
      %2022 = affine.apply #map13()[%arg1]
      %2023 = memref.load %assume_align[%arg0, %2022, %c61] : memref<20x4096x64xf32, #hal.descriptor_type<storage_buffer>>
      %2024 = vector.broadcast %2023 : f32 to vector<8xf32>
      %2025 = vector.fma %2024, %101, %1994 : vector<8xf32>
      %2026 = memref.load %assume_align[%arg0, %arg1, %c62] : memref<20x4096x64xf32, #hal.descriptor_type<storage_buffer>>
      %2027 = vector.broadcast %2026 : f32 to vector<8xf32>
      %2028 = vector.fma %2027, %102, %1997 : vector<8xf32>
      %2029 = affine.apply #map7()[%arg1]
      %2030 = memref.load %assume_align[%arg0, %2029, %c62] : memref<20x4096x64xf32, #hal.descriptor_type<storage_buffer>>
      %2031 = vector.broadcast %2030 : f32 to vector<8xf32>
      %2032 = vector.fma %2031, %102, %2001 : vector<8xf32>
      %2033 = affine.apply #map8()[%arg1]
      %2034 = memref.load %assume_align[%arg0, %2033, %c62] : memref<20x4096x64xf32, #hal.descriptor_type<storage_buffer>>
      %2035 = vector.broadcast %2034 : f32 to vector<8xf32>
      %2036 = vector.fma %2035, %102, %2005 : vector<8xf32>
      %2037 = affine.apply #map9()[%arg1]
      %2038 = memref.load %assume_align[%arg0, %2037, %c62] : memref<20x4096x64xf32, #hal.descriptor_type<storage_buffer>>
      %2039 = vector.broadcast %2038 : f32 to vector<8xf32>
      %2040 = vector.fma %2039, %102, %2009 : vector<8xf32>
      %2041 = affine.apply #map10()[%arg1]
      %2042 = memref.load %assume_align[%arg0, %2041, %c62] : memref<20x4096x64xf32, #hal.descriptor_type<storage_buffer>>
      %2043 = vector.broadcast %2042 : f32 to vector<8xf32>
      %2044 = vector.fma %2043, %102, %2013 : vector<8xf32>
      %2045 = affine.apply #map11()[%arg1]
      %2046 = memref.load %assume_align[%arg0, %2045, %c62] : memref<20x4096x64xf32, #hal.descriptor_type<storage_buffer>>
      %2047 = vector.broadcast %2046 : f32 to vector<8xf32>
      %2048 = vector.fma %2047, %102, %2017 : vector<8xf32>
      %2049 = affine.apply #map12()[%arg1]
      %2050 = memref.load %assume_align[%arg0, %2049, %c62] : memref<20x4096x64xf32, #hal.descriptor_type<storage_buffer>>
      %2051 = vector.broadcast %2050 : f32 to vector<8xf32>
      %2052 = vector.fma %2051, %102, %2021 : vector<8xf32>
      %2053 = affine.apply #map13()[%arg1]
      %2054 = memref.load %assume_align[%arg0, %2053, %c62] : memref<20x4096x64xf32, #hal.descriptor_type<storage_buffer>>
      %2055 = vector.broadcast %2054 : f32 to vector<8xf32>
      %2056 = vector.fma %2055, %102, %2025 : vector<8xf32>
      %2057 = memref.load %assume_align[%arg0, %arg1, %c63] : memref<20x4096x64xf32, #hal.descriptor_type<storage_buffer>>
      %2058 = vector.broadcast %2057 : f32 to vector<8xf32>
      %2059 = vector.fma %2058, %103, %2028 : vector<8xf32>
      %2060 = vector.insert %2059, %cst_1 [0] : vector<8xf32> into vector<8x8xf32>
      %2061 = affine.apply #map7()[%arg1]
      %2062 = memref.load %assume_align[%arg0, %2061, %c63] : memref<20x4096x64xf32, #hal.descriptor_type<storage_buffer>>
      %2063 = vector.broadcast %2062 : f32 to vector<8xf32>
      %2064 = vector.fma %2063, %103, %2032 : vector<8xf32>
      %2065 = vector.insert %2064, %2060 [1] : vector<8xf32> into vector<8x8xf32>
      %2066 = affine.apply #map8()[%arg1]
      %2067 = memref.load %assume_align[%arg0, %2066, %c63] : memref<20x4096x64xf32, #hal.descriptor_type<storage_buffer>>
      %2068 = vector.broadcast %2067 : f32 to vector<8xf32>
      %2069 = vector.fma %2068, %103, %2036 : vector<8xf32>
      %2070 = vector.insert %2069, %2065 [2] : vector<8xf32> into vector<8x8xf32>
      %2071 = affine.apply #map9()[%arg1]
      %2072 = memref.load %assume_align[%arg0, %2071, %c63] : memref<20x4096x64xf32, #hal.descriptor_type<storage_buffer>>
      %2073 = vector.broadcast %2072 : f32 to vector<8xf32>
      %2074 = vector.fma %2073, %103, %2040 : vector<8xf32>
      %2075 = vector.insert %2074, %2070 [3] : vector<8xf32> into vector<8x8xf32>
      %2076 = affine.apply #map10()[%arg1]
      %2077 = memref.load %assume_align[%arg0, %2076, %c63] : memref<20x4096x64xf32, #hal.descriptor_type<storage_buffer>>
      %2078 = vector.broadcast %2077 : f32 to vector<8xf32>
      %2079 = vector.fma %2078, %103, %2044 : vector<8xf32>
      %2080 = vector.insert %2079, %2075 [4] : vector<8xf32> into vector<8x8xf32>
      %2081 = affine.apply #map11()[%arg1]
      %2082 = memref.load %assume_align[%arg0, %2081, %c63] : memref<20x4096x64xf32, #hal.descriptor_type<storage_buffer>>
      %2083 = vector.broadcast %2082 : f32 to vector<8xf32>
      %2084 = vector.fma %2083, %103, %2048 : vector<8xf32>
      %2085 = vector.insert %2084, %2080 [5] : vector<8xf32> into vector<8x8xf32>
      %2086 = affine.apply #map12()[%arg1]
      %2087 = memref.load %assume_align[%arg0, %2086, %c63] : memref<20x4096x64xf32, #hal.descriptor_type<storage_buffer>>
      %2088 = vector.broadcast %2087 : f32 to vector<8xf32>
      %2089 = vector.fma %2088, %103, %2052 : vector<8xf32>
      %2090 = vector.insert %2089, %2085 [6] : vector<8xf32> into vector<8x8xf32>
      %2091 = affine.apply #map13()[%arg1]
      %2092 = memref.load %assume_align[%arg0, %2091, %c63] : memref<20x4096x64xf32, #hal.descriptor_type<storage_buffer>>
      %2093 = vector.broadcast %2092 : f32 to vector<8xf32>
      %2094 = vector.fma %2093, %103, %2056 : vector<8xf32>
      %2095 = vector.insert %2094, %2090 [7] : vector<8xf32> into vector<8x8xf32>
      %2096 = vector.reduction <maximumf>, %2059, %cst : vector<8xf32> into f32
      %2097 = vector.insert %2096, %cst_0 [0] : f32 into vector<8xf32>
      %2098 = vector.reduction <maximumf>, %2064, %cst : vector<8xf32> into f32
      %2099 = vector.insert %2098, %2097 [1] : f32 into vector<8xf32>
      %2100 = vector.reduction <maximumf>, %2069, %cst : vector<8xf32> into f32
      %2101 = vector.insert %2100, %2099 [2] : f32 into vector<8xf32>
      %2102 = vector.reduction <maximumf>, %2074, %cst : vector<8xf32> into f32
      %2103 = vector.insert %2102, %2101 [3] : f32 into vector<8xf32>
      %2104 = vector.reduction <maximumf>, %2079, %cst : vector<8xf32> into f32
      %2105 = vector.insert %2104, %2103 [4] : f32 into vector<8xf32>
      %2106 = vector.reduction <maximumf>, %2084, %cst : vector<8xf32> into f32
      %2107 = vector.insert %2106, %2105 [5] : f32 into vector<8xf32>
      %2108 = vector.reduction <maximumf>, %2089, %cst : vector<8xf32> into f32
      %2109 = vector.insert %2108, %2107 [6] : f32 into vector<8xf32>
      %2110 = vector.reduction <maximumf>, %2094, %cst : vector<8xf32> into f32
      %2111 = vector.insert %2110, %2109 [7] : f32 into vector<8xf32>
      %2112 = arith.subf %2111, %cst_2 : vector<8xf32>
      %2113 = math.exp2 %2112 : vector<8xf32>
      %2114 = vector.insert %2113, %2 [0] : vector<8xf32> into vector<1x8xf32>
      %2115 = vector.broadcast %2114 : vector<1x8xf32> to vector<8x8xf32>
      %2116 = arith.mulf %2115, %cst_1 : vector<8x8xf32>
      %2117 = vector.extract %2116[0] : vector<8xf32> from vector<8x8xf32>
      %2118 = vector.insert_strided_slice %2117, %1 {offsets = [0], strides = [1]} : vector<8xf32> into vector<64xf32>
      %2119 = vector.extract %2116[1] : vector<8xf32> from vector<8x8xf32>
      %2120 = vector.insert_strided_slice %2119, %2118 {offsets = [8], strides = [1]} : vector<8xf32> into vector<64xf32>
      %2121 = vector.extract %2116[2] : vector<8xf32> from vector<8x8xf32>
      %2122 = vector.insert_strided_slice %2121, %2120 {offsets = [16], strides = [1]} : vector<8xf32> into vector<64xf32>
      %2123 = vector.extract %2116[3] : vector<8xf32> from vector<8x8xf32>
      %2124 = vector.insert_strided_slice %2123, %2122 {offsets = [24], strides = [1]} : vector<8xf32> into vector<64xf32>
      %2125 = vector.extract %2116[4] : vector<8xf32> from vector<8x8xf32>
      %2126 = vector.insert_strided_slice %2125, %2124 {offsets = [32], strides = [1]} : vector<8xf32> into vector<64xf32>
      %2127 = vector.extract %2116[5] : vector<8xf32> from vector<8x8xf32>
      %2128 = vector.insert_strided_slice %2127, %2126 {offsets = [40], strides = [1]} : vector<8xf32> into vector<64xf32>
      %2129 = vector.extract %2116[6] : vector<8xf32> from vector<8x8xf32>
      %2130 = vector.insert_strided_slice %2129, %2128 {offsets = [48], strides = [1]} : vector<8xf32> into vector<64xf32>
      %2131 = vector.extract %2116[7] : vector<8xf32> from vector<8x8xf32>
      %2132 = vector.insert_strided_slice %2131, %2130 {offsets = [56], strides = [1]} : vector<8xf32> into vector<64xf32>
      %2133 = vector.shuffle %2132, %2132 [0, 8, 16, 24, 32, 40, 48, 56, 1, 9, 17, 25, 33, 41, 49, 57, 2, 10, 18, 26, 34, 42, 50, 58, 3, 11, 19, 27, 35, 43, 51, 59, 4, 12, 20, 28, 36, 44, 52, 60, 5, 13, 21, 29, 37, 45, 53, 61, 6, 14, 22, 30, 38, 46, 54, 62, 7, 15, 23, 31, 39, 47, 55, 63] : vector<64xf32>, vector<64xf32>
      %2134 = vector.extract_strided_slice %2133 {offsets = [0], sizes = [8], strides = [1]} : vector<64xf32> to vector<8xf32>
      %2135 = vector.extract_strided_slice %2133 {offsets = [8], sizes = [8], strides = [1]} : vector<64xf32> to vector<8xf32>
      %2136 = vector.extract_strided_slice %2133 {offsets = [16], sizes = [8], strides = [1]} : vector<64xf32> to vector<8xf32>
      %2137 = vector.extract_strided_slice %2133 {offsets = [24], sizes = [8], strides = [1]} : vector<64xf32> to vector<8xf32>
      %2138 = vector.extract_strided_slice %2133 {offsets = [32], sizes = [8], strides = [1]} : vector<64xf32> to vector<8xf32>
      %2139 = vector.extract_strided_slice %2133 {offsets = [40], sizes = [8], strides = [1]} : vector<64xf32> to vector<8xf32>
      %2140 = vector.extract_strided_slice %2133 {offsets = [48], sizes = [8], strides = [1]} : vector<64xf32> to vector<8xf32>
      %2141 = vector.extract_strided_slice %2133 {offsets = [56], sizes = [8], strides = [1]} : vector<64xf32> to vector<8xf32>
      %2142 = vector.insert_strided_slice %2111, %1 {offsets = [0], strides = [1]} : vector<8xf32> into vector<64xf32>
      %2143 = vector.insert_strided_slice %2111, %2142 {offsets = [8], strides = [1]} : vector<8xf32> into vector<64xf32>
      %2144 = vector.insert_strided_slice %2111, %2143 {offsets = [16], strides = [1]} : vector<8xf32> into vector<64xf32>
      %2145 = vector.insert_strided_slice %2111, %2144 {offsets = [24], strides = [1]} : vector<8xf32> into vector<64xf32>
      %2146 = vector.insert_strided_slice %2111, %2145 {offsets = [32], strides = [1]} : vector<8xf32> into vector<64xf32>
      %2147 = vector.insert_strided_slice %2111, %2146 {offsets = [40], strides = [1]} : vector<8xf32> into vector<64xf32>
      %2148 = vector.insert_strided_slice %2111, %2147 {offsets = [48], strides = [1]} : vector<8xf32> into vector<64xf32>
      %2149 = vector.insert_strided_slice %2111, %2148 {offsets = [56], strides = [1]} : vector<8xf32> into vector<64xf32>
      %2150 = vector.shuffle %2149, %2149 [0, 8, 16, 24, 32, 40, 48, 56, 1, 9, 17, 25, 33, 41, 49, 57, 2, 10, 18, 26, 34, 42, 50, 58, 3, 11, 19, 27, 35, 43, 51, 59, 4, 12, 20, 28, 36, 44, 52, 60, 5, 13, 21, 29, 37, 45, 53, 61, 6, 14, 22, 30, 38, 46, 54, 62, 7, 15, 23, 31, 39, 47, 55, 63] : vector<64xf32>, vector<64xf32>
      %2151 = vector.extract_strided_slice %2150 {offsets = [0], sizes = [8], strides = [1]} : vector<64xf32> to vector<8xf32>
      %2152 = vector.insert %2151, %0 [0] : vector<8xf32> into vector<8x8xf32>
      %2153 = vector.extract_strided_slice %2150 {offsets = [8], sizes = [8], strides = [1]} : vector<64xf32> to vector<8xf32>
      %2154 = vector.insert %2153, %2152 [1] : vector<8xf32> into vector<8x8xf32>
      %2155 = vector.extract_strided_slice %2150 {offsets = [16], sizes = [8], strides = [1]} : vector<64xf32> to vector<8xf32>
      %2156 = vector.insert %2155, %2154 [2] : vector<8xf32> into vector<8x8xf32>
      %2157 = vector.extract_strided_slice %2150 {offsets = [24], sizes = [8], strides = [1]} : vector<64xf32> to vector<8xf32>
      %2158 = vector.insert %2157, %2156 [3] : vector<8xf32> into vector<8x8xf32>
      %2159 = vector.extract_strided_slice %2150 {offsets = [32], sizes = [8], strides = [1]} : vector<64xf32> to vector<8xf32>
      %2160 = vector.insert %2159, %2158 [4] : vector<8xf32> into vector<8x8xf32>
      %2161 = vector.extract_strided_slice %2150 {offsets = [40], sizes = [8], strides = [1]} : vector<64xf32> to vector<8xf32>
      %2162 = vector.insert %2161, %2160 [5] : vector<8xf32> into vector<8x8xf32>
      %2163 = vector.extract_strided_slice %2150 {offsets = [48], sizes = [8], strides = [1]} : vector<64xf32> to vector<8xf32>
      %2164 = vector.insert %2163, %2162 [6] : vector<8xf32> into vector<8x8xf32>
      %2165 = vector.extract_strided_slice %2150 {offsets = [56], sizes = [8], strides = [1]} : vector<64xf32> to vector<8xf32>
      %2166 = vector.insert %2165, %2164 [7] : vector<8xf32> into vector<8x8xf32>
      %2167 = arith.subf %2095, %2166 : vector<8x8xf32>
      %2168 = math.exp2 %2167 : vector<8x8xf32>
      %2169 = vector.load %assume_align_4[%arg0, %arg3, %arg2] : memref<20x4096x64xf32, #hal.descriptor_type<storage_buffer>>, vector<8xf32>
      %2170 = affine.apply #map(%arg3)
      %2171 = vector.load %assume_align_4[%arg0, %2170, %arg2] : memref<20x4096x64xf32, #hal.descriptor_type<storage_buffer>>, vector<8xf32>
      %2172 = affine.apply #map1(%arg3)
      %2173 = vector.load %assume_align_4[%arg0, %2172, %arg2] : memref<20x4096x64xf32, #hal.descriptor_type<storage_buffer>>, vector<8xf32>
      %2174 = affine.apply #map2(%arg3)
      %2175 = vector.load %assume_align_4[%arg0, %2174, %arg2] : memref<20x4096x64xf32, #hal.descriptor_type<storage_buffer>>, vector<8xf32>
      %2176 = affine.apply #map3(%arg3)
      %2177 = vector.load %assume_align_4[%arg0, %2176, %arg2] : memref<20x4096x64xf32, #hal.descriptor_type<storage_buffer>>, vector<8xf32>
      %2178 = affine.apply #map4(%arg3)
      %2179 = vector.load %assume_align_4[%arg0, %2178, %arg2] : memref<20x4096x64xf32, #hal.descriptor_type<storage_buffer>>, vector<8xf32>
      %2180 = affine.apply #map5(%arg3)
      %2181 = vector.load %assume_align_4[%arg0, %2180, %arg2] : memref<20x4096x64xf32, #hal.descriptor_type<storage_buffer>>, vector<8xf32>
      %2182 = affine.apply #map6(%arg3)
      %2183 = vector.load %assume_align_4[%arg0, %2182, %arg2] : memref<20x4096x64xf32, #hal.descriptor_type<storage_buffer>>, vector<8xf32>
      %2184 = vector.extract %2168[0, 0] : f32 from vector<8x8xf32>
      %2185 = vector.broadcast %2184 : f32 to vector<8xf32>
      %2186 = vector.fma %2185, %2169, %2134 : vector<8xf32>
      %2187 = vector.extract %2168[1, 0] : f32 from vector<8x8xf32>
      %2188 = vector.broadcast %2187 : f32 to vector<8xf32>
      %2189 = vector.fma %2188, %2169, %2135 : vector<8xf32>
      %2190 = vector.extract %2168[2, 0] : f32 from vector<8x8xf32>
      %2191 = vector.broadcast %2190 : f32 to vector<8xf32>
      %2192 = vector.fma %2191, %2169, %2136 : vector<8xf32>
      %2193 = vector.extract %2168[3, 0] : f32 from vector<8x8xf32>
      %2194 = vector.broadcast %2193 : f32 to vector<8xf32>
      %2195 = vector.fma %2194, %2169, %2137 : vector<8xf32>
      %2196 = vector.extract %2168[4, 0] : f32 from vector<8x8xf32>
      %2197 = vector.broadcast %2196 : f32 to vector<8xf32>
      %2198 = vector.fma %2197, %2169, %2138 : vector<8xf32>
      %2199 = vector.extract %2168[5, 0] : f32 from vector<8x8xf32>
      %2200 = vector.broadcast %2199 : f32 to vector<8xf32>
      %2201 = vector.fma %2200, %2169, %2139 : vector<8xf32>
      %2202 = vector.extract %2168[6, 0] : f32 from vector<8x8xf32>
      %2203 = vector.broadcast %2202 : f32 to vector<8xf32>
      %2204 = vector.fma %2203, %2169, %2140 : vector<8xf32>
      %2205 = vector.extract %2168[7, 0] : f32 from vector<8x8xf32>
      %2206 = vector.broadcast %2205 : f32 to vector<8xf32>
      %2207 = vector.fma %2206, %2169, %2141 : vector<8xf32>
      %2208 = vector.extract %2168[0, 1] : f32 from vector<8x8xf32>
      %2209 = vector.broadcast %2208 : f32 to vector<8xf32>
      %2210 = vector.fma %2209, %2171, %2186 : vector<8xf32>
      %2211 = vector.extract %2168[1, 1] : f32 from vector<8x8xf32>
      %2212 = vector.broadcast %2211 : f32 to vector<8xf32>
      %2213 = vector.fma %2212, %2171, %2189 : vector<8xf32>
      %2214 = vector.extract %2168[2, 1] : f32 from vector<8x8xf32>
      %2215 = vector.broadcast %2214 : f32 to vector<8xf32>
      %2216 = vector.fma %2215, %2171, %2192 : vector<8xf32>
      %2217 = vector.extract %2168[3, 1] : f32 from vector<8x8xf32>
      %2218 = vector.broadcast %2217 : f32 to vector<8xf32>
      %2219 = vector.fma %2218, %2171, %2195 : vector<8xf32>
      %2220 = vector.extract %2168[4, 1] : f32 from vector<8x8xf32>
      %2221 = vector.broadcast %2220 : f32 to vector<8xf32>
      %2222 = vector.fma %2221, %2171, %2198 : vector<8xf32>
      %2223 = vector.extract %2168[5, 1] : f32 from vector<8x8xf32>
      %2224 = vector.broadcast %2223 : f32 to vector<8xf32>
      %2225 = vector.fma %2224, %2171, %2201 : vector<8xf32>
      %2226 = vector.extract %2168[6, 1] : f32 from vector<8x8xf32>
      %2227 = vector.broadcast %2226 : f32 to vector<8xf32>
      %2228 = vector.fma %2227, %2171, %2204 : vector<8xf32>
      %2229 = vector.extract %2168[7, 1] : f32 from vector<8x8xf32>
      %2230 = vector.broadcast %2229 : f32 to vector<8xf32>
      %2231 = vector.fma %2230, %2171, %2207 : vector<8xf32>
      %2232 = vector.extract %2168[0, 2] : f32 from vector<8x8xf32>
      %2233 = vector.broadcast %2232 : f32 to vector<8xf32>
      %2234 = vector.fma %2233, %2173, %2210 : vector<8xf32>
      %2235 = vector.extract %2168[1, 2] : f32 from vector<8x8xf32>
      %2236 = vector.broadcast %2235 : f32 to vector<8xf32>
      %2237 = vector.fma %2236, %2173, %2213 : vector<8xf32>
      %2238 = vector.extract %2168[2, 2] : f32 from vector<8x8xf32>
      %2239 = vector.broadcast %2238 : f32 to vector<8xf32>
      %2240 = vector.fma %2239, %2173, %2216 : vector<8xf32>
      %2241 = vector.extract %2168[3, 2] : f32 from vector<8x8xf32>
      %2242 = vector.broadcast %2241 : f32 to vector<8xf32>
      %2243 = vector.fma %2242, %2173, %2219 : vector<8xf32>
      %2244 = vector.extract %2168[4, 2] : f32 from vector<8x8xf32>
      %2245 = vector.broadcast %2244 : f32 to vector<8xf32>
      %2246 = vector.fma %2245, %2173, %2222 : vector<8xf32>
      %2247 = vector.extract %2168[5, 2] : f32 from vector<8x8xf32>
      %2248 = vector.broadcast %2247 : f32 to vector<8xf32>
      %2249 = vector.fma %2248, %2173, %2225 : vector<8xf32>
      %2250 = vector.extract %2168[6, 2] : f32 from vector<8x8xf32>
      %2251 = vector.broadcast %2250 : f32 to vector<8xf32>
      %2252 = vector.fma %2251, %2173, %2228 : vector<8xf32>
      %2253 = vector.extract %2168[7, 2] : f32 from vector<8x8xf32>
      %2254 = vector.broadcast %2253 : f32 to vector<8xf32>
      %2255 = vector.fma %2254, %2173, %2231 : vector<8xf32>
      %2256 = vector.extract %2168[0, 3] : f32 from vector<8x8xf32>
      %2257 = vector.broadcast %2256 : f32 to vector<8xf32>
      %2258 = vector.fma %2257, %2175, %2234 : vector<8xf32>
      %2259 = vector.extract %2168[1, 3] : f32 from vector<8x8xf32>
      %2260 = vector.broadcast %2259 : f32 to vector<8xf32>
      %2261 = vector.fma %2260, %2175, %2237 : vector<8xf32>
      %2262 = vector.extract %2168[2, 3] : f32 from vector<8x8xf32>
      %2263 = vector.broadcast %2262 : f32 to vector<8xf32>
      %2264 = vector.fma %2263, %2175, %2240 : vector<8xf32>
      %2265 = vector.extract %2168[3, 3] : f32 from vector<8x8xf32>
      %2266 = vector.broadcast %2265 : f32 to vector<8xf32>
      %2267 = vector.fma %2266, %2175, %2243 : vector<8xf32>
      %2268 = vector.extract %2168[4, 3] : f32 from vector<8x8xf32>
      %2269 = vector.broadcast %2268 : f32 to vector<8xf32>
      %2270 = vector.fma %2269, %2175, %2246 : vector<8xf32>
      %2271 = vector.extract %2168[5, 3] : f32 from vector<8x8xf32>
      %2272 = vector.broadcast %2271 : f32 to vector<8xf32>
      %2273 = vector.fma %2272, %2175, %2249 : vector<8xf32>
      %2274 = vector.extract %2168[6, 3] : f32 from vector<8x8xf32>
      %2275 = vector.broadcast %2274 : f32 to vector<8xf32>
      %2276 = vector.fma %2275, %2175, %2252 : vector<8xf32>
      %2277 = vector.extract %2168[7, 3] : f32 from vector<8x8xf32>
      %2278 = vector.broadcast %2277 : f32 to vector<8xf32>
      %2279 = vector.fma %2278, %2175, %2255 : vector<8xf32>
      %2280 = vector.extract %2168[0, 4] : f32 from vector<8x8xf32>
      %2281 = vector.broadcast %2280 : f32 to vector<8xf32>
      %2282 = vector.fma %2281, %2177, %2258 : vector<8xf32>
      %2283 = vector.extract %2168[1, 4] : f32 from vector<8x8xf32>
      %2284 = vector.broadcast %2283 : f32 to vector<8xf32>
      %2285 = vector.fma %2284, %2177, %2261 : vector<8xf32>
      %2286 = vector.extract %2168[2, 4] : f32 from vector<8x8xf32>
      %2287 = vector.broadcast %2286 : f32 to vector<8xf32>
      %2288 = vector.fma %2287, %2177, %2264 : vector<8xf32>
      %2289 = vector.extract %2168[3, 4] : f32 from vector<8x8xf32>
      %2290 = vector.broadcast %2289 : f32 to vector<8xf32>
      %2291 = vector.fma %2290, %2177, %2267 : vector<8xf32>
      %2292 = vector.extract %2168[4, 4] : f32 from vector<8x8xf32>
      %2293 = vector.broadcast %2292 : f32 to vector<8xf32>
      %2294 = vector.fma %2293, %2177, %2270 : vector<8xf32>
      %2295 = vector.extract %2168[5, 4] : f32 from vector<8x8xf32>
      %2296 = vector.broadcast %2295 : f32 to vector<8xf32>
      %2297 = vector.fma %2296, %2177, %2273 : vector<8xf32>
      %2298 = vector.extract %2168[6, 4] : f32 from vector<8x8xf32>
      %2299 = vector.broadcast %2298 : f32 to vector<8xf32>
      %2300 = vector.fma %2299, %2177, %2276 : vector<8xf32>
      %2301 = vector.extract %2168[7, 4] : f32 from vector<8x8xf32>
      %2302 = vector.broadcast %2301 : f32 to vector<8xf32>
      %2303 = vector.fma %2302, %2177, %2279 : vector<8xf32>
      %2304 = vector.extract %2168[0, 5] : f32 from vector<8x8xf32>
      %2305 = vector.broadcast %2304 : f32 to vector<8xf32>
      %2306 = vector.fma %2305, %2179, %2282 : vector<8xf32>
      %2307 = vector.extract %2168[1, 5] : f32 from vector<8x8xf32>
      %2308 = vector.broadcast %2307 : f32 to vector<8xf32>
      %2309 = vector.fma %2308, %2179, %2285 : vector<8xf32>
      %2310 = vector.extract %2168[2, 5] : f32 from vector<8x8xf32>
      %2311 = vector.broadcast %2310 : f32 to vector<8xf32>
      %2312 = vector.fma %2311, %2179, %2288 : vector<8xf32>
      %2313 = vector.extract %2168[3, 5] : f32 from vector<8x8xf32>
      %2314 = vector.broadcast %2313 : f32 to vector<8xf32>
      %2315 = vector.fma %2314, %2179, %2291 : vector<8xf32>
      %2316 = vector.extract %2168[4, 5] : f32 from vector<8x8xf32>
      %2317 = vector.broadcast %2316 : f32 to vector<8xf32>
      %2318 = vector.fma %2317, %2179, %2294 : vector<8xf32>
      %2319 = vector.extract %2168[5, 5] : f32 from vector<8x8xf32>
      %2320 = vector.broadcast %2319 : f32 to vector<8xf32>
      %2321 = vector.fma %2320, %2179, %2297 : vector<8xf32>
      %2322 = vector.extract %2168[6, 5] : f32 from vector<8x8xf32>
      %2323 = vector.broadcast %2322 : f32 to vector<8xf32>
      %2324 = vector.fma %2323, %2179, %2300 : vector<8xf32>
      %2325 = vector.extract %2168[7, 5] : f32 from vector<8x8xf32>
      %2326 = vector.broadcast %2325 : f32 to vector<8xf32>
      %2327 = vector.fma %2326, %2179, %2303 : vector<8xf32>
      %2328 = vector.extract %2168[0, 6] : f32 from vector<8x8xf32>
      %2329 = vector.broadcast %2328 : f32 to vector<8xf32>
      %2330 = vector.fma %2329, %2181, %2306 : vector<8xf32>
      %2331 = vector.extract %2168[1, 6] : f32 from vector<8x8xf32>
      %2332 = vector.broadcast %2331 : f32 to vector<8xf32>
      %2333 = vector.fma %2332, %2181, %2309 : vector<8xf32>
      %2334 = vector.extract %2168[2, 6] : f32 from vector<8x8xf32>
      %2335 = vector.broadcast %2334 : f32 to vector<8xf32>
      %2336 = vector.fma %2335, %2181, %2312 : vector<8xf32>
      %2337 = vector.extract %2168[3, 6] : f32 from vector<8x8xf32>
      %2338 = vector.broadcast %2337 : f32 to vector<8xf32>
      %2339 = vector.fma %2338, %2181, %2315 : vector<8xf32>
      %2340 = vector.extract %2168[4, 6] : f32 from vector<8x8xf32>
      %2341 = vector.broadcast %2340 : f32 to vector<8xf32>
      %2342 = vector.fma %2341, %2181, %2318 : vector<8xf32>
      %2343 = vector.extract %2168[5, 6] : f32 from vector<8x8xf32>
      %2344 = vector.broadcast %2343 : f32 to vector<8xf32>
      %2345 = vector.fma %2344, %2181, %2321 : vector<8xf32>
      %2346 = vector.extract %2168[6, 6] : f32 from vector<8x8xf32>
      %2347 = vector.broadcast %2346 : f32 to vector<8xf32>
      %2348 = vector.fma %2347, %2181, %2324 : vector<8xf32>
      %2349 = vector.extract %2168[7, 6] : f32 from vector<8x8xf32>
      %2350 = vector.broadcast %2349 : f32 to vector<8xf32>
      %2351 = vector.fma %2350, %2181, %2327 : vector<8xf32>
      %2352 = vector.extract %2168[0, 7] : f32 from vector<8x8xf32>
      %2353 = vector.broadcast %2352 : f32 to vector<8xf32>
      %2354 = vector.fma %2353, %2183, %2330 : vector<8xf32>
      %2355 = vector.insert %2354, %cst_1 [0] : vector<8xf32> into vector<8x8xf32>
      %2356 = vector.extract %2168[1, 7] : f32 from vector<8x8xf32>
      %2357 = vector.broadcast %2356 : f32 to vector<8xf32>
      %2358 = vector.fma %2357, %2183, %2333 : vector<8xf32>
      %2359 = vector.insert %2358, %2355 [1] : vector<8xf32> into vector<8x8xf32>
      %2360 = vector.extract %2168[2, 7] : f32 from vector<8x8xf32>
      %2361 = vector.broadcast %2360 : f32 to vector<8xf32>
      %2362 = vector.fma %2361, %2183, %2336 : vector<8xf32>
      %2363 = vector.insert %2362, %2359 [2] : vector<8xf32> into vector<8x8xf32>
      %2364 = vector.extract %2168[3, 7] : f32 from vector<8x8xf32>
      %2365 = vector.broadcast %2364 : f32 to vector<8xf32>
      %2366 = vector.fma %2365, %2183, %2339 : vector<8xf32>
      %2367 = vector.insert %2366, %2363 [3] : vector<8xf32> into vector<8x8xf32>
      %2368 = vector.extract %2168[4, 7] : f32 from vector<8x8xf32>
      %2369 = vector.broadcast %2368 : f32 to vector<8xf32>
      %2370 = vector.fma %2369, %2183, %2342 : vector<8xf32>
      %2371 = vector.insert %2370, %2367 [4] : vector<8xf32> into vector<8x8xf32>
      %2372 = vector.extract %2168[5, 7] : f32 from vector<8x8xf32>
      %2373 = vector.broadcast %2372 : f32 to vector<8xf32>
      %2374 = vector.fma %2373, %2183, %2345 : vector<8xf32>
      %2375 = vector.insert %2374, %2371 [5] : vector<8xf32> into vector<8x8xf32>
      %2376 = vector.extract %2168[6, 7] : f32 from vector<8x8xf32>
      %2377 = vector.broadcast %2376 : f32 to vector<8xf32>
      %2378 = vector.fma %2377, %2183, %2348 : vector<8xf32>
      %2379 = vector.insert %2378, %2375 [6] : vector<8xf32> into vector<8x8xf32>
      %2380 = vector.extract %2168[7, 7] : f32 from vector<8x8xf32>
      %2381 = vector.broadcast %2380 : f32 to vector<8xf32>
      %2382 = vector.fma %2381, %2183, %2351 : vector<8xf32>
      %2383 = vector.insert %2382, %2379 [7] : vector<8xf32> into vector<8x8xf32>
      %2384 = arith.mulf %2113, %cst_0 : vector<8xf32>
      %2385 = vector.extract %2168[0] : vector<8xf32> from vector<8x8xf32>
      %2386 = vector.extract %2384[0] : f32 from vector<8xf32>
      %2387 = vector.reduction <add>, %2385, %2386 : vector<8xf32> into f32
      %2388 = vector.insert %2387, %cst_0 [0] : f32 into vector<8xf32>
      %2389 = vector.extract %2168[1] : vector<8xf32> from vector<8x8xf32>
      %2390 = vector.extract %2384[1] : f32 from vector<8xf32>
      %2391 = vector.reduction <add>, %2389, %2390 : vector<8xf32> into f32
      %2392 = vector.insert %2391, %2388 [1] : f32 into vector<8xf32>
      %2393 = vector.extract %2168[2] : vector<8xf32> from vector<8x8xf32>
      %2394 = vector.extract %2384[2] : f32 from vector<8xf32>
      %2395 = vector.reduction <add>, %2393, %2394 : vector<8xf32> into f32
      %2396 = vector.insert %2395, %2392 [2] : f32 into vector<8xf32>
      %2397 = vector.extract %2168[3] : vector<8xf32> from vector<8x8xf32>
      %2398 = vector.extract %2384[3] : f32 from vector<8xf32>
      %2399 = vector.reduction <add>, %2397, %2398 : vector<8xf32> into f32
      %2400 = vector.insert %2399, %2396 [3] : f32 into vector<8xf32>
      %2401 = vector.extract %2168[4] : vector<8xf32> from vector<8x8xf32>
      %2402 = vector.extract %2384[4] : f32 from vector<8xf32>
      %2403 = vector.reduction <add>, %2401, %2402 : vector<8xf32> into f32
      %2404 = vector.insert %2403, %2400 [4] : f32 into vector<8xf32>
      %2405 = vector.extract %2168[5] : vector<8xf32> from vector<8x8xf32>
      %2406 = vector.extract %2384[5] : f32 from vector<8xf32>
      %2407 = vector.reduction <add>, %2405, %2406 : vector<8xf32> into f32
      %2408 = vector.insert %2407, %2404 [5] : f32 into vector<8xf32>
      %2409 = vector.extract %2168[6] : vector<8xf32> from vector<8x8xf32>
      %2410 = vector.extract %2384[6] : f32 from vector<8xf32>
      %2411 = vector.reduction <add>, %2409, %2410 : vector<8xf32> into f32
      %2412 = vector.insert %2411, %2408 [6] : f32 into vector<8xf32>
      %2413 = vector.extract %2168[7] : vector<8xf32> from vector<8x8xf32>
      %2414 = vector.extract %2384[7] : f32 from vector<8xf32>
      %2415 = vector.reduction <add>, %2413, %2414 : vector<8xf32> into f32
      %2416 = vector.insert %2415, %2412 [7] : f32 into vector<8xf32>
      %2417 = vector.insert_strided_slice %2416, %1 {offsets = [0], strides = [1]} : vector<8xf32> into vector<64xf32>
      %2418 = vector.insert_strided_slice %2416, %2417 {offsets = [8], strides = [1]} : vector<8xf32> into vector<64xf32>
      %2419 = vector.insert_strided_slice %2416, %2418 {offsets = [16], strides = [1]} : vector<8xf32> into vector<64xf32>
      %2420 = vector.insert_strided_slice %2416, %2419 {offsets = [24], strides = [1]} : vector<8xf32> into vector<64xf32>
      %2421 = vector.insert_strided_slice %2416, %2420 {offsets = [32], strides = [1]} : vector<8xf32> into vector<64xf32>
      %2422 = vector.insert_strided_slice %2416, %2421 {offsets = [40], strides = [1]} : vector<8xf32> into vector<64xf32>
      %2423 = vector.insert_strided_slice %2416, %2422 {offsets = [48], strides = [1]} : vector<8xf32> into vector<64xf32>
      %2424 = vector.insert_strided_slice %2416, %2423 {offsets = [56], strides = [1]} : vector<8xf32> into vector<64xf32>
      %2425 = vector.shuffle %2424, %2424 [0, 8, 16, 24, 32, 40, 48, 56, 1, 9, 17, 25, 33, 41, 49, 57, 2, 10, 18, 26, 34, 42, 50, 58, 3, 11, 19, 27, 35, 43, 51, 59, 4, 12, 20, 28, 36, 44, 52, 60, 5, 13, 21, 29, 37, 45, 53, 61, 6, 14, 22, 30, 38, 46, 54, 62, 7, 15, 23, 31, 39, 47, 55, 63] : vector<64xf32>, vector<64xf32>
      %2426 = vector.extract_strided_slice %2425 {offsets = [0], sizes = [8], strides = [1]} : vector<64xf32> to vector<8xf32>
      %2427 = vector.insert %2426, %0 [0] : vector<8xf32> into vector<8x8xf32>
      %2428 = vector.extract_strided_slice %2425 {offsets = [8], sizes = [8], strides = [1]} : vector<64xf32> to vector<8xf32>
      %2429 = vector.insert %2428, %2427 [1] : vector<8xf32> into vector<8x8xf32>
      %2430 = vector.extract_strided_slice %2425 {offsets = [16], sizes = [8], strides = [1]} : vector<64xf32> to vector<8xf32>
      %2431 = vector.insert %2430, %2429 [2] : vector<8xf32> into vector<8x8xf32>
      %2432 = vector.extract_strided_slice %2425 {offsets = [24], sizes = [8], strides = [1]} : vector<64xf32> to vector<8xf32>
      %2433 = vector.insert %2432, %2431 [3] : vector<8xf32> into vector<8x8xf32>
      %2434 = vector.extract_strided_slice %2425 {offsets = [32], sizes = [8], strides = [1]} : vector<64xf32> to vector<8xf32>
      %2435 = vector.insert %2434, %2433 [4] : vector<8xf32> into vector<8x8xf32>
      %2436 = vector.extract_strided_slice %2425 {offsets = [40], sizes = [8], strides = [1]} : vector<64xf32> to vector<8xf32>
      %2437 = vector.insert %2436, %2435 [5] : vector<8xf32> into vector<8x8xf32>
      %2438 = vector.extract_strided_slice %2425 {offsets = [48], sizes = [8], strides = [1]} : vector<64xf32> to vector<8xf32>
      %2439 = vector.insert %2438, %2437 [6] : vector<8xf32> into vector<8x8xf32>
      %2440 = vector.extract_strided_slice %2425 {offsets = [56], sizes = [8], strides = [1]} : vector<64xf32> to vector<8xf32>
      %2441 = vector.insert %2440, %2439 [7] : vector<8xf32> into vector<8x8xf32>
      %2442 = arith.divf %2383, %2441 : vector<8x8xf32>
      %subview_7 = memref.subview %subview[0, 0, 0] [1, 8, 8] [1, 1, 1] : memref<1x8x8xf32, strided<[262144, 64, 1], offset: ?>, #hal.descriptor_type<storage_buffer>> to memref<8x8xf32, #map14, #hal.descriptor_type<storage_buffer>>
      %2443 = vector.extract %2442[0] : vector<8xf32> from vector<8x8xf32>
      vector.store %2443, %subview_7[%c0, %c0] : memref<8x8xf32, #map14, #hal.descriptor_type<storage_buffer>>, vector<8xf32>
      %2444 = vector.extract %2442[1] : vector<8xf32> from vector<8x8xf32>
      vector.store %2444, %subview_7[%c1, %c0] : memref<8x8xf32, #map14, #hal.descriptor_type<storage_buffer>>, vector<8xf32>
      %2445 = vector.extract %2442[2] : vector<8xf32> from vector<8x8xf32>
      vector.store %2445, %subview_7[%c2, %c0] : memref<8x8xf32, #map14, #hal.descriptor_type<storage_buffer>>, vector<8xf32>
      %2446 = vector.extract %2442[3] : vector<8xf32> from vector<8x8xf32>
      vector.store %2446, %subview_7[%c3, %c0] : memref<8x8xf32, #map14, #hal.descriptor_type<storage_buffer>>, vector<8xf32>
      %2447 = vector.extract %2442[4] : vector<8xf32> from vector<8x8xf32>
      vector.store %2447, %subview_7[%c4, %c0] : memref<8x8xf32, #map14, #hal.descriptor_type<storage_buffer>>, vector<8xf32>
      %2448 = vector.extract %2442[5] : vector<8xf32> from vector<8x8xf32>
      vector.store %2448, %subview_7[%c5, %c0] : memref<8x8xf32, #map14, #hal.descriptor_type<storage_buffer>>, vector<8xf32>
      %2449 = vector.extract %2442[6] : vector<8xf32> from vector<8x8xf32>
      vector.store %2449, %subview_7[%c6, %c0] : memref<8x8xf32, #map14, #hal.descriptor_type<storage_buffer>>, vector<8xf32>
      %2450 = vector.extract %2442[7] : vector<8xf32> from vector<8x8xf32>
      vector.store %2450, %subview_7[%c7, %c0] : memref<8x8xf32, #map14, #hal.descriptor_type<storage_buffer>>, vector<8xf32>
    } {mapping = [#iree_codegen.workgroup_mapping<z:1>, #iree_codegen.workgroup_mapping<z>, #iree_codegen.workgroup_mapping<y>, #iree_codegen.workgroup_mapping<x>]}
    return
  }
}
